Model Two/Cresci_2017/BotRGNC_AfterTrain.pth (torch, 77002 bytes, 17 tensors)

linear_relu_des.0.weight f4 [8, 768]
00000000: 6636 65bd 0fd5 443e c94a 753e c7e8 663d
00000010: f225 3a3e 685a 36be 324a a3bd a561 13be
00000020: 61da da3d 0b40 5b3d 35f0 4f3e a0ec 1d3e
00000030: b3a9 03bd f135 24bf 6c18 1e3e 8499 123b
00000040: 1765 37be 0c5e 193d c8dc 1e3e ec10 c9be
00000050: 495c a0bd 91b1 863d 5a49 13bd 6b92 143e
00000060: 1e6a 68be 48eb 9bbd f1ec 103e 9ae1 8a3d
00000070: 4bdc 19be a883 953e f3ef 84be eb4e a7bc
00000080: b516 213e f023 0dbe 52cc a73d d079 7cbd
00000090: efff 803d 73b0 373e 1f65 92bc df65 153f
000000a0: e6dd ff3c 5851 543e 990f 9fbc 1edb bbbe
000000b0: c101 113e 2b7a 333e 7683 053e ee6a 3a3d
000000c0: 8670 0abc 2978 553e 585c 743d bef2 bebd
000000d0: 667a 823d 1b17 8d3e 4e2d 2ebe 5415 0ebe
000000e0: 26c2 9abd 4e73 983e b2de 5a3e 2822 1f3e
000000f0: 4579 753e 5efa 353d 1033 343d 60d6 8b3d
00000100: 293b 01bd a5fe 063e a607 f5bd 2c01 ff3d
00000110: 770c de3e 35f4 7d3d a89d 973e 6715 0bbe
00000120: 8629 343d 44f5 19be 892a cdbe fa36 2c3e
00000130: 2f0c 0cbc b55e 213d 3713 84bd cc5c 523e
00000140: 93ce 9a3e 30c7 4d3d b4c3 183c 531e ee3c
00000150: c11f 2f3d 44bc 60be 3112 c93d 2db7 383d
00000160: 08e5 0c3e 39a6 65be 2e39 dcbc 7a20 e7bd
00000170: ed72 d83c 3ab2 eb3d cc61 b7be 4afe 683e
00000180: 5bcf dfbd 33e4 333d eecf e93d e043 653e
00000190: 63ce 93be ae33 91be 8ad3 873d 3c67 993e
000001a0: fa37 643d 4ece 24be 0e0f 34be 100f ebbd
000001b0: 8c7c 193d 5273 02be ce7b 43be 0763 263e
000001c0: c4cc e7bd 0114 763d d8a7 f73c ed38 8fbc
000001d0: b982 113e 0510 0bbe 46b7 1f3e 800e 33bd
000001e0: 591e 6b3e a4f5 373e b2ea af3e 67b2 c83c
000001f0: 5617 88be 85c9 95bd 17bc 953c 163b 93be
00000200: 7907 5c3e 0711 ff3c 6f4c e53d eb5b 58bc
00000210: e658 c23d 5fe5 db3d 7c3c bc3d b8a0 c03e
00000220: 9a2d 10be bb81 0cbe c5c6 be3e 240d 803c
00000230: 7899 aa3e ed0d e13d 2ceb e33d c37a 563e
00000240: 4202 243e 58e9 82bd 3c1b cc3d 478e 3fbe
00000250: 4235 cdbe 6c20 043e 63be c9bd 1e39 963d
00000260: 4e03 88be 94ca 5ebe c613 8c3d 570c 3a3e
00000270: 61a3 0b3e 7947 71bd 66ef 473d dadb ccbc
00000280: cfba 423d 4d1e b03e 9798 76be ef25 523d
00000290: 6716 9f3e bf28 88be 97cf 03be e052 713e
000002a0: 5b42 87be 0607 4fbd b05d 9a3e 013a da3c
000002b0: 9d84 de3d 621f b3bd a426 953d c806 7dbd
000002c0: d556 1fbe 963b a13d 717e 61be 86a1 003d
000002d0: e393 bfbe bbb8 bf3e 6e25 90be 5fb3 b43d
000002e0: 951d e23d 71e5 ac3d d1df 55bc 23ed 57be
000002f0: 0467 ac3d 8be0 aabd 025b 313e 11f8 bebd
00000300: c44a eebe c42d 31bb 3068 003e 1dda a93d
00000310: 0fa3 2b3e dde7 e1be 47a6 653e b391 eb3e
00000320: 9f38 083e b2a3 80bd 91ab 723e 29cb 17be
00000330: 6409 ea3d b47b 743d 0dd2 02be 9801 483e
00000340: 7aaf c83e 3a98 06be cb58 b43d b38f 583e
00000350: 5279 5a3d dfa0 723d 0fac 1e3e fe42 0cbe
00000360: 35e0 a43d d7c9 203d 1463 e8bc 414f 23be
00000370: e91d d83d 5ccb 56bd 6cf4 c83e 4d39 debd
00000380: 2b95 873e c123 f93d 29d9 273e 578a e53e
00000390: 1580 083f 998a 4fbb fd03 7b3e 918f efbe
000003a0: 7ee0 48be df72 fa3d 1eb6 0d3d 1da7 44be
000003b0: 0196 d93d 2519 5b3d bda4 f13d d09a 213d
000003c0: 266b bfbd 4abb db3c 688b e73d 40f4 093e
000003d0: db1c c53e 6e17 163c cfc8 c83e b441 663d
000003e0: 0726 c1be 6adb 16bd 3b16 4c3c aff2 bf3c
000003f0: 28bc 05be 68ef 323e 341b 00bc 509b 6fbe
-0.05596008 0.192219 0.2395431 0.056374338 0.18178537 -0.17807925 -0.07973136 -0.14392717
0.10686184 0.053527873 0.20306475 0.15422297 -0.03214426 -0.6414481 0.15439004 0.0022369334
-0.17909656 0.037443206 0.15513909 -0.39270723 -0.07830102 0.06576837 -0.035958625 0.14508979
-0.2269673 -0.07613236 0.14152886 0.06781311 -0.15025441 0.29202008 -0.25964317 -0.020423373
0.15731318 -0.1378324 0.08193268 -0.061639607 0.062988155 0.17938404 -0.017870484 0.5835857
0.03123374 0.20734155 -0.019416617 -0.3669061 0.14160825 0.17527072 0.1303843 0.045512132
-0.008449679 0.20846619 0.05965838 -0.09323643 0.06371002 0.2755669 -0.1700947 -0.13875324
-0.07556562 0.2977547 0.21374014 0.15540373 0.23972042 0.044428222 0.04399401 0.06827998
-0.03155056 0.13183077 -0.119643494 0.124513954 0.43368885 0.062000472 0.2961247 -0.13582383
0.043984912 -0.15034968 -0.40071514 0.16817847 -0.008547827 0.03939696 -0.064489774 0.20543212
0.3023573 0.050238788 0.009324003 0.029067194 0.042754892 -0.21946818 0.09817923 0.045096565
0.13759243 -0.2242669 -0.026882734 -0.11285491 0.026421988 0.115086034 -0.358168 0.22753254
-0.10928222 0.0439188 0.114166126 0.22389174 -0.28868398 -0.2835974 0.06632145 0.29961574
0.055717446 -0.16094324 -0.17583868 -0.11477482 0.037472293 -0.12739304 -0.19090196 0.16248713
-0.11318353 0.06007767 0.030231401 -0.017483199 0.14210023 -0.1358033 0.15597257 -0.043715
0.22960795 0.17964798 0.34358746 0.024499131 -0.26580304 -0.073138274 0.018278165 -0.28756016
0.21487226 0.031136049 0.11196219 -0.013205509 0.09489612 0.107371084 0.09191224 0.3762262
-0.14079896 -0.13721363 0.37261024 0.015631266 0.33320212 0.10988984 0.1112884 0.20945267
0.16016486 -0.06392163 0.09966132 -0.18706618 -0.40079695 0.12902993 -0.098507665 0.07335113
-0.2656502 -0.21756965 0.06839709 0.1816877 0.13636543 -0.058906052 0.048812293 -0.025007177
0.047541436 0.34398118 -0.24081646 0.051305708 0.3107178 -0.26593587 -0.12872158 0.2356677
-0.26417813 -0.050543807 0.30149603 0.026638987 0.10865138 -0.0874622 0.07282761 -0.061774045
-0.15560468 0.07872693 -0.2202089 0.03140404 -0.37417516 0.37445626 -0.28153557 0.08823275
0.110407986 0.084422 -0.01305385 -0.21086554 0.08418086 -0.083436094 0.17319873 -0.09324659
-0.46541417 -0.0027035335 0.12539744 0.08293555 0.1676142 -0.4412221 0.22426711 0.46009597
0.13302849 -0.062812224 0.2369826 -0.14823593 0.11427572 0.059688285 -0.1277544 0.19531858
0.39196378 -0.13144007 0.088059984 0.21148567 0.053338356 0.05923545 0.15495323 -0.1369743
0.080505766 0.03925499 -0.028367557 -0.15948202 0.1055258 -0.052440032 0.3924898 -0.10850773
0.26480994 0.12165023 0.16391434 0.44832107 0.5332044 -0.0031668304 0.2451324 -0.4678922
-0.19616887 0.12228941 0.03459751 -0.19204374 0.10624314 0.053490777 0.117989995 0.03945428
-0.09346609 0.026822705 0.113058865 0.1347208 0.38498577 0.0091608595 0.39215705 0.056215003
-0.37724325 -0.036830343 0.012456472 0.02343115 -0.13060057 0.17474139 -0.007818986 -0.23399091

linear_relu_des.0.bias f4 [8]
00000000: 4c57 873d 972e 05bd 6a71 d13b d77a 7b3b
00000010: 1c62 f0bd 2aa5 a63c 8588 033c eb14 413b
0.066084474 -0.032515135 0.006391694 0.0038372779 -0.11737463 0.020342428 0.008028154 0.002946193

linear_relu_tweet.0.weight f4 [8, 768]
00000000: 13fb 8e3e 65bc bfbe 8584 01bd c3e3 37bd
00000010: e75d 313d e9df 8f3d f94f aa3d 2ef7 c1be
00000020: 8b70 183e c56b ee3e 1c99 853e 853d 503e
00000030: af4c 8fbd ada2 7cbe 7be1 6bbe f5c5 6a3e
00000040: c62a 5c3e 1bf0 debe e697 a23e f583 72be
00000050: 4c16 943e 80fa 9bbd 0c03 e4bd 78cb 05be
00000060: 81c1 7a3e 4d8b 7cbe f3d2 3ebd b200 a9be
00000070: 7c05 1cbe 8048 003f b1fa 8dbd 5434 583e
00000080: 00ca 27be b181 033d bacb 94be c3ac dc3e
00000090: 0c77 a0be 4b67 b7bb 7bdb 88be 1616 05be
000000a0: 5346 493e c5f9 003e 19d5 513e df33 c1be
000000b0: 3abf 2abe e210 95be 2bfa c83d 50b5 aa3e
000000c0: 0651 55be 5c51 18be 4b55 e4bc 0a61 ba3d
000000d0: 1bfb 19be dd14 8b3e 0f10 a1be 9253 9e3e
000000e0: 8ce5 b8bd ad21 2e3e 0389 29be 543e ce3d
000000f0: 9ef8 0e3e 47d1 e6bd fb3b 7c3e 5f2e 613e
00000100: 9121 a43d 5f18 c73d 602c 3dbe 8d2e 16be
00000110: 2c42 e53e d58b e2bd b130 713d fa39 813d
00000120: ef12 0e3e 8b38 9b3d 28cc 48be f96d 483c
00000130: 0827 8f3e b4f2 893e 3417 99be 6825 8abe
00000140: b19a e73d 347a 023e b3d7 4bbe b932 fbbd
00000150: 538f 1ebe b7b1 b2bd 9217 513e 08c2 ccbe
00000160: c986 953d a3a9 89be 6d0a 59be af7c c03e
00000170: 78b6 2dbe 3ea5 b43c e76f 26be 8aa5 35be
00000180: 2654 82be 462d 9fbe 6d41 853d 43b1 f03d
00000190: f6e2 dcbe fa9b e33d d9b1 5ebd 18f0 21be
000001a0: 1339 eabe d4cf 21be 22ad 02bc b683 e43b
000001b0: 4c62 a8be 6628 f8bd 6833 8dbe 7681 35bd
000001c0: be82 5dbc 64c4 d13e 864f f6bc caa9 8abe
000001d0: 04b4 cf3e 39ac 50be 95e5 0b3d 0ce5 f0bd
000001e0: ef4f 4bbe 23ab 233c 22ee 5f3d f7b2 6f3d
000001f0: c31d 813e 9885 08be e597 803d 80c9 8e3e
00000200: 7793 e43d c345 e43c efc0 c7ba 3b10 bf3c
00000210: da2d bfbe f31a 5bbe bf0d 303d b847 dd3e
00000220: 0a1b 18be 5e8d 00be 93e1 853e c85c afbe
00000230: b2ee dcbd 26ca 5bbe f073 29be 76d9 d1be
00000240: b083 953d 308d a1bd e3b7 cfbd f673 6b3d
00000250: 493e 1fbe 7ba6 7e3e d608 2abe 777b 333e
00000260: 78ea 303e f3cf 52be fe06 90be 712c c3bc
00000270: 0222 9d3d d1c3 9e3d 70c4 a03d ffb5 8abe
00000280: d307 6cbe a993 113e e876 ee3e f8a9 aebb
00000290: c4a0 c53e 5221 783d 3fc0 b5be e2e7 e53d
000002a0: 369f 753e d108 dbbd 34b5 cf3d b4e2 bb3e
000002b0: 5707 8f3d cbdd 733e 5170 9a3d cf8f 81be
000002c0: a9e1 fdbd ebbc 10be 3b5a f3bd 0346 943d
000002d0: 356e 0cbe fb51 243e 338c 123e 42b6 3d3e
000002e0: f3af 80be b2e3 01be 3f04 b8bd 1f05 8fbe
000002f0: d9b9 d43d e0dd e2bd 746c 0abe 22d8 80be
00000300: 02cf 5ebe 94ce 403d 7242 4fbe 953e f83c
00000310: c396 033e e312 6dbe 1f54 9a3e 682f 1bbe
00000320: 2244 443b bde9 96bd 0a04 213e e17e 953d
00000330: 8c3f abbe b76c f0bd 2eea 283e 9a9b 2dbe
00000340: 9d06 0abe da98 e73d a978 c53d a561 363c
00000350: cb7c 263e 8ce1 18be edf0 d8bc c273 c8bc
00000360: be40 59bd 039f 593e bff0 a93c 254d 0abe
00000370: 9e3e ddbc a2bb 3ebe c639 623e 896e 69be
00000380: cf9f 21be 903b 213e 3b1b 4fbe db61 6f3e
00000390: 8f57 903e c9b3 04be 2ead 1cbe 3e16 90be
000003a0: 2085 3fbe 20a5 743e 8e3e edbd b844 ffbe
000003b0: 224d b53e e345 91be 2835 69be bb29 16be
000003c0: 097b 5f3e cd2b 0cbe 453f acbd 110a a6be
000003d0: e6b5 d3bd 141d e4be b9db 153d 2bf4 49be
000003e0: c273 e5bd 6833 b63d f87b 5bbe 8643 8a3e
000003f0: f6b9 82be e309 d23d f7e9 663e 4f7f f6bc
0.2792593 -0.3744842 -0.03162052 -0.044894945 0.043302443 0.07025129 0.08316035 -0.37883896
0.14886682 0.46566597 0.26093376 0.20335968 -0.06997048 -0.24671431 -0.23035233 0.22927077
0.21500692 -0.4354256 0.31756514 -0.2368315 0.2892326 -0.076161385 -0.11133394 -0.13065898
0.24487878 -0.24662514 -0.046587896 -0.33008343 -0.15236467 0.50110626 -0.06932581 0.21113712
-0.1638565 0.032106105 -0.2906168 0.43100557 -0.31340826 -0.0055970303 -0.2672995 -0.12996706
0.19655733 0.1259528 0.20491447 -0.37734887 -0.1667451 -0.29114443 0.09813341 0.33341455
-0.20831689 -0.14874786 -0.027872702 0.0910054 -0.15037195 0.27164355 -0.31457564 0.30923134
-0.090281576 0.17005034 -0.16556172 0.10070482 0.13962027 -0.11270385 0.24632256 0.21990345
0.08014215 0.09721445 -0.18473959 -0.14666195 0.44777048 -0.11061827 0.058884326 0.06309886
0.1387441 0.07579144 -0.1960913 0.012233251 0.27959466 0.2694298 -0.29900515 -0.26981664
0.11308802 0.1274193 -0.19906501 -0.12265534 -0.15484361 -0.08725303 0.20419148 -0.39991784
0.07301099 -0.26887235 -0.21195383 0.37595126 -0.16964138 0.02205145 -0.16253625 -0.1773893
-0.25454825 -0.31089228 0.065066196 0.1175256 -0.43141907 0.111137345 -0.054368827 -0.15814245
-0.4574667 -0.15801936 -0.007975848 0.006973709 -0.32887495 -0.121170804 -0.27578282 -0.044312917
-0.013519941 0.40970147 -0.030067217 -0.27082664 0.4056703 -0.20378198 0.034154493 -0.11762437
-0.19854711 0.009989533 0.05467046 0.058520284 0.2521802 -0.13332212 0.062789716 0.27888107
0.11160939 0.027865296 -0.0015239994 0.023323169 -0.3733967 -0.21396999 0.04298186 0.4321878
-0.14854065 -0.12553927 0.26148662 -0.34250474 -0.10787715 -0.21463832 -0.16548133 -0.40986222
0.07300508 -0.078882575 -0.101424955 0.057483636 -0.15551104 0.24868195 -0.16604933 0.17527567
0.17276943 -0.20587139 -0.28130335 -0.023824902 0.07672502 0.07752193 0.078499675 -0.27091977
-0.2304986 0.14216484 0.46575093 -0.0053303204 0.38599217 0.06057865 -0.35498235 0.11225869
0.23986515 -0.10695041 0.10141984 0.36696398 0.06983822 0.23815076 0.07540954 -0.2530503
-0.12396557 -0.14134566 -0.118824445 0.07239916 -0.13713916 0.16046898 0.14311294 0.18526557
-0.2513424 -0.12684515 -0.08985185 -0.27933595 0.1038701 -0.110774755 -0.13517934 -0.25164896
-0.21758655 0.04707201 -0.2024019 0.030303279 0.1285048 -0.23151736 0.30142304 -0.15154803
0.0029947837 -0.07368801 0.15724197 0.07299591 -0.3344692 -0.11739486 0.16495582 -0.16953889
-0.13479085 0.11308451 0.09642155 0.011131679 0.16258542 -0.1492979 -0.02648207 -0.02446926
-0.05304026 0.21252064 0.02074468 -0.13505991 -0.027007397 -0.18626264 0.22092351 -0.22796072
-0.15783618 0.15745378 -0.20225231 0.23377173 0.28191802 -0.12959208 -0.15300438 -0.2814197
-0.18703127 0.23891115 -0.11584197 -0.49857116 0.3541041 -0.28373632 -0.22774184 -0.14664356
0.21824278 -0.13688584 -0.08410505 -0.32429555 -0.10337429 -0.44553435 0.036586497 -0.19722049
-0.1120372 0.08896524 -0.21434009 0.2700464 -0.25532502 0.10255792 0.22550188 -0.030090002

linear_relu_tweet.0.bias f4 [8]
00000000: 3587 ee3c d55e 51bd 5419 bf3d 9e4e 9ebd
00000010: 80d3 aa3d a7e4 b2bd fd81 433e 896b f0ba
0.029117206 -0.05111583 0.09331003 -0.07729839 0.08341122 -0.08735018 0.19092555 -0.0018342595

linear_relu_num_prop.0.weight f4 [8, 5]
00000000: ea62 923e 4d87 febd 8e01 51be 3537 14bf
00000010: 3383 353f fbe1 49bf 625a ef3d 1563 dc3e
00000020: 791a 073f c9ec f3be 6c7d acbe 177e 633f
00000030: ba8b 323f 0b8c a63e d9b0 35be 155c 913e
00000040: 78f5 243f f850 aebe be1a 23bf 681b 2d3d
00000050: e945 0dbf bb15 a83e 78ea 033f e675 3f3e
00000060: a2fc d03e 0d31 313f 7ae8 0abf 2a16 abbd
00000070: d234 873e e9ba 81bf 4af8 edbe 99e9 44be
00000080: 5a34 1fbe 8c7d e23e ca48 063f c93f 25bc
00000090: 2a84 3dbe 9c02 663d 1425 37bf 6d41 c3bf
0.2859109 -0.1242815 -0.2041075 -0.5789674 0.7090332 -0.78860444 0.11687161 0.43044344
0.5277477 -0.4764159 -0.3368944 0.8886427 0.69744456 0.3252872 -0.17743243 0.28390566
0.64437056 -0.3404615 -0.6371268 0.042262465 -0.551848 0.3282908 0.51529646 0.18697318
0.40817744 0.6921547 -0.5426098 -0.08353837 0.26407486 -1.0135165 -0.46478492 -0.19229735
-0.15547314 0.4423641 0.5245482 -0.010086008 -0.18507448 0.056154832 -0.7154095 -1.5254341

linear_relu_num_prop.0.bias f4 [8]
00000000: 3757 013e 748a 1fbe f9fe 113e 9732 9bbe
00000010: 0d50 d6bd 62e5 22bd b269 373e 3a9e bfbd
0.12630926 -0.1558016 0.1425742 -0.30312034 -0.10464487 -0.039769538 0.17911413 -0.09356351

linear_relu_cat_prop.0.weight f4 [8, 3]
00000000: e67a 86bf c6eb a23e 5c62 433f 00e3 cb3d
00000010: 3a8d b1be 9216 db3e 3123 7d3f 4aec bfbf
00000020: acc2 b63e bcfc 44bf 2eb7 2dbe 03d8 b93d
00000030: 4ea3 a5bf ead4 0f3e 0da5 93bf eb18 9a3f
00000040: f810 2abe 4d50 f73e 4eed 6ebf 0377 45bf
00000050: dcb9 843e 1508 2b3f 214f f43f c512 1f3e
-1.0506256 0.31820506 0.7632196 0.09955406 -0.3467806 0.42790657 0.9888182 -1.4993985
0.35695398 -0.7694814 -0.16964409 0.09074404 -1.2940462 0.14046064 -1.1534745 1.2038854
-0.16608036 0.48303452 -0.9333085 -0.7713472 0.2592305 0.6680921 1.9086648 0.15534504

linear_relu_cat_prop.0.bias f4 [8]
00000000: 3455 063e e7ae 743e abb7 ac3d b776 3abe
00000010: edef f33e 5f8d 033d 1eab a53e f6c3 183e
0.1311844 0.23894845 0.084334694 -0.18209349 0.47643986 0.032117244 0.32357115 0.14918503

linear_relu_input.0.weight f4 [32, 32]
00000000: 094f 673e 0e2f 03bd 03e7 e0bd c74a 83bd
00000010: 1170 70be f426 7fbe 570b febd 285c efbd
00000020: 6022 a3be 836e d33e 839f a0bd 62bb 993d
00000030: 3579 c1bd b710 43be 9535 bebd eb52 973d
00000040: 3569 523e af9b 8dbd f2be 143e 3264 973d
00000050: 90e7 203e 556a 103e d970 353d 4501 0bbe
00000060: 6f78 d43e 4fa5 8b3e 5163 be3d 510b 813e
00000070: 282a b7be 11d8 8ebd afba ee3c a0f5 27be
00000080: f763 66be 6afe bdbe d9ad c3bd f437 8fbe
00000090: 9217 673e c867 b83c 2f76 b8be fffe 4fbe
000000a0: 3eed 3c3e d036 793e 3ade dabd 1238 ff3d
000000b0: e55a eebd 1f50 0f3e f912 58be 68f5 bbbd
000000c0: 08ab cb3d 2456 febe 5096 0f3e 29f3 fabe
000000d0: 46e7 1e3e 46cc 9dbe 55df 89be cf04 2bbe
000000e0: a554 0a3d 23f1 04bf de88 0cbd 2ba2 c0bd
000000f0: b236 a4bd 3a4f 1ebd 3795 a2bd 13e7 353e
00000100: 3954 273e 8ab1 fd3d 1d8f 37be 6141 c53c
00000110: e935 32be b089 abbc 4894 dcbd d3ab dd3e
00000120: 03c0 c33c a133 2c3d b98f 1bbd c837 0e3f
00000130: cf4f 9bbd 0411 8c3e 1d0b b3be fcb1 803b
00000140: 0cb1 d53e 5768 bbbe 086c 8eba 393f 003e
00000150: 0187 f63d df6d 0bbe 34a8 9cbe 8591 9fbe
00000160: fb8e 4a3e 2ffb 7ebe 1e8f 10bf 8133 7dbe
00000170: 35d1 3bbd 64d2 413c c1dd 38be 201b 063f
00000180: a2de 7f3e ad4b bbbe 4c2e c83e 3e4f 0d3e
00000190: 1592 74be d789 623e 6cc2 d93d d7a8 9ebd
000001a0: af80 37bc de09 94be 9507 ba3e 1e9d 983e
000001b0: d2de 7fbe 48f6 653d 01c1 553e b8c8 4cbe
000001c0: 2ef8 d1be b050 943e 0a22 083e 3fdd 623e
000001d0: 7b21 cd3d 03b2 c53b 409b 83bb 4ca3 483e
000001e0: 9437 aebe 061e afbd 00ee d73e 5292 c1be
000001f0: 03a5 fe3e fe11 853e c711 9fbd 570c d23c
00000200: 36e8 e93e bfb3 92bc b554 1d3e 4d2a 803e
00000210: 2c95 3cbe dc3f ea3e 08f5 a03a 20ad a33d
00000220: 3c81 5f3d 49f0 94be fce1 7abe 2260 1c3e
00000230: 3b2a 1a3e 5ccf c4be a838 b0bd 04ec 513d
00000240: 55a3 cebe 036d 06bd 112e 5bbe 46e0 203e
00000250: c185 7b3e 5222 9abd 444e c5be c955 7bbe
00000260: 6a50 bdbc 8893 98b9 4a7f c1be 208a a9be
00000270: 470d 46be d0ce 0cbe 9850 9abe 9112 d53e
00000280: 2212 093f d047 92be db1a 1d3c 243b bcbe
00000290: 38e5 4fbe 6300 b4be b06b 53bd b789 59bd
000002a0: 9f2c 50be e0c9 c63e 1721 a73e 379b fcbe
000002b0: 8c76 cabb 563d 373e 3722 9b3c 08ae ebbe
000002c0: 284c 573c e65c 183e 2aa5 03bf cf26 21bf
000002d0: b74d 82be eac1 6c3c 196b c63c e53f 3c3e
000002e0: 4db2 4dbe b50b 1ebd d20f 62be b3e8 f73c
000002f0: ca04 fabe a073 91be d043 25bc baf3 a3be
00000300: d9a3 7ebe 22bf 2ebe c84d 64be 4039 9c3e
00000310: db8c 933c 7f3a c9be 9bff cbbe 2822 ddbe
00000320: 7b0b fc3d 0e02 cb3e d487 84be 7f63 02be
00000330: 5673 e8be cf7c 23be 2e6d 01bf 9cfc 363e
00000340: 8255 5d3e 8edc 483d 164e 173e 88c1 c8bd
00000350: cfd9 94bd d1dc 8fbd c217 91bd 6c04 b7be
00000360: 2e44 c6be d292 fdbd 48b9 a93e 2178 853e
00000370: a8c0 ae3d a797 aebd eca4 4b3e 9292 90be
00000380: c53b b53d 5d6a 9cbe fb2b 13be 6e4c 75be
00000390: 6b38 0a3f 58a3 abbe 314e 613e b177 c0be
000003a0: cbd6 c83d 8e17 05be f838 d8be afd7 02bb
000003b0: 5e5f f5be 2d76 bd3e 54f6 c5be 83d0 6dbd
000003c0: 3779 163e 6db6 45be a40f 5e3d 6d97 c2be
000003d0: 9a7c 3fbe ef5c 603e 47be 28bf c748 be3e
000003e0: c85a 3cbe c517 793e f328 b03e 7dd7 6dbe
000003f0: e84c 1dbe 6a38 77be 1c5a 963e 7e86 4dbf
0.22588743 -0.032027297 -0.10981562 -0.06410747 -0.2348025 -0.24917203 -0.12404507 -0.11687499
-0.31862164 0.4129525 -0.078429244 0.075064436 -0.094469465 -0.19049345 -0.09287564 0.07388862
0.20547946 -0.0691446 0.14525965 0.073921576 0.15713334 0.14103062 0.044297073 -0.13574703
0.41498134 0.27274558 0.09296287 0.25203946 -0.3577435 -0.06974805 0.029141752 -0.16402292
-0.22499071 -0.37108165 -0.09554643 -0.27972376 0.22567585 0.022510424 -0.36027667 -0.20312117
0.18449876 0.24337316 -0.106869176 0.124618664 -0.116384305 0.13995408 -0.21100987 -0.09177667
0.09944731 -0.49675095 0.14022183 -0.4901364 0.15517911 -0.3081991 -0.269282 -0.16701053
0.03377213 -0.51930445 -0.034310214 -0.09405931 -0.08018245 -0.038649775 -0.07938617 0.17763929
0.16340722 0.123873785 -0.17925687 0.024079027 -0.17403378 -0.020939678 -0.1077047 0.43295154
0.02389527 0.042041425 -0.03797886 0.55553865 -0.07583582 0.27356732 -0.34969416 0.0039274674
0.4173664 -0.36603042 -0.0010865936 0.12524118 0.12037469 -0.13616131 -0.3059708 -0.3116571
0.19781105 -0.24900506 -0.5646838 -0.24726678 -0.045853812 0.011829946 -0.18053342 0.5238514
0.24987271 -0.36581174 0.39097822 0.1379976 -0.23883851 0.22122894 0.10632786 -0.077470474
-0.011200114 -0.28913778 0.3633391 0.2980737 -0.24987343 0.056143075 0.20874406 -0.19998443
-0.4100966 0.2896781 0.13294235 0.22154711 0.100161515 0.0060331835 -0.00401631 0.19593543
-0.34026778 -0.085506484 0.42173767 -0.37806946 0.4973527 0.2599029 -0.07767063 0.02564065
0.45684975 -0.017907975 0.15364344 0.25032273 -0.1841628 0.45751846 0.0012280056 0.07992005
0.054566607 -0.29089573 -0.24500269 0.15271047 0.15055172 -0.38439453 -0.08604556 0.051250473
-0.40358987 -0.032818805 -0.21404292 0.15710554 0.24562742 -0.07526077 -0.38536274 -0.24544443
-0.023109633 -0.0002910162 -0.37792426 -0.33113194 -0.19341002 -0.13750768 -0.30139613 0.41615728
0.53543293 -0.28570414 0.009588922 -0.3676387 -0.20302284 -0.35156545 -0.05161637 -0.05310985
-0.20329522 0.38825893 0.32642433 -0.4933717 -0.0061786827 0.17894492 0.018937213 -0.46031213
0.013140716 0.14879188 -0.51423895 -0.6294984 -0.25449917 0.01445053 0.02422099 0.18383749
-0.20087548 -0.038585383 -0.22076347 0.030262327 -0.4883178 -0.28408527 -0.010086969 -0.32021886
-0.2486719 -0.17065099 -0.22295296 0.30512428 0.018011501 -0.3930244 -0.3984345 -0.43190122
0.12306877 0.39650005 -0.2588488 -0.12733267 -0.45400494 -0.1596558 -0.5055722 0.178698
0.2161465 0.049038462 0.14775881 -0.09802538 -0.07268106 -0.07024539 -0.070846096 -0.3574556
-0.38723892 -0.123815194 0.3314917 0.26068214 0.0853284 -0.08525019 0.19887131 -0.28236824
0.08849291 -0.305499 -0.14372246 -0.23954937 0.53992337 -0.3352306 0.22002484 -0.37591317
0.098065935 -0.12997267 -0.42230964 -0.0019964983 -0.47924322 0.37004223 -0.38664496 -0.05806018
0.14694677 -0.19307871 0.054214135 -0.38006154 -0.18699875 0.21910451 -0.6591534 0.371649
-0.18394005 0.24325474 0.34406242 -0.23226734 -0.15361369 -0.24142614 0.29365623 -0.80283344

linear_relu_input.0.bias f4 [32]
00000000: 4451 28bd b3d9 8fbe 7f4e 3ebd f840 953e
00000010: 3790 adbd 1aa7 1cbe 25fe 7b3d 0ff6 d3bd
00000020: 9895 b1bd a696 c9bd e515 b9bd a914 903c
00000030: 3541 fcbc 63ac c8bd 8903 14be 0cea ffbd
00000040: 6c3f b8bc d705 02be 08c5 b53d 0d32 913d
00000050: 4e0f 1ebe cbfb bb3c 9a15 eebc a2d7 adbe
00000060: ea32 b1bd bc85 38be b14b d43c 3554 693e
00000070: 8329 c2bd 58b8 14bd aa91 53be a9b2 5bbd
-0.041093126 -0.2809578 -0.04646158 0.2915113 -0.084747724 -0.15298119 0.061521668 -0.10349666
-0.08671111 -0.09843187 -0.09037379 0.017587977 -0.030792812 -0.09798505 -0.14454474 -0.12495813
-0.02249118 -0.1269754 0.08875471 0.070896246 -0.15435526 0.022947213 -0.029063035 -0.33953577
-0.08652289 -0.18019766 0.025914999 0.22786029 -0.09480574 -0.036308616 -0.20661035 -0.05363718

rgcn.weight f4 [2, 32, 32]
00000000: a53c 1bbe 946c 523e 66b8 863e a0c5 de3d
00000010: 800d 303e bec3 80be 0e3a eb3d 2f5c fcbc
00000020: 8b1c 60bc a209 33be ab1f 6e3e 3458 72be
00000030: 8ac1 6bbe d15a e6bd 859b 183d e3b7 953d
00000040: af7e 973d 2dc8 43be b4c0 3b3e 9ad8 443d
00000050: 7c5e b93d 00e9 37bd a1f3 aebd 04a3 81be
00000060: d625 3abd 9a3b 34be 9cdc 153e 0b30 f43d
00000070: 27ce 7d3d 4919 0a3e 3087 67be 46ca e3bd
00000080: 401e 2e3e 0015 84bd d6a7 a0bd e3bd 883c
00000090: 4e94 12be 5c54 c63c 798e a43c e74c 353d
000000a0: f20e 4ebd 1623 b53d 306d 633d aa21 1fbd
000000b0: 49bf b6bd a1a6 a0bd 2467 da3d dcd2 c33d
000000c0: 2777 59be 70bd 24bd ca64 5bbd 9343 8bbd
000000d0: c753 debd 8dcc 2c3e 4ec3 25be 2621 eebd
000000e0: 32f9 2dbd 2bee 813c 7754 38be d1f3 cdbd
000000f0: 8246 3d3e abf1 e4bc 63bd 2bbd 1bfe 5d3e
00000100: 646c 2f3d 8754 6cbe 0eca dd3b 3dfd bfbc
00000110: 5072 91bc 81f9 7cbd 2cd8 453e ed68 0c3e
00000120: e3f1 643d 6010 073e 8462 adbd 0ee1 32be
00000130: 5a94 3a3e e867 ab3d 689d 393e a2e8 ec3d
00000140: 2b20 2f3d ef95 823d 6c5f 83bd e5e9 613e
00000150: ccf4 d93d b281 66bc 8870 b6bd 8917 553e
00000160: 81c2 643e d0c1 e3bd 0785 19be ff6d a73d
00000170: 480d f7bd 5624 a5bd 8aab 0dbe 4ac8 66bd
00000180: a136 a73c 398e 943d c70a 25be 1c44 bbbd
00000190: 8290 22be 69fe 503e b431 3e3d 09ef e63d
000001a0: b35a 253e 9560 5c3e 13e7 873c d0bd 563e
000001b0: 9996 523e 38e1 8dbd b940 023e 3288 673e
000001c0: 40a3 073e 73f5 8c3d 1bfe 02be 3fdf 4ebe
000001d0: 54f8 69be 2436 62be 5d39 67be d2d5 c93d
000001e0: 1201 d0bd c63a 38be 1414 74bd 9e07 d53d
000001f0: 0d00 7cbe e1d4 f43d 183a 253e 1d00 48be
00000200: 2023 31be 2c6f 883e 67cf d03c cc31 823e
00000210: e671 263e b1db c83c dab0 963d 607f 21be
00000220: c3d4 9dbd f532 593e 03d6 083d 2165 27bc
00000230: 377a 32be 58fb 7bbe dc7a 42be b7fb 093e
00000240: 90e4 663e 657e 8cbe facb 103d bd32 583d
00000250: 12f0 07be a22f cf3d 3075 5b3e a8b0 93be
00000260: 15e8 96be 9302 56be 5396 a53d 7203 9ebd
00000270: 71df 663e 645b fa3c 4401 60bd 5e03 5e3b
00000280: 286c 40be 13bc 863e d74d 69bd 136b 623d
00000290: 178d 26be ccae 01be 0f7c 6e3c 8235 003e
000002a0: 0236 833e 8696 6abd 965d 34bd 86ef 243e
000002b0: dcb4 c93c a3ba 6bbe 96d8 f43b 5e97 a03d
000002c0: 08be a73d 7d02 26be 094c aa3d 5930 6dbe
000002d0: 1dd9 e0bd 0abf 00be 241b 05bd 2b17 183e
000002e0: 0978 7a3d dbc6 e5bd bc93 13bc 26e6 883d
000002f0: 04ba 653c 40cd 3c3d 5b24 0fbe 2ca5 c13d
00000300: 7a31 263e 5b29 383e 22cd 1cbe b458 72be
00000310: 858d 4fbe a174 553e cafc f9bd ac5a 2dbe
00000320: f575 cb3d 4bb2 8d3c 6ad9 413d 191b 353e
00000330: 2168 ac3d fa05 66be 0024 15bd 64c8 7bbe
00000340: 5e73 463e b72f 3cbe e8d7 9ebc ebe7 49be
00000350: f402 9fbc fb8a e6bd 2efb 22bd f125 1abe
00000360: c059 543e 5e0b 873a bb8e 193e 4f65 7a3e
00000370: 0f6a 43be 2080 54be 02b6 803d 9c91 923e
00000380: 8e52 debd d4f5 e83b e989 303e 084c 42be
00000390: 2ae7 a63d 9b3b bd3d 0615 343e a8f1 e83d
000003a0: f910 a4bd 60b4 f03a 2d86 b23d ddc3 6bbe
000003b0: 8f4e 53be 90d8 b23c fc09 db3c cf71 8abe
000003c0: 42e0 49bd 48a7 983c bc3e 8dbb 02bd cdbc
000003d0: f55b 293e 96b8 efbd 9e05 9abd 0cc4 c73d
000003e0: 53e1 133e 5e4b 68be f08d f0bc ea56 52bd
000003f0: 7836 323d 4b8c b53d fa89 3d3e ac34 1c3e
-0.15159853 0.20549232 0.2631256 0.10877538 0.1719265 -0.2514934 0.114856824 -0.030805675
-0.01367868 -0.17484143 0.23254268 -0.2366646 -0.23023048 -0.112477906 0.03725769 0.07310464
0.0739721 -0.1911933 0.18335229 0.04805813 0.090512246 -0.04489994 -0.08542562 -0.25319684
-0.04544624 -0.17600861 0.14634937 0.11923226 0.06196418 0.13486208 -0.22610164 -0.11122565
0.17003727 -0.06449318 -0.07844512 0.016692108 -0.14314386 0.024210148 0.020087468 0.044262793
-0.05030722 0.08844583 0.05552405 -0.038850464 -0.089232035 -0.07844282 0.10664204 0.095617026
-0.2123686 -0.040219724 -0.053562917 -0.06799998 -0.10855823 0.16874905 -0.16187784 -0.11627416
-0.04247398 0.015860638 -0.18000971 -0.1005627 0.18483928 -0.027947268 -0.04192866 0.21678965
0.04282798 -0.2307912 0.0067684716 -0.023436183 -0.017754704 -0.061761383 0.19320744 0.13711901
0.055894744 0.1318984 -0.08466056 -0.17468664 0.18220654 0.08369428 0.18126452 0.11567809
0.042755287 0.06376254 -0.06414685 0.2206188 0.106423944 -0.014069008 -0.089081824 0.20809759
0.22339822 -0.11120951 -0.14992152 0.08175277 -0.1206308 -0.08063571 -0.13834968 -0.056343354
0.020411791 0.07253689 -0.16117392 -0.0914385 -0.15875438 0.2040955 0.04643412 0.11276061
0.1614788 0.21521218 0.016589677 0.20970845 0.20565261 -0.06927723 0.12720002 0.22610548
0.13245869 0.06882753 -0.12792246 -0.20202349 -0.22848636 -0.22090966 -0.22580476 0.09855236
-0.10156454 -0.1799117 -0.05958946 0.104018435 -0.24609394 0.11954666 0.16135442 -0.19531293
-0.17298555 0.26647317 0.025489522 0.25428617 0.16254386 0.02451882 0.073579505 -0.15771246
-0.07706597 0.21210845 0.033407222 -0.010216982 -0.17429434 -0.24607599 -0.1899218 0.13474928
0.22548127 -0.2744018 0.035350777 0.052782763 -0.13275173 0.10116507 0.21431422 -0.28845716
-0.2947394 -0.2089942 0.08085313 -0.07715501 0.22546174 0.030561157 -0.054688707 0.0033876519
-0.18791258 0.26315364 -0.056959 0.055277895 -0.16264759 -0.12664336 0.014555945 0.12520412
0.25627142 -0.057272457 -0.044034563 0.16106996 0.024622373 -0.23020415 0.007472108 0.07841371
0.081905425 -0.16211887 0.08315284 -0.23162974 -0.10978911 -0.12572876 -0.032496586 0.14852588
0.06114963 -0.11219569 -0.009007391 0.06684522 0.0140214 0.04609418 -0.13978712 0.09455332
0.16229811 0.17984526 -0.15312627 -0.2366665 -0.20268829 0.20845272 -0.12206419 -0.1692912
0.09934608 0.01729693 0.047326483 0.17686118 0.084182985 -0.22463217 -0.036411285 -0.24588162
0.19379947 -0.18377577 -0.019390061 -0.19717376 -0.019410588 -0.11256977 -0.039790325 -0.15053536
0.20737362 0.001030307 0.14995854 0.24452709 -0.19083427 -0.20752001 0.06284715 0.28626716
-0.1085559 0.007109383 0.17240109 -0.18974316 0.0814956 0.092398845 0.17586145 0.11374217
-0.0801105 0.0018364303 0.08716998 -0.23023935 -0.20635436 0.02183178 0.02673816 -0.27039954
-0.049286135 0.018634453 -0.004310457 -0.02511454 0.16538985 -0.11705129 -0.07520603 0.0975419
0.14441423 -0.22685 -0.029364556 -0.05135242 0.043508977 0.088646494 0.18509665 0.15254468

rgcn.root f4 [32, 32]
00000000: 0d03 c4bd 3a6b ee3c 1195 3d3d 7345 993d
00000010: bb80 cd3e b3d2 073d 8a7c 47bd b886 943d
00000020: edd5 773e 5e03 6f3e 1243 8b3e 7ab8 1c3e
00000030: 05ad 933e 1f9f 873b 34c2 06bd ef6b f2bc
00000040: c973 babe fbb8 bebe 4851 dbbe dd03 8fbd
00000050: ae97 793d d50e a1be 153f 30bb d186 9f3e
00000060: bc15 0fbe 6ae7 813e cbdb 21be 4e57 48be
00000070: 0939 733c 20d5 40be 94c4 fc3c 62d7 2f3d
00000080: ea30 6a3e b81a 1cbd e4b8 613e e6dc cb3d
00000090: 31eb a2bd e097 df3d 5a07 23bd b2ea 73be
000000a0: 00ba a5bc 7cf7 753c 52a6 c8bd ed74 163e
000000b0: 888f c6bc a177 94be 8e37 7a3b b979 8abe
000000c0: 3d44 92bd 617a e93c bfff 70bd a629 f33d
000000d0: c0d1 fb3d 8ccd c2bd e4f4 cdbd 42f3 aa3c
000000e0: 8fa7 72be 1333 933e caff d2bd 1c7f 293e
000000f0: 9ae6 49be bcc5 08be b7cf 85bb 7a66 37bd
00000100: 40ab 883d 0c46 3f3c c5cb e1bc b549 db3d
00000110: 184e 333e 4576 d7bd 3779 21be 757b 343e
00000120: 5485 04be b184 f73d 7290 1ebd 67d5 683e
00000130: a3a7 ad3d 5be2 febd c94f 923e 8408 05be
00000140: 4ae7 1e3e c6cd 9abd f4d2 ec3d e1de 663e
00000150: f98d 4d3e 95b2 f33d f654 ffbd 2da9 7a3e
00000160: a39a fbbc 0b0e 783e e7aa 96be 0c3d d93c
00000170: b423 cd3d 4404 0a3d 4113 b53e 6845 3abe
00000180: d9f0 aabd 7265 46be f7be 9ebd 0f6f 163e
00000190: 7c15 5bbe 2c42 ca3c 4100 96be 32c5 8c3e
000001a0: 9739 5f3e 6ce4 70be d8cb 2abe 8b0a 43be
000001b0: e4fb df3d bd72 963b afa9 683e 6e0e 41be
000001c0: 2242 87bd be25 8c3e a79e 943e fdf8 913e
000001d0: bf91 873d 1892 a5bd 32ee 283d 0831 12be
000001e0: f2a6 3c3e 6bf0 4cbe 3750 863e ad64 8c3e
000001f0: 4aec 04be 8000 29bd d91e 19bc 261c 10be
00000200: 8156 b7be 025b 313e b9a8 c0bd 9c0e fa3d
00000210: 487b ae3c dba0 a73c d067 2cbd 8f9f 143e
00000220: 3b7a 363e abf5 bd3d e62e 1abd 33b2 3ebc
00000230: 4787 17be a13e 92be 7687 d83d f6ad 74be
00000240: a287 05be f289 02be 3744 25be bcf1 d33d
00000250: f60a 9fbe 958d 20be 0904 33bd 8894 f8bd
00000260: 59e0 a2be b4e9 72be f67a 42bb 697b bdbd
00000270: e270 b53d 16a9 963e 2665 8f3e 165a f5bd
00000280: 2364 c4bc 6959 9f3d 556a 203e 0e89 fd3c
00000290: 851d 3dbc 7276 2c3d de41 f8bd a477 00be
000002a0: 89f9 5a3e 59f7 f93d 2e06 cf3d 08af bbbd
000002b0: 3a3d ad3e 6824 60bd 2d65 9abe dabe 88be
000002c0: f0d8 f73d 9e49 9ebe 8028 92be 9a5e 96bd
000002d0: 34f4 f33d f4d0 353c 5a79 423d 9d6d 883e
000002e0: 0f65 3abd 6b9c 303e 62de 5f3b f743 b3bc
000002f0: 919a 6fbe fb69 b13e 8493 1e3d 0383 9c3d
00000300: 68ae ffbc 20ff 113e f75c 143e 7acf 7b3e
00000310: 3066 8f3e 446e 743e 5107 e2bd 81e3 9abd
00000320: 989d 06be dadf 1bbe 96b1 243d ba7f 073e
00000330: 6d07 a83e 2781 9b3d 4f6e babb 0309 0a3e
00000340: 059f 083e fd67 113d 4e64 9ebc dd69 de3c
00000350: 24c7 0abe ae6d 05bd 88e8 85be 5abf 123e
00000360: a77f 96be 67e9 9b3c 5897 bcbe 596c 703e
00000370: ce60 a3bd 72a3 dfbc 74fa a63e f3fa 2c3d
00000380: 0d03 063f ffb5 d03c a8a8 e03e 79ba 153d
00000390: 1b74 e9bc 1675 533e 7dd6 263e faff ce3d
000003a0: ad0f 6cbd b197 afbc ae3a 5f3e f051 8a3d
000003b0: c88c e83d c509 b53e a69d 90be 4541 563e
000003c0: 2d22 543e 0b2c 7c3d afe6 0e3d 4da3 3ebe
000003d0: 0d19 70be d84c aa3e 3b8f 25bd e726 6f3e
000003e0: beca e9bd f449 cdbd 1165 933e 1989 253e
000003f0: de9b ec3e c073 f7bd 3470 893d 7b04 823d
-0.095708944 0.029103864 0.04628474 0.074839495 0.40137276 0.033159923 -0.048702754 0.07252258
0.242027 0.23341128 0.27199608 0.15304747 0.2884294 0.0041388418 -0.03290005 -0.029592482
-0.36416462 -0.37250504 -0.4283545 -0.06983159 0.06093567 -0.31456628 -0.0026893069 0.31157544
-0.13973135 0.25371867 -0.158065 -0.19564554 0.014845141 -0.188313 0.030855455 0.042930014
0.22870222 -0.03811142 0.22043186 0.099542424 -0.079550155 0.1091764 -0.039801933 -0.23819998
-0.020230293 0.015012618 -0.09797348 0.14693041 -0.024238363 -0.2899752 0.0038180086 -0.27045992
-0.07141922 0.028500738 -0.05883765 0.11873178 0.12295866 -0.09511861 -0.10056475 0.020867947
-0.23696731 0.28749904 -0.10302694 0.16552395 -0.19716874 -0.1335668 -0.0040835994 -0.044775464
0.06673288 0.011674415 -0.027562985 0.10707418 0.17510259 -0.10520605 -0.15768896 0.1762522
-0.12941486 0.12085856 -0.038711973 0.22737657 0.0847924 -0.12445518 0.28576496 -0.1299153
0.15517917 -0.075587794 0.115636736 0.22545959 0.2007369 0.11899296 -0.12467377 0.24478598
-0.030713385 0.24224107 -0.29427263 0.026518367 0.100165755 0.033695474 0.35366252 -0.18190539
-0.08346719 -0.19374636 -0.077512674 0.14690803 -0.21394914 0.024689756 -0.2929707 0.27494198
0.21799313 -0.23524636 -0.16679323 -0.1904699 0.10936716 0.0045913146 0.22720979 -0.1885316
-0.06604411 0.27372545 0.29027292 0.28510275 0.06619596 -0.08084506 0.041242786 -0.14276516
0.1842306 -0.20013587 0.26233074 0.2742056 -0.12980762 -0.041260242 -0.009345734 -0.14073238
-0.35808185 0.17319873 -0.09407181 0.12209818 0.02129902 0.020462444 -0.04209119 0.14513992
0.17820065 0.09275373 -0.037642382 -0.011639166 -0.14797698 -0.28563407 0.10572712 -0.23894486
-0.13040021 -0.12747934 -0.16139303 0.103488415 -0.3106305 -0.1567901 -0.04370502 -0.12137705
-0.3181179 -0.23721963 -0.0029675341 -0.09252054 0.08859421 0.29425877 0.28006858 -0.11980073
-0.02397353 0.077807255 0.15665562 0.030949142 -0.011542683 0.042105146 -0.12121938 -0.1254564
0.21384253 0.12205381 0.101086006 -0.09164244 0.33835775 -0.05472222 -0.30155316 -0.26708108
0.121019244 -0.3091554 -0.28546524 -0.073422626 0.119118124 0.011097182 0.04747901 0.26646128
-0.045506533 0.17247169 0.003415965 -0.021882994 -0.23398806 0.3465117 0.0387149 0.07642176
-0.031211093 0.14257479 0.14488588 0.24590865 0.2800765 0.23870188 -0.11036552 -0.07562924
-0.13146055 -0.15222111 0.04020842 0.13232318 0.32818165 0.07592993 -0.0056894193 0.1348
0.13341911 0.03549956 -0.019334938 0.027150089 -0.13552529 -0.0325753 -0.2615397 0.14330807
-0.29394266 0.019032193 -0.36834216 0.23478831 -0.079774484 -0.027299616 0.32612956 0.04223151
0.52348405 0.025477408 0.43878675 0.036554787 -0.028497746 0.20650133 0.16292758 0.101074174
-0.057632137 -0.021434637 0.21799728 0.067539096 0.11354977 0.35359016 -0.28245276 0.20923336
0.20716162 0.06156544 0.034887966 -0.18616982 -0.23447056 0.33261752 -0.0404198 0.23354684
-0.11415623 -0.10023871 0.28788045 0.1616558 0.46212667 -0.120826244 0.06710854 0.06348511

rgcn.bias f4 [32]
00000000: 7b25 0a3d 1178 383d a38c 2ebd 87a2 ebbc
00000010: b3c1 fdbd 73d1 55bd 9b58 f7bc ed87 7e3c
00000020: 8f8b 58bd 6ceb a4bd fdee 71bd 4324 85bd
00000030: d45d debc f72a 083e 6349 c93c 4341 8f3d
00000040: c8b1 8e3d 5fa2 82bd 3b83 1a3e 1c25 f0bd
00000050: bef6 303e 015d 4cbd be03 0abf 1912 323d
00000060: a98d c93d f421 94bd 55b4 703d 4dfd 18bd
00000070: 53f0 70bc 084b edbd 99e4 49be daf1 c2bb
0.03372715 0.04503638 -0.04261459 -0.028764023 -0.12390461 -0.0522017 -0.030193618 0.015535337
-0.05286747 -0.08052716 -0.059065808 -0.06501057 -0.02714435 0.1329764 0.024571126 0.069948696
0.06967503 -0.06378626 0.15089123 -0.11725828 0.17281625 -0.049893383 -0.5391196 0.04347429
0.09841473 -0.072330385 0.058765728 -0.03735094 -0.014705735 -0.11586577 -0.1971611 -0.005949241

linear_relu_output1.0.weight f4 [32, 32]
00000000: 16c7 0abf 8b18 c5bc 904d 65be 53c9 7b3e
00000010: 296a 813d 2a3f 0a3e 6566 cd3c d0ac 8cbd
00000020: e493 803e 8103 91be a3ae c4bd ee5e ec3e
00000030: 14b8 d63e 99bc 08be ef69 a13e f587 30bd
00000040: 36d0 85bd 2363 0bbe cab8 a43d f0ef 56bd
00000050: d7b5 9a3e d9bc 883c 15f6 3bbd 9a8c 64be
00000060: 2c3e aebe 1549 ebbd 8cdd f2bd 8a64 b43e
00000070: 1eec 76be d279 503e b87b 133f 1c8f c23d
00000080: d0b9 adbe 752d 82bd fec5 a9be 2cb6 9dbc
00000090: 4f23 a9be 7ca0 08be 7600 363e b743 323e
000000a0: b2cc 9dbe ee94 7fbe d4f2 60be ba18 e1bd
000000b0: 5080 d93e 5fe0 8abe 2afc 33be bbec 3cbe
000000c0: 6fc6 b03c bacc 76bd 62ab b13d 8b4a 8abe
000000d0: 1455 90bd 30cd 5c3e 801d adbd a058 d63d
000000e0: ad86 bb3d f284 cbbe c861 d4bd b954 f43e
000000f0: fe4c 84be d582 0c3e 194e bf3a 8fa7 c6bd
00000100: 47fd 18be fcee 643e ca40 423e 3109 3f3e
00000110: f118 863e 5757 3dbe ee33 143c d3fc bbbe
00000120: e0de 9dbd 0611 2e3e e459 bfbc 75ca 393e
00000130: 8590 85bd 2d4a 833c 69e7 203e de16 473e
00000140: d905 d6be 7f57 eebd 284e a23e d7e1 8a3e
00000150: 224c 6abd ca0b a93e 6611 093e b4a6 4ebe
00000160: 8fd9 fdbd c799 a2bd 701d c7bc 0034 5cbe
00000170: 0c2b b5be 8b19 1abe dc5c 6c3e 8135 463d
00000180: 1573 2abe 2b2c 9fbd ac90 61bd 53b8 0a3f
00000190: f8f8 6f3e 21dc 2bbd 19e2 19be 53b5 85bd
000001a0: 8fb7 563b 4f54 91be 9c16 f43b f9e4 f53e
000001b0: 491a 223c 54ec a23e c478 b83d c4cc c2be
000001c0: 2677 1d3d b116 f2be 41ef a7be a6ea d83a
000001d0: 3542 8abd af20 e3bb d6ee a3bc 4ed0 ab3c
000001e0: c823 013e 00f8 483e 6837 cdbe 45ea 023e
000001f0: e8cb a3bd a69c b0bc b1ab 88bc 0c2f 893d
00000200: 6edd c03d f93a b53e bd31 bb3e 2af3 8ebe
00000210: ead3 9c3e ea26 1e3e 3ea4 7abe d79f 0dbc
00000220: fbd5 a1be f66c 333e 5db2 67be 6650 e83d
00000230: 4111 81be e4c4 783d 6c8e babe 5ea2 76be
00000240: 4414 6a39 e084 c2bd b7e2 dfbb e597 9ebe
00000250: 9298 cc3c 7f3c c0be f239 f8bd 0f42 433e
00000260: 48b1 eb3d 23e1 a23d c62a a5be 2d18 febc
00000270: 6a5c 8a3d 5eab 3cbe ccf4 173e 16aa efbd
00000280: a370 a1be dd33 efbd 04ef d53c 1236 c13e
00000290: 0e10 12bd 2fdf 69be c59c 833e b039 d8bd
000002a0: 9e6d 5bbd 487a 97be c9b8 583d 7e6d 0e3e
000002b0: 835e 49be 33dd b1be fb68 803e e659 72be
000002c0: eefc 85be 82c8 e9be 981b 95be 9aa3 fcbd
000002d0: d2a0 2ebe a6af fdbe 19f2 7b3e 3fb9 933d
000002e0: 2274 f63d bc4e ba3e aafb 5c3d fef0 3a3e
000002f0: 9143 993d 6449 f53d c076 cbbe 6533 1fbe
00000300: 41f4 86be 5f66 4abc e6cc a2b9 b4cf 86bc
00000310: 48e9 183e 0c21 c03c 0fdf d1bc e380 a4be
00000320: 163a 923e cc80 8dbe ab2d e5bd 7a1a b23d
00000330: 4945 90be 89bb 88be 815a 073e a5ed b53e
00000340: b670 c2bd 717c e83e 7d79 3bbe d693 21bd
00000350: 9fda 62be dee7 013e 0727 123e 807e 99be
00000360: d769 ad3e 2382 95be 6101 c3bc 54e6 86bd
00000370: f382 3cbd 5fe6 493e b41d 9f3e 1fa9 623e
00000380: 761d fa3d 5b53 4ebe 04dd ddbe 3574 7cbe
00000390: a3df c13e fd79 c13c a13a babc 952c c53d
000003a0: d4bd 533e 3d80 6fbe ccd8 e5be 4ba4 f43e
000003b0: 173d 7bbe c42d 2e3e 9360 393e d28e 6dbe
000003c0: 9d50 123e cf68 f63d e0da d93c 5ce2 f9bd
000003d0: be42 da3a 3656 bcbe de51 6d3e 7b77 b9be
000003e0: 9c97 3a3d 964f 563e 43a1 8fbe 977c 75be
000003f0: d297 2a3e 92c4 083e 8f10 54bd 1136 433d
-0.5421003 -0.024059555 -0.22392869 0.24588518 0.063190766 0.13500658 0.02507324 -0.06868899
0.25112832 -0.28322986 -0.09603622 0.46166176 0.41937315 -0.13353194 0.31526133 -0.04309841
-0.06533854 -0.13612036 0.08043058 -0.052474916 0.30216858 0.016691612 -0.04588898 -0.2231926
-0.34031808 -0.11488549 -0.11858663 0.35232955 -0.24113509 0.20358971 0.57610655 0.09499952
-0.33930826 -0.063563265 -0.3315887 -0.019251905 -0.3303475 -0.1334247 0.17773613 0.17408644
-0.30820233 -0.24959156 -0.21967632 -0.10991044 0.42480707 -0.27124307 -0.17576662 -0.1844968
0.021578996 -0.060253836 0.08675267 -0.27009997 -0.07047477 0.21562648 -0.08452892 0.104661226
0.09156547 -0.39749867 -0.10370213 0.47720888 -0.2583999 0.13721783 0.0014595418 -0.09699928
-0.14940368 0.2235679 0.18970028 0.1865585 0.26190904 -0.18490349 0.009045584 -0.36716327
-0.07708526 0.16998681 -0.023358293 0.18143637 -0.065217055 0.01602658 0.15713276 0.19442317
-0.41801336 -0.11637782 0.31700253 0.27125427 -0.057201512 0.33016807 0.13385543 -0.2018078
-0.12395012 -0.07939487 -0.02430603 -0.21504211 -0.35384405 -0.15048806 0.23082298 0.04839087
-0.16645463 -0.07772096 -0.05506961 0.54187506 0.23434818 -0.04195798 -0.15027656 -0.065287255
0.0032763218 -0.28384635 0.0074489843 0.48026255 0.009893962 0.3182093 0.09007409 -0.3804685
0.038443707 -0.47282937 -0.32799724 0.0016549423 -0.06750909 -0.0069313864 -0.020011347 0.02097335
0.12611306 0.19625854 -0.40081334 0.12784679 -0.079978764 -0.02155907 -0.016683431 0.066984266
0.09417234 0.35396555 0.36561385 -0.27919894 0.30630428 0.15444532 -0.24476716 -0.008644066
-0.31608567 0.17522034 -0.22626634 0.1134346 -0.25208476 0.060734645 -0.36436784 -0.24085376
0.00022323529 -0.09498 -0.0068324464 -0.3097526 0.024975095 -0.37546155 -0.12120427 0.19068168
0.11508423 0.07953098 -0.32259196 -0.031017387 0.06755908 -0.18424746 0.14839476 -0.11702363
-0.31531247 -0.11679814 0.026114948 0.37736565 -0.035659842 -0.22839044 0.25705543 -0.10557878
-0.053571336 -0.2958548 0.0529106 0.13908955 -0.1966496 -0.34739074 0.25080094 -0.23667106
-0.26169533 -0.45660788 -0.29122615 -0.12335892 -0.17053536 -0.49548072 0.24604072 0.07213067
0.12033869 0.36388195 0.053950943 0.18255994 0.074835904 0.11976889 -0.39739037 -0.15546949
-0.26358226 -0.012353509 -0.0003105171 -0.016456462 0.1493274 0.023453258 -0.025619058 -0.32129583
0.2855994 -0.27637327 -0.11190351 0.08696456 -0.2817786 -0.26705578 0.13218118 0.3553287
-0.09494154 0.4540744 -0.18308063 -0.039447628 -0.2215371 0.12686107 0.142727 -0.29979324
0.33869812 -0.2920085 -0.023804368 -0.065869 -0.04602332 0.19716786 0.3107735 0.22134827
0.122126505 -0.20148985 -0.43332684 -0.24653704 0.37865934 0.023617739 -0.022733035 0.09627644
0.20677882 -0.23388763 -0.44891965 0.47781596 -0.24535023 0.17009646 0.18103246 -0.23199013
0.14288564 0.120317094 0.026593626 -0.12201378 0.0016651971 -0.36784524 0.23175761 -0.3622397
0.045554742 0.20928797 -0.2805272 -0.23973309 0.16659477 0.13356236 -0.051773604 0.047658984

linear_relu_output1.0.bias f4 [32]
00000000: 25a7 7c3d bdb2 843d be24 463c 0cb4 f53d
00000010: 6a6f 6d3c 994a 6abd 54ae 48be 4d1a 4dbe
00000020: b483 903e bbfd 91bc 0daa 7d3d 866b eabc
00000030: 4f24 103d 7da6 9dbe 71b0 b7bc 7be6 8cbe
00000040: ea0c 7bbd e293 8dbd 8c38 8dbd 5e9d 18be
00000050: b191 103c 069d a13d 1194 ae3e 6885 12be
00000060: b090 30be b8e8 8f3d e214 31be 059b d8bb
00000070: f511 5f3e 3418 c83d 2309 34be bfd4 393e
0.06168284 0.06479404 0.012093721 0.11997232 0.014491895 -0.057200048 -0.19597751 -0.20029564
0.28225482 -0.017821183 0.06192975 -0.028615724 0.035190877 -0.30791083 -0.022423001 -0.27519593
-0.061291613 -0.06912972 -0.06895551 -0.14903781 0.008823798 0.07891278 0.3409734 -0.14308703
-0.17242694 0.070268095 -0.17293122 -0.0066102766 0.21784194 0.097702414 -0.1758161 0.18147562

linear_output2.weight f4 [2, 32]
00000000: fd65 8abe a0fa 9a3e e11a ce3d 3660 cdbe
00000010: bf85 86be 70f0 88be e511 573e 8a5e af3e
00000020: 3fe8 db3e bb5f 6abe 2438 7dbe 2fb5 9c3d
00000030: 667d 963e c9d3 a63e cc44 a7bd 7bef 75be
00000040: 38e5 f2bd 7bbd 7d3e 6146 3b3e 77c6 c23d
00000050: c3c2 02be 1c58 5ebe 17a4 bd3e fb86 9e3e
00000060: 3385 6d3e a33e 8cbd 9646 4abe 7241 4b3e
00000070: 4a26 793e a23a 87be 3192 0dbd 956f 05bd
00000080: 0a09 9e3e d1aa ae3e dc72 96bd 2ee3 3ebd
00000090: 76b9 dabe cee7 ea3d 326a 2c3d 0351 933e
000000a0: 7f22 393e 6f95 693c 1403 223e a0b9 45be
000000b0: a839 2e3e 3102 a83e 7859 5cbd c27a e4bd
000000c0: 013f 9e3d 093b 9bbd cae5 7cbd 1a21 42bc
000000d0: 0606 3f3d 367e 78bd 3702 8fbd 8a77 813e
000000e0: c2eb 703e 70c7 92be ca96 50be 1cbc 34be
000000f0: c67d 0c3e 0b49 573e 3ff5 cd3d 897c a6be
-0.27030936 0.30269337 0.100637205 -0.40112466 -0.26273915 -0.2674594 0.2100292 0.34251815
0.42950627 -0.22888081 -0.24728447 0.076517455 0.29392546 0.32583454 -0.08167419 -0.24017136
-0.11860126 0.24779312 0.18288566 0.095105104 -0.12769608 -0.21713299 0.37039253 0.30962357
0.23195343 -0.068478845 -0.19753489 0.19849184 0.24331012 -0.2641192 -0.034563247 -0.032577116
0.3086627 0.34114698 -0.073461264 -0.046603374 -0.4271962 0.114699945 0.042093463 0.28772745
0.18079565 0.014256819 0.15821487 -0.19309092 0.17014182 0.32814172 -0.05379626 -0.11156227
0.07726861 -0.075796194 -0.06174258 -0.011848712 0.046636604 -0.06066724 -0.06982844 0.25286514
0.23527434 -0.28667784 -0.20370021 -0.17649883 0.13719854 0.21023957 0.100565426 -0.32516888

linear_output2.bias f4 [2]
00000000: 6a81 9c3d e7d2 45be
0.07641871 -0.19318734
