Model Two/Cresci_2017/botrgcn_trained_model.pt (torch, 77257 bytes, 17 tensors)

linear_relu_des.0.weight f4 [8, 768]
000000 e2 1a a6 bc 34 07 46 3e df 51 88 3e 1d 9a df 3d
       -0.02027649 0.19338685 0.26624963 0.10918067
000010 4e 78 2d 3c ed 98 5d be 1f af 0d bc 4e 7b 67 be
       0.010587765 -0.21640368 -0.008647709 -0.22605631
000020 4f 45 82 3d a6 1f c0 3d bd 32 0a 3e d0 30 20 3c
       0.06360876 0.093810365 0.13495918 0.009777263
000030 9f b0 b8 bd a7 44 01 bf 36 d2 29 3e 84 4d 8d 3b
       -0.09018063 -0.5049538 0.16584095 0.004312219
000040 67 f7 9d be 71 0f 09 be 5d b5 ce 3d fd d5 aa be
       -0.30852816 -0.13384797 0.10093186 -0.33366385
000050 f8 8b b5 bd e2 5c 5c 3d 22 ba 62 3d 64 d6 d1 3d
       -0.088645875 0.053799517 0.05535329 0.1024597
000060 b0 42 68 be e8 ae 32 bc 50 97 e5 3d b0 f7 b6 3d
       -0.2268169 -0.010905959 0.11210501 0.089339614
000070 e3 ac a1 bd e9 43 6e 3e 07 e1 84 be f9 3c 92 bd
       -0.07894304 0.23268093 -0.25952932 -0.07140536
000080 42 a3 0a 3e 04 eb 14 be 78 6e 49 3e 7d e7 d5 bd
       0.1353884 -0.14542776 0.19671047 -0.104445435
000090 c1 36 bc 3d ec 52 26 3c 78 b2 3e 3d 92 9a 1c 3f
       0.09190131 0.010151606 0.04655692 0.61173356
0000a0 ba bf be 3d ee fb 19 3e 4d 74 0c be 43 15 b3 be
       0.09313913 0.1503751 -0.1371624 -0.3497716
0000b0 ce 58 0a 3e 49 91 4c 3e ad a1 16 3e c0 01 0f bc
       0.13510439 0.19977297 0.14710112 -0.008728445
0000c0 f0 cc fb 3c 3a 66 93 3e b2 62 01 bd 3a cf 15 bd
       0.03073737 0.2878893 -0.031588264 -0.03657458
0000d0 6e 01 d5 3d 9d 44 29 3e ed 46 fe bc b3 b1 3e be
       0.10400663 0.1653008 -0.03103968 -0.18622474
0000e0 5f dd 4f bd 3f 51 70 3e f8 95 51 3e 2a cf 90 3e
       -0.050748225 0.23468493 0.20467365 0.28283054
0000f0 c9 87 8d 3d f5 15 42 3d 5e e3 f5 3b 2e 9f 0a 3e
       0.069106646 0.04738422 0.007503911 0.13537285
000100 a2 ed 77 3c ca 01 c5 3d d6 a3 18 3d b8 c8 24 3e
       0.01513234 0.09619482 0.03726562 0.16092193
000110 88 4d 87 3e 84 51 a6 3d cb cb 61 3e 46 ef 0d be
       0.2642634 0.081210166 0.22050397 -0.13860807
000120 eb 5f b4 3c 3d 47 99 bd e2 a5 c0 be f5 65 e7 3b
       0.022018394 -0.07484291 -0.3762656 0.007061715
000130 d6 42 25 be 4a 15 06 3c ee d5 c0 bd 5f ee 5c 3e
       -0.16138777 0.008183787 -0.09415804 0.21575306
000140 df d2 2b 3e 88 ce 00 3d 22 fc 10 3d ae 86 21 bd
       0.1677966 0.031446964 0.035396703 -0.03943508
000150 20 5b 95 3c 1c f0 20 be 7c e7 e9 3c f6 95 40 3d
       0.018231928 -0.15716594 0.028552763 0.047018014
000160 c3 77 14 3e 70 db 75 be f0 8c 2d bc 5f d9 38 be
       0.1449881 -0.2400949 -0.010592684 -0.1805167
000170 34 be 27 3e 1b d3 1b bd 07 90 8b be 52 19 2c 3e
       0.1638115 -0.038043123 -0.27258322 0.16806534
000180 4b 12 74 bd 28 90 b6 3d d1 0c ce 3d ab 70 4a 3e
       -0.059587758 0.089142144 0.10061038 0.19769542
000190 a7 af 58 be ec 1d 3b be 4f 0c f3 bd 86 7e 2e 3e
       -0.21160756 -0.18273133 -0.11867582 0.17040452
0001a0 17 0c 8d 3d b2 73 5f be af dc b4 bd 56 b2 27 bd
       0.068870716 -0.21821478 -0.088311546 -0.04094156
0001b0 ce ed e9 3d 6c d0 d6 bd ec 65 00 be c7 fe 23 bb
       0.11422311 -0.10488972 -0.1253888 -0.0025023685
0001c0 37 68 a5 bd 99 b2 ed 3c 87 c4 02 3e 31 f3 32 3d
       -0.08076518 0.029015826 0.12770282 0.043688957
0001d0 1a 9d 8e bc 70 79 09 be ce b7 0d 3e 53 15 12 bd
       -0.017408896 -0.13425231 0.13839647 -0.035664868
0001e0 11 49 60 3e 3e 51 51 3e 25 af 27 3e 9d b9 2c 3d
       0.21902873 0.20441148 0.16375406 0.042169202
0001f0 dc 11 b3 be a2 55 00 be f5 04 d4 bd 26 e8 b4 be
       -0.34974563 -0.12532666 -0.10352508 -0.35333365
000200 c6 48 ec 3d 6e 9a 22 3d 42 f3 dc 3d a2 b5 6b 3c
       0.11537318 0.039698057 0.10788585 0.014386566
000210 0e d0 54 3d bb 17 a7 3d 70 94 f7 3d 6f c1 79 3e
       0.05195623 0.08158823 0.12088859 0.24390195
000220 f0 1d c7 bd 66 b4 c7 bd 4a 51 4e 3e a4 52 f6 bd
       -0.09722507 -0.09751205 0.20148197 -0.12027481
000230 47 6e d2 3e 0e a1 db 3d ff 43 17 3e 65 f2 5c 3e
       0.4109976 0.10724078 0.14772032 0.21576841
000240 6c af 16 3e 38 0c 65 3d 11 9e 9d 3d 5b 7f b9 3d
       0.14715356 0.055919856 0.076961644 0.09057494
000250 5c de a5 be 77 fd 14 bd 53 25 f0 bd 78 a7 9b 3d
       -0.3239621 -0.036374535 -0.11725869 0.076003015
000260 91 e3 b4 bd c0 77 cc bd 56 d0 0b 3e 4b 24 14 3e
       -0.08832467 -0.09983778 0.13653693 0.1446697
000270 ac f0 c9 3d 11 5e 15 3d 3b 8f 0f 3e f5 03 e2 39
       0.09860358 0.03646666 0.14019482 0.00043109027
000280 c7 d2 48 3d 55 a5 bd 3e 4a 70 ae be 2a d8 a9 3d
       0.049029138 0.370402 -0.34070045 0.08293183
000290 fc 11 a2 3e 85 df 87 be e8 2e 24 be fd 4f a1 3d
       0.31654346 -0.2653772 -0.16033518 0.07876585
0002a0 8f 15 73 be 9d cb 05 be 86 79 88 3e 3f 92 c5 39
       -0.23738693 -0.13065954 0.26655215 0.0003768373
0002b0 f1 b5 09 bd 4e d6 a9 bd fc 86 76 3d a7 70 1f 3d
       -0.03362078 -0.082928285 0.060187325 0.038925793
0002c0 91 b6 e4 bd 73 57 2e 3e 4c a4 d9 bd 28 04 01 be
       -0.11167634 0.17025547 -0.1062704 -0.12599242
0002d0 78 80 98 be 8a 99 aa 3e 05 c5 25 be f4 7e 4d 3e
       -0.29785514 0.33320266 -0.16188438 0.2006796
0002e0 1c bd 3d 3e 31 a6 d3 3d bb de a0 3c 30 48 a1 be
       0.18529171 0.10334433 0.019637456 -0.31500387
0002f0 5b 9f b1 bb 36 f2 73 bd 5b 2b 33 3e 8f 28 27 bd
       -0.005420608 -0.059557162 0.17497008 -0.040810164
000300 fb 4f fe be 84 8f 06 3c c1 c6 1a 3e 21 8e ad 3d
       -0.49670395 0.008212928 0.15114881 0.084743746
000310 3a 16 d2 3d a8 1e ba be 71 0c 2e 3e 53 59 e7 3e
       0.10258146 -0.36351514 0.16996934 0.45185336
000320 a3 35 31 3e ce 29 07 3c 88 23 87 3e 62 6f 23 be
       0.17305617 0.008249713 0.26394296 -0.15960458
000330 98 72 1a 3e c3 2c ac 3d 06 26 23 be bd 52 1c 3e
       0.15082777 0.08406975 -0.15932474 0.15265937
000340 5b ec f8 3e 74 fb 15 be 80 1e 1f 3e 13 b1 40 3e
       0.48617825 -0.14646703 0.15538979 0.18817548
000350 69 5e e1 3d 39 8b a3 3c a2 a0 63 3e 69 47 a5 bd
       0.110043354 0.019963847 0.22229245 -0.08070261
000360 5d d8 5b 3d 23 f7 1b 3d 1e 60 fa bd d6 1d 6e bc
       0.053673137 0.038077485 -0.12225364 -0.014533481
000370 f7 54 ed 3d 95 68 16 bd 19 e9 df 3e 71 0a 92 3d
       0.115884714 -0.03672083 0.43732527 0.07130898
000380 0b 05 50 3e 46 68 fa 3d 76 af 1d 3e 0f c3 b3 3e
       0.20314424 0.1222692 0.15398964 0.35109755
000390 c9 f6 05 3f fa 88 3a 3d 53 e8 93 3e 67 ae e7 be
       0.5232969 0.045540787 0.28888187 -0.45250246
0003a0 23 e3 50 bd a1 dd c3 3d 4e d2 88 3d 75 a0 39 be
       -0.050997864 0.09563757 0.066807374 -0.18127616
0003b0 85 57 c9 3c db 98 2c 3e 7d ca 27 3e ef 85 c9 3d
       0.024577865 0.16855185 0.16385837 0.09839999
0003c0 d8 8c 0d be 1a 13 8a 3d 0f 69 a9 3d 19 d7 f3 3d
       -0.13823259 0.067419246 0.082719915 0.11906261
0003d0 01 ae c6 3e af bd 86 3d b7 99 dc 3e eb c7 a1 3d
       0.3880463 0.06579148 0.43086025 0.078994595
0003e0 1d 40 b1 be 69 84 2e be 49 ab fc 3d 56 dd 1b bd
       -0.34619227 -0.17042698 0.123373576 -0.03805288
0003f0 fd 8f 12 be 45 b8 05 3e 6e a4 01 be 60 0d 98 be
       -0.1431274 0.13058574 -0.12660381 -0.29697704

linear_relu_des.0.bias f4 [8]
000000 dd 2e 9e 3d b7 4b 66 bc 95 eb 88 bd 8e 52 c5 bc
       0.07723782 -0.014056138 -0.06685559 -0.024087217
000010 15 f1 e3 bc b6 2c 73 bd ce 78 0b bc cd 6a f7 3b
       -0.027824918 -0.05936881 -0.008512689 0.0075505734

linear_relu_tweet.0.weight f4 [8, 768]
000000 d6 52 84 3d 3e 8f ee bd 0c cb e0 3b 8f bc 99 bd
       0.06461112 -0.11648415 0.0068601426 -0.07506668
000010 5f a5 3d bd b3 50 19 3c c2 4d e4 bb 0f 73 15 be
       -0.04630029 0.009357619 -0.0069672773 -0.14594673
000020 d0 b7 04 3d 98 9f 91 3d cf c6 88 3d 58 a0 11 bd
       0.03240186 0.07110518 0.06678545 -0.035553306
000030 92 83 f3 3b 77 2f 86 3d 25 a8 79 3c 94 75 8e 3c
       0.007431456 0.06552022 0.015237843 0.01739005
000040 51 ee da bd c5 ab e8 bd 09 0e c1 bd d5 19 86 3b
       -0.106899865 -0.113608874 -0.09426505 0.004092435
000050 83 fe f8 3d b9 4a 83 bd c0 6f a3 bc 2b e0 c9 bd
       0.12157919 -0.064107366 -0.019950747 -0.0985721
000060 17 4a 0d bd 8b c6 bf 3b 86 39 04 be 25 33 95 bd
       -0.034494486 0.0058525256 -0.12912568 -0.07285146
000070 6e f4 2f bd 31 f3 c0 3d ec fc 2b bd db 33 46 3c
       -0.042957716 0.09421385 -0.041989252 0.012097324
000080 3d 61 83 bc 62 97 81 3d d2 94 1a bb e1 d8 b3 3d
       -0.016037578 0.06327702 -0.002358724 0.08781601
000090 fe c7 d6 bd 34 59 d0 bc 79 df 81 bd ee 24 09 bc
       -0.10487364 -0.02543316 -0.06341452 -0.008370621
0000a0 54 13 c4 3d 42 57 20 3d 5c bf e6 3b a1 c4 e7 bd
       0.09573999 0.039145716 0.007041855 -0.11316801
0000b0 83 7f e7 bd a2 13 37 bd c4 3c 22 3d 68 b3 44 3d
       -0.11303618 -0.044696458 0.039608732 0.048022658
0000c0 71 d3 a7 bd bd ed da 3d ec 51 1e 3b a0 ff a1 3c
       -0.08194626 0.10689876 0.0024157716 0.019775212
0000d0 6e 3c e4 bc fe 4a 23 3d 87 11 71 3d 5d 3f 8e 3d
       -0.027860846 0.03986644 0.058854606 0.06945679
0000e0 80 f8 ed bd 92 d7 2e bd 34 33 22 3d e9 56 1d 3b
       -0.11619663 -0.042686053 0.039599612 0.0024008101
0000f0 b3 41 d8 3c 3c da 1e bb 16 e3 df 3d fe f2 8a 3c
       0.026398515 -0.0024238965 0.10931985 0.01696157
000100 1e ba 36 3c 35 e8 e4 bc 87 5a 4c 3d ab f6 90 bd
       0.011152772 -0.027942756 0.04989102 -0.07078298
000110 c3 9c 83 3d 51 df 8d 3c c9 d2 2b 3d 06 cc b2 3c
       0.06426384 0.0173184 0.041949067 0.021825802
000120 8e fe 74 3b 1d b1 2b bd 82 5e 31 3c 50 f8 3d bd
       0.0037383172 -0.041916955 0.010825755 -0.046379387
000130 94 38 fe bb c2 1e c8 3d f8 e0 02 bd 10 65 a0 bd
       -0.0077582095 0.097714916 -0.03195283 -0.07831776
000140 26 a2 a2 bd cc b2 cd 3d bd b8 62 bd 20 7e e5 3c
       -0.079410836 0.100438684 -0.05535196 0.028014243
000150 b3 d5 5b bb 79 71 33 bc f0 c4 4d bc 64 11 b9 bd
       -0.0033544123 -0.010952347 -0.012559161 -0.0903652
000160 ef b0 4d bd b6 26 04 bd b3 02 68 bd f6 f6 7f 3d
       -0.050217565 -0.03226348 -0.0566432 0.06249138
000170 8d ff a1 bd e1 52 d0 3c 1d 8b 9c 3c 4d 7d b1 3c
       -0.079100706 0.025430145 0.019109303 0.021666193
000180 e9 89 96 3d 08 8e 99 bd db c7 1f 3d 00 18 58 bc
       0.07350523 -0.074977934 0.039008956 -0.013189316
000190 52 e0 98 bd b3 ab f3 3d a7 3c 43 bd 6d 3e 8c bc
       -0.07464661 0.118979834 -0.047665264 -0.01711961
0001a0 b9 03 a5 bd ca 22 e1 bc 7f 11 72 3d 6d ba 94 3d
       -0.08057351 -0.027482409 0.059098717 0.072621204
0001b0 ee 89 0e bd 53 f7 cd bd 5d 8c 7a bb 61 4d 28 3d
       -0.03479951 -0.10056939 -0.0038230636 0.04108942
0001c0 6b 77 28 3d 37 c9 00 3d e6 72 df 3b 65 24 92 bd
       0.04112951 0.031441893 0.006819117 -0.07135848
0001d0 fa 8e da 3d 62 8e 2a bd 3f 3d 2a 3d b9 72 b8 3b
       0.10671802 -0.041639693 0.041562315 0.0056289104
0001e0 94 0a 83 bd 94 d8 78 3c 39 a5 3a 3c 0b ce ac 3d
       -0.06398502 0.015188355 0.011391931 0.08437737
0001f0 d9 6c 97 bd d5 e6 9e bd 9e b4 31 bd bd dd 67 bd
       -0.07393808 -0.077588715 -0.04338514 -0.05660795
000200 08 7f 8f bc ac 28 0b 3d f9 62 bc 3c 24 87 b1 3d
       -0.017516628 0.033974335 0.022996413 0.08668354
000210 d9 4b 01 bd c6 56 b7 bd e1 3f af bc a8 27 85 3d
       -0.031566475 -0.089520976 -0.021392765 0.065017045
000220 59 2e 03 be 86 b5 68 3d 9a d8 5c bd 5b e8 b5 3d
       -0.12810649 0.05681374 -0.053917505 0.08882209
000230 5c 39 02 be 1f 55 b8 3c 15 ae b4 bd 35 2a 5e bd
       -0.12717193 0.022501526 -0.08822266 -0.05423947
000240 82 fa 06 be 93 3f 29 bd 69 a9 9a 3d 3d 18 df bb
       -0.13181499 -0.041320395 0.07551844 -0.0068083094
000250 31 39 ed 3d 5b 23 19 bd 92 1e 99 bd 7f 28 06 bc
       0.11583174 -0.037387233 -0.07476534 -0.008188366
000260 0c df 55 3d 1e 3d 17 bd ba 14 dc 3c 5e e2 91 3c
       0.052214667 -0.03692352 0.026865352 0.017808136
000270 76 74 67 bd ee 83 39 bd c8 3e 92 bc ed dd b9 bd
       -0.05650755 -0.045291834 -0.017852202 -0.09075532
000280 21 28 1e bd db 9a b4 3c 3c c4 99 3d 79 15 70 3d
       -0.03861249 0.022046497 0.07508132 0.058614228
000290 f9 27 cc 3d a0 80 a7 bc 9c 40 1f ba 8e ef 39 bd
       0.09968562 -0.020447075 -0.0006074996 -0.045394473
0002a0 9e 19 7c ba 02 68 cb bd 0f 23 79 3d 34 a8 0f 3e
       -0.00096168544 -0.09931947 0.06082445 0.14029008
0002b0 c1 c9 c2 ba 6e 6c 8a 3d 36 03 b3 3d 69 0d e9 b8
       -0.0014861153 0.067589626 0.08740847 -0.000111128036
0002c0 b7 ad 59 3c c2 30 52 bd 18 35 01 be 4d 67 ff 3d
       0.013286046 -0.05131603 -0.1261791 0.12470875
0002d0 ee 55 04 3d 60 6a a1 3c 93 a8 b2 3d 74 69 d9 bd
       0.03230851 0.019704044 0.08723559 -0.10615817
0002e0 7b f7 f3 3c e1 1a 0e 3d 74 17 01 bd 80 4f f2 bc
       0.029781094 0.034693602 -0.031516507 -0.029578924
0002f0 91 58 0a 3d e9 ef e4 3c b8 ab 13 bd 3a f3 c0 bd
       0.03377587 0.02794643 -0.036052436 -0.09421392
000300 cd 44 8a 3d 69 35 20 3d 0a e7 19 3c 3f b3 5e 3a
       0.06751404 0.039113436 0.009393463 0.00084953377
000310 8a 1b 07 3d 90 5b d7 3d 4a a7 25 bd ec a9 87 bd
       0.032985248 0.10515511 -0.040442742 -0.06624207
000320 b8 58 9b 3c 84 ac 25 3d b0 77 b3 bd 93 82 72 bc
       0.018963203 0.040447727 -0.08763063 -0.014801639
000330 a9 aa 85 bd 82 a5 52 bb 09 72 81 3c c4 0e 9d 3c
       -0.065266915 -0.0032142107 0.015801447 0.01917208
000340 ca 1a e2 3d a9 fc 97 bd 7a cb f8 bc 93 f9 c3 3c
       0.11040266 -0.07421238 -0.030370463 0.023922717
000350 e5 a7 57 bc e2 26 d6 3c 28 94 ec bc 87 e2 c8 3c
       -0.013162588 0.026141588 -0.02887924 0.02452208
000360 f9 79 b9 bc 9f 46 2a 3d c5 bb b9 3c f0 52 5f bd
       -0.022641169 0.041571256 0.022672543 -0.054522455
000370 51 9f 4e 3c 32 23 a8 3c ef ef 9d 3d 4a 54 e7 3d
       0.012611226 0.020524595 0.07711779 0.11295374
000380 a1 72 26 bd c3 81 06 bd d2 a3 10 3d 56 36 0f 3e
       -0.040636662 -0.032838594 0.03531248 0.13985571
000390 ed b4 47 3a b5 56 cb bb 6e b7 da bd 38 63 e3 3b
       0.00076182076 -0.0062054046 -0.10679518 0.006939318
0003a0 34 eb 19 bd 51 76 8c 3d d7 5b df 3b c0 e9 89 bd
       -0.037577823 0.068585046 0.006816368 -0.067340374
0003b0 cb ea d5 3d 58 7c c7 bd 25 15 ae ba cb 03 a2 bc
       0.10445174 -0.097405136 -0.0013281448 -0.0197772
0003c0 d4 3a ba 3d 08 da 64 3c ff c4 90 bd 1a c9 af bd
       0.09093252 0.013967998 -0.07068824 -0.08583279
0003d0 5c ed bb bd b1 70 03 be 99 4e 1a 3d 33 f4 a0 3a
       -0.09176132 -0.12835957 0.037672613 0.0012279808
0003e0 55 59 d5 bd 20 21 14 bd 25 2d c6 3b 39 76 c8 3c
       -0.10417429 -0.036164403 0.006047862 0.024470435
0003f0 7b 9a a5 bd a4 f7 ab bc 22 0d a0 3d 83 76 ad 3c
       -0.080861054 -0.020992108 0.07815005 0.021174675

linear_relu_tweet.0.bias f4 [8]
000000 1a 19 54 bc 16 e8 5f bd 30 0d 76 bd 6d ab 4c bd
       -0.012945438 -0.054664694 -0.06007117 -0.049968172
000010 db 83 a9 bd c2 b8 c1 bc fe d9 56 bd b5 06 a0 bd
       -0.082771026 -0.02364767 -0.052453987 -0.07813779

linear_relu_num_prop.0.weight f4 [8, 5]
000000 43 fe 9b 3e 44 8d 35 be cf 02 3e bd 61 c4 01 bf
       0.30467424 -0.1772967 -0.046389397 -0.50690275
000010 d1 19 20 3f ac 5b 8a bf f1 27 40 3e 88 fc d2 3e
       0.6253939 -1.0809226 0.18765236 0.4120829
000020 34 64 9c 3e 07 8a dd be b3 6c 8c bd 90 87 48 3f
       0.305452 -0.4326937 -0.0685667 0.7833185
000030 d9 85 4f 3f 76 ee ee 3e e2 ca 50 be 64 f1 2b 3f
       0.8106361 0.46666306 -0.20389894 0.6716521
000040 2a b3 01 3f af 27 18 be c8 75 9f be 7d 74 55 3e
       0.5066401 -0.14858888 -0.31144547 0.20845218
000050 22 8b 28 bf 02 8a e5 3e 03 a3 16 3f b6 0f 82 3d
       -0.658373 0.44831854 0.58842486 0.06350653
000060 76 c8 0b 3f ba bc 1d 3f 5f e0 14 bf 8e 41 6a be
       0.54602754 0.616161 -0.58154863 -0.2287657
000070 1f 2e 3f 3e d3 73 7e bf c5 f6 f3 be 22 e8 4d be
       0.18669938 -0.99395484 -0.47649208 -0.20108083
000080 cd 59 97 bd c2 7c dd 3e 03 14 15 3f b8 84 da bc
       -0.07390175 0.43259245 0.5823366 -0.026674613
000090 13 18 e3 3c 0c 01 61 bd bc c5 39 bf 00 fd c8 bf
       0.02772144 -0.05493264 -0.72567344 -1.570221

linear_relu_num_prop.0.bias f4 [8]
000000 fb b7 58 3d 02 7f 48 be 9b 1a 92 3d 33 ff f7 be
       0.052909832 -0.195797 0.07133981 -0.4843689
000010 3f 04 b6 3d cb c7 9a bc d3 7a 1e 3e c4 4b 22 bd
       0.08887529 -0.018894097 0.15476541 -0.039623037

linear_relu_cat_prop.0.weight f4 [8, 3]
000000 d5 bf 97 bf 00 db 8f 3e 16 ac 41 3f 9a 87 ab 3e
       -1.1855417 0.2809677 0.7565321 0.33501893
000010 de 41 47 be 84 ea d5 3e 63 3f 9a 3f 8d 5e ae bf
       -0.1945872 0.41780484 1.2050594 -1.3622605
000020 a0 89 c0 3e 4d c8 23 bf 42 17 5d be 37 f3 06 3e
       0.37605 -0.6397751 -0.21590903 0.13178717
000030 46 c7 b5 bf 5f b1 ee bd ca 68 66 bf 80 85 85 3f
       -1.4201438 -0.116549246 -0.90003645 1.0431366
000040 89 8a 8c bd af 2f 1e 3f d9 ca 40 bf 7d 1d 18 bf
       -0.06862361 0.6179151 -0.7530952 -0.59419996
000050 8c 09 9e 3e 33 56 f9 3e 54 a0 d8 3f 2e 08 55 3e
       0.3086666 0.48698577 1.6923928 0.20803902

linear_relu_cat_prop.0.bias f4 [8]
000000 f2 90 0d 3e 74 86 8f 3e e9 0d dc 3d a8 7e 43 be
       0.13824823 0.28032267 0.10744841 -0.19091284
000010 45 71 f4 3e 50 fd 95 bb 4a 04 be 3e 3e 68 60 bd
       0.47742668 -0.0045773163 0.37112647 -0.054786913

linear_relu_input.0.weight f4 [32, 32]
000000 2f 65 a5 3e 4a 08 6d bd 2b b6 2c 3d 53 f9 aa bd
       0.3230376 -0.057869233 0.042165916 -0.08348336
000010 1d 4f 34 be 66 66 84 be 1a 89 e2 bc 5c 41 24 be
       -0.17608304 -0.25859374 -0.027653266 -0.16040558
000020 b8 5a 88 be f4 e8 58 3e 0d d1 c4 bd 03 dc 01 3e
       -0.26631713 0.21182615 -0.09610186 0.12681584
000030 51 f7 94 bd 8f 42 09 be be 32 25 bd cd f9 06 3e
       -0.07273734 -0.13404296 -0.040331595 0.13181229
000040 e2 d6 9b bc fd 14 de bd df da de 3d c5 27 93 bb
       -0.019023363 -0.10843847 0.1088159 -0.004490825
000050 1e 6b 63 3d 76 a0 00 3d c1 a8 af bc f8 5f 52 be
       0.055522077 0.031403027 -0.021442773 -0.20544422
000060 f3 2f ce 3e 3e bd 92 3e 0d 58 f4 3d a2 11 62 3e
       0.40270957 0.28660005 0.11930857 0.22077039
000070 a8 74 b1 be 39 c6 38 be 62 68 13 3d d9 1a 77 be
       -0.34659314 -0.18044366 0.03598822 -0.24131335
000080 5f 2f 05 be ed fd 63 be b7 98 7c be 94 7c f8 bd
       -0.13006352 -0.22264834 -0.24667631 -0.121331364
000090 72 a7 b3 3d 9d 9f 3d be de b4 5c be 84 52 16 bd
       0.08772172 -0.18517919 -0.2155337 -0.036699787
0000a0 c5 9e 3c 3e 60 06 60 bc 1d 08 1e be 6e 46 d1 3d
       0.18419941 -0.013673395 -0.15432782 0.102185115
0000b0 fb 68 e0 bd 83 b4 4e 3e e4 fc 58 be 98 c3 a2 bd
       -0.109575234 0.20186047 -0.2119022 -0.07947463
0000c0 8d 20 85 3e d9 ef d8 be 3c d2 94 3e 94 36 bc be
       0.26001397 -0.4237049 0.29066646 -0.3676039
0000d0 a9 d9 a0 3e 7e 53 ba be 85 df f5 bd 48 c9 2b be
       0.31416062 -0.36391824 -0.120055236 -0.16776001
0000e0 77 94 47 3e 01 1b c0 be 68 fb 9d 3d 3a e1 78 be
       0.19490229 -0.37520602 0.077139676 -0.24304667
0000f0 5a 9a a5 3d c5 6f 12 bd 76 a2 a8 3d 93 44 31 3e
       0.08086081 -0.035751123 0.08234112 0.17311315
000100 34 3d 51 3e 3f af 26 3e d0 4d 53 be cc ea 1c bd
       0.20433503 0.16277789 -0.20635152 -0.038309857
000110 80 9b 45 be 4c 20 10 3d 31 d2 f6 bd 4b 98 fa 3e
       -0.192976 0.03518705 -0.120518096 0.48944315
000120 29 11 95 bd 45 77 44 3e 98 4c dc bd 85 98 f9 3e
       -0.07278664 0.19186123 -0.107567966 0.48749176
000130 77 3a 29 be bc 2f af 3e 4c 94 e9 be 90 11 c4 bd
       -0.16526209 0.34216106 -0.45620954 -0.09573662
000140 9c 5e 9c 3e 16 e7 9d be 30 82 5c 3d bb 6c 1e bd
       0.3054093 -0.30840367 0.053835094 -0.038677912
000150 84 9e 12 3e a3 a2 fb bd b7 96 94 be f4 f7 98 be
       0.14318281 -0.1228688 -0.29021236 -0.29876673
000160 29 2c 6e 3e 2f 15 6d be fc 6e 0f bf 2b f3 91 be
       0.23259033 -0.23152612 -0.56028724 -0.28505835
000170 d0 ed 96 bc 7a ee 35 be 12 11 24 be c6 ea d7 3e
       -0.018423945 -0.17766753 -0.16022137 0.42171305
000180 c0 d4 52 3d cc a0 b8 be ee f9 c0 3e ec ce 17 3e
       0.051472425 -0.36060178 0.3769068 0.14825028
000190 cf dc 04 be ce 7b 82 3e 4e c7 d9 bd 66 dc 0f bc
       -0.12974857 0.2548508 -0.106337175 -0.008780574
0001a0 a0 53 45 bd e7 64 7f be d7 2d b9 3e 00 0b 8c 3e
       -0.048175454 -0.24940835 0.36167786 0.27352142
0001b0 7b bb 93 be 71 92 f7 3d 80 93 23 3e 82 37 7b be
       -0.28853974 0.12088478 0.15974236 -0.24532893
0001c0 96 ba a0 be 7e 02 33 3e 98 91 89 3d 4a 29 0f 3e
       -0.31392354 0.1748142 0.06717223 0.13980594
0001d0 38 3d f1 3d 5b 7c a2 3c ea 74 61 bd 3e fe c1 3c
       0.11779255 0.019834688 -0.05504314 0.023680802
0001e0 52 a5 f4 be 5d 79 84 be 24 ef 81 3e af f6 4f be
       -0.4778238 -0.25873843 0.25377762 -0.20308946
0001f0 ae dc ac 3e fe 48 b9 3d 79 a0 79 be 18 b8 4d be
       0.33762115 0.09047125 -0.24377622 -0.20089757
000200 8d b8 06 3f 99 f5 5b 3d 1d ce 0e 3c 3e 20 91 3e
       0.5262535 0.053701017 0.008716133 0.2834491
000210 6e b1 78 be 80 76 bc 3e b1 65 5b 3d c9 ec 19 3e
       -0.24286434 0.36809158 0.053563777 0.15031733
000220 1e 80 1e ba 03 ed b1 be ce 66 a0 be 17 76 c5 3d
       -0.00060463126 -0.34751138 -0.31328434 0.096416645
000230 79 24 d5 3d d8 9a ac be e5 2d 17 be 8f fc f3 39
       0.10407347 -0.33711886 -0.14763601 0.00046536743
000240 43 b8 dd be 15 c6 fc 3c 49 a3 1c be 82 f9 ee 3d
       -0.43304643 0.030856172 -0.15296663 0.116686836
000250 d6 df a5 3e 7b 47 bd bc 6e a5 a8 be d1 a5 3d be
       0.32397336 -0.023105374 -0.32938713 -0.18520285
000260 08 b9 2c 3d 7d ae 87 3d 43 ae a5 be df fa d0 be
       0.042168647 0.06625078 -0.32359514 -0.408164
000270 8d 0c 0a be 11 20 56 be c3 3f 7a be 75 f8 80 3e
       -0.1348135 -0.2091067 -0.24438386 0.25189558
000280 0e 9f 21 3f 4a dd 66 be d9 b4 7e bd 6a 85 55 be
       0.63133323 -0.22545353 -0.06218419 -0.20851675
000290 53 c1 95 be 0d d4 d6 be 5b a6 d4 3c 80 24 ac 3b
       -0.29249057 -0.41958657 0.02595823 0.0052533746
0002a0 ba 2a 51 be 6e fb 56 3e f1 84 a3 3e 52 f4 f7 be
       -0.20426455 0.2099435 0.31937364 -0.4842859
0002b0 d9 b8 47 3c 28 7e 7c 3e fa 0a 49 3d f8 52 e2 be
       0.012190067 0.246575 0.049082734 -0.44203925
0002c0 77 e1 a9 3d e9 e2 a2 3e 3d ad 9b be f0 0d 09 bf
       0.08294957 0.31813744 -0.30405608 -0.5353689
0002d0 12 4b 71 bd b2 67 96 bd 56 3d db 3d fe 55 2a 3e
       -0.058909483 -0.07343997 0.10705058 0.16634366
0002e0 91 91 31 be 5f a9 e6 3c 20 14 2f be e8 23 66 bd
       -0.17340685 0.028156934 -0.17097521 -0.056186587
0002f0 33 3f d4 be 40 f4 b4 be a8 b0 7f 3d a4 56 72 be
       -0.41454467 -0.35342598 0.062424332 -0.23665863
000300 fd 09 c3 be b1 00 4c be e3 95 c8 be 2d e5 8e 3e
       -0.38093558 -0.19922139 -0.39176854 0.27909222
000310 d4 cc e5 3d f6 04 a7 be 47 bf cf be 33 64 e1 be
       0.112207085 -0.32620972 -0.4057562 -0.44021758
000320 26 7f 6a 3e 7d ea 81 3e b0 1a 5b be d4 3a 8b bd
       0.22900066 0.25374213 -0.21396899 -0.0679833
000330 5d ae c7 be 7e 8f 83 bd 43 e3 de be dc 07 89 3e
       -0.39000216 -0.06423853 -0.43532762 0.2676381
000340 ea 0c 00 3e 22 6d 5f bd 81 f5 99 3d a6 30 91 bc
       0.12504926 -0.054547437 0.07517529 -0.017723393
000350 57 f2 85 be 48 97 9b bc 29 d2 83 be cd 65 84 be
       -0.26161453 -0.018993035 -0.25746277 -0.25858918
000360 81 84 e0 be 1f 12 28 be 56 5a a1 3e ef 7e 99 3e
       -0.43851092 -0.16413163 0.31514233 0.29979655
000370 3f 85 59 3d 8a 17 f0 bd 9f c4 2b 3e f6 7d 8b be
       0.05310559 -0.1172324 0.16774224 -0.27244538
000380 39 21 f5 3d d2 42 96 be a0 ca 44 be 44 16 67 be
       0.11969227 -0.29347855 -0.1921792 -0.22567087
000390 7c b5 0a 3f b9 0a c6 be 1e ba 90 3e ba 95 ab be
       0.54183173 -0.38680056 0.28266996 -0.3351267
0003a0 02 2e 79 3e 0a ea 7a be 96 c3 a8 be c4 33 11 3e
       0.24333957 -0.24503341 -0.3296172 0.14179903
0003b0 48 a3 b2 be 13 ba a8 3e 79 61 79 be 43 96 d2 3d
       -0.348902 0.32954463 -0.24353589 0.102825664
0003c0 62 a1 74 3e 9d 06 2e be 3b 9b 0b 3e 5a dd 86 be
       0.23889688 -0.1699471 0.13633434 -0.26340753
0003d0 07 54 09 be 6a e9 4c 3e c1 0d 1c bf 20 2c c1 3e
       -0.1341096 0.20010915 -0.60958487 0.37728977
0003e0 3e d5 23 be 19 8a 96 3e 1f 21 dc 3e 10 78 94 be
       -0.15999314 0.29402235 0.4299402 -0.2899785
0003f0 3b 8c 01 be f8 97 c2 bd 76 b8 ab 3e 5c 1b 1f bf
       -0.1265115 -0.09501642 0.3353917 -0.6215112

linear_relu_input.0.bias f4 [32]
000000 1a a0 d8 bc 68 a7 01 be a2 d0 ab bc 84 06 02 3e
       -0.02644353 -0.12661517 -0.020973507 0.12697798
000010 49 df b4 bc c5 e9 9e bd f3 cc e0 3c e8 2b 8f bd
       -0.022079127 -0.07759432 0.027441477 -0.06990796
000020 62 0c c1 bd 87 41 1c 3c 1b b6 94 3c 7b 47 08 be
       -0.0942619 0.009537107 0.01815324 -0.13308518
000030 51 80 bb 3b da 32 80 bd e4 e9 73 bd 8f 15 09 be
       0.0057220836 -0.06259699 -0.059549227 -0.1338713
000040 46 dc 58 3d 0e af c8 bd a8 79 9e 3d 8f c8 d7 3d
       0.052944444 -0.09799014 0.07738048 0.105363004
000050 0b 89 ee bd 6e be ac 3d c5 c1 b1 3a 46 c1 56 be
       -0.116472326 0.08434759 0.0013561776 -0.20972165
000060 c2 c8 58 3d 45 c2 2e be d5 9d 35 3d 66 f0 ac 3d
       0.052925833 -0.17066295 0.044339973 0.0844429
000070 8c 73 92 bd 73 f2 15 be be cc e8 bd bf a3 91 bd
       -0.07150945 -0.14643268 -0.113671765 -0.0711131

rgcn.weight f4 [2, 32, 32]
000000 5e 72 20 be 70 7c 59 3e da 3d 8b 3e 92 3f e6 3d
       -0.15668628 0.21238875 0.27195626 0.11242594
000010 11 f6 35 3e 07 16 85 be 02 1f f3 3d 2c 6a 02 bd
       0.17769648 -0.25993368 0.11871149 -0.031839535
000020 00 a2 67 bc e7 0b 39 be 86 1d 76 3e 49 7a 7a be
       -0.014137745 -0.18070947 0.240347 -0.2446071
000030 09 ab 73 be ea 15 ee bd a5 ba 1d 3d 30 be 9a 3d
       -0.23795713 -0.116252735 0.038508076 0.07555807
000040 3f 94 9c 3d 3e 5a 4a be ca 0d 42 3e ce 73 4b 3d
       0.07645463 -0.19760987 0.18950573 0.049670987
000050 19 97 bf 3d 14 15 3e bd bd d2 b4 bd cc fc 85 be
       0.093549915 -0.04640682 -0.08829258 -0.2616943
000060 20 65 40 bd 14 48 3a be 29 e4 1a 3e fb 61 fc 3d
       -0.04697144 -0.18191558 0.15126099 0.12323376
000070 5e 29 83 3d c5 bb 0e 3e 5f 4c 6f be 57 6f eb bd
       0.064043745 0.13938816 -0.23368977 -0.11495846
000080 30 f6 33 3e cb 83 88 bd 20 0c a6 bd b4 54 8d 3c
       0.17574382 -0.066657625 -0.081077814 0.017252304
000090 a7 7f 17 be 4f fc cc 3c 42 14 aa 3c 8d 62 3b 3d
       -0.14794789 0.025022654 0.020761613 0.045748282
0000a0 50 f9 54 bd 56 37 bb 3d 22 0f 6b 3d d7 78 24 bd
       -0.051995575 0.09141414 0.05738748 -0.040154304
0000b0 65 e1 bc bd dc 0a a6 bd 90 bb e1 3d 49 65 ca 3d
       -0.09222678 -0.0810754 0.11022103 0.098826
0000c0 83 c3 60 be d0 44 2a bd b6 c1 62 bd 10 f0 8f bd
       -0.21949582 -0.04156953 -0.05536052 -0.0702821
0000d0 e7 c9 e5 bd 29 99 32 3e 76 53 2b be 08 1f f6 bd
       -0.112201504 0.17441238 -0.16731057 -0.120176375
0000e0 e5 cf 33 bd 77 4a 86 3c 26 84 3e be 42 dd d4 bd
       -0.043899436 0.01639293 -0.18605098 -0.10393764
0000f0 ad a0 43 3e a5 a0 ec bc e4 80 31 bd 5a 71 65 3e
       0.19104262 -0.028885195 -0.04333581 0.22406521
000100 8d 4f 35 3d f4 42 74 be 90 3b e5 3b b9 6e c6 bc
       0.04426532 -0.23853666 0.006995626 -0.024222719
000110 ee 53 96 bc 78 bb 82 bd f6 7b 4c 3e 40 1f 11 3e
       -0.018350568 -0.06383413 0.19969162 0.14172077
000120 df a0 6c 3d c8 98 0b 3e 29 34 b3 bd de e1 38 be
       0.057770606 0.136325 -0.08750183 -0.18054911
000130 5a d7 40 3e 8d 28 b1 3d 22 d8 3f 3e 0b dc f4 3d
       0.1883215 0.086503126 0.18734792 0.11956032
000140 c4 00 35 3d de f7 86 3d 1c c8 87 bd d7 7e 69 3e
       0.044190183 0.06590246 -0.06629965 0.22802292
000150 63 45 e1 3d 19 3e 6e bc f5 8f bc bd 4f 3e 5c 3e
       0.109995626 -0.014541172 -0.09207145 0.21508144
000160 e5 6f 6c 3e 97 66 eb bd fe ab 1e be 79 0c ad 3d
       0.2308956 -0.11494177 -0.15495297 0.084496446
000170 d6 57 ff bd 26 af aa bd b2 6c 12 be 10 87 6e bd
       -0.12467925 -0.08334188 -0.14299276 -0.058234274
000180 3e d3 ac 3c 88 8a 99 3d bd 94 2a be 03 8d c1 bd
       0.021096822 0.07497126 -0.16658302 -0.09450724
000190 30 05 28 be 00 02 58 3e c4 93 44 3d 1d af ee 3d
       -0.16408229 0.21094513 0.047992483 0.11654494
0001a0 58 e7 2a 3e fa c5 63 3e b0 76 8c 3c c7 f2 5d 3e
       0.16689813 0.22243491 0.017146438 0.21674643
0001b0 de a7 59 3e 2f a4 92 bd cc 9f 06 3e 6a 4d 6f 3e
       0.21255443 -0.07160222 0.13146895 0.23369375
0001c0 94 30 0c 3e 7f b0 91 3d 87 63 07 be 98 d0 55 be
       0.13690406 0.07113742 -0.1322156 -0.20880353
0001d0 7e d2 71 be a5 cd 69 be ee fb 6e be e8 9b d0 3d
       -0.23615453 -0.22832353 -0.23338291 0.10185987
0001e0 24 fc d6 bd 94 69 3e be 14 45 7c bd de 2d dc 3d
       -0.10497311 -0.18594962 -0.061589316 0.10750936
0001f0 8f 3a 82 be 5a 0c fd 3d a8 c5 2a 3e 6a b6 4e be
       -0.25435302 0.123558715 0.16676962 -0.20186773
000200 09 15 37 be 5b 03 8d 3e 63 d1 d7 3c 5f 90 86 3e
       -0.17879118 0.27541623 0.02634496 0.2628202
000210 e9 07 2c 3e 62 99 cf 3c 83 bf 9b 3d e1 ea 26 be
       0.16799892 0.025341693 0.07604887 -0.16300537
000220 c6 20 a3 bd 06 7d 60 3e a7 6d 0d 3d 50 03 2d bc
       -0.079652354 0.21922693 0.0345284 -0.010559872
000230 a1 77 38 be 21 38 82 be be 01 49 be 33 9d 0e 3e
       -0.18014385 -0.25433448 -0.19629571 0.13927154
000240 47 a4 6e 3e 76 35 91 be ff a7 15 3d 35 74 5f 3d
       0.23304854 -0.283611 0.036537167 0.054554183
000250 fb 7f 0c be ae 23 d6 3d ac d2 62 3e 8b a5 98 be
       -0.13720696 0.10456024 0.22150677 -0.298138
000260 97 f8 9b be 41 31 5d be fb 24 ab 3d 04 51 a3 bd
       -0.30463096 -0.2160082 0.08356663 -0.07974437
000270 fd 9e 6e 3e 2c 61 01 3d d0 85 67 bd ca 76 65 3b
       0.23302837 0.03158681 -0.056524098 0.003501343
000280 5d e1 46 be a6 41 8b 3e 46 22 71 bd 5a 04 6a 3d
       -0.19421907 0.27198523 -0.058870576 0.057133056
000290 04 24 2c be fa 08 06 be 00 7d 76 3c 06 83 04 3e
       -0.16810614 -0.13089362 0.015044451 0.12940606
0002a0 4e 9d 87 3e fe 75 72 bd 33 6b 3a bd 94 78 2a 3e
       0.264872 -0.059194557 -0.04551239 0.1664756
0002b0 d4 79 d0 3c e7 a3 73 be 35 10 fd 3b 16 fb a5 3d
       0.025448717 -0.23792993 0.0077228793 0.081045315
0002c0 32 5f ad 3d c7 94 2b be 25 03 b0 3d 23 26 75 be
       0.08465423 -0.16755973 0.0859435 -0.23940329
0002d0 e9 64 e8 bd 29 11 05 be b8 92 09 bd d8 31 1d 3e
       -0.11347372 -0.12994827 -0.033587188 0.15351045
0002e0 f8 6f 81 3d fd 7c ed bd a4 87 18 bc 51 7e 8d 3d
       0.063201845 -0.11596105 -0.009309683 0.069088586
0002f0 b9 6f 6d 3c 58 23 43 3d 29 f2 13 be e1 24 c8 3d
       0.014491969 0.04764113 -0.14447846 0.09772659
000300 55 c5 2b 3e 95 57 3e 3e 4c 10 22 be d0 7a 7a be
       0.16774495 0.18588097 -0.1582653 -0.24460912
000310 ba 84 56 be 89 9e 5c 3e 48 30 01 be 0f 2c 33 be
       -0.20949069 0.21544851 -0.12616074 -0.17497276
000320 fe 49 d2 3d b0 73 92 3c e0 5a 48 3d 11 2f 3b 3e
       0.10268019 0.01787743 0.04891479 0.18279673
000330 5e 31 b2 3d 3d be 6d be 5f 25 1a bd cb 1d 82 be
       0.08700822 -0.23217101 -0.037633296 -0.25413355
000340 5d 1c 4d 3e 86 80 42 be 9b 2c a4 bc 9c ae 50 be
       0.20030351 -0.1899434 -0.0200408 -0.20379108
000350 1a 59 a4 bc b1 47 ee bd 72 73 28 bd 4e 52 1f be
       -0.020062018 -0.11634768 -0.041125722 -0.1555874
000360 2f 7a 5b 3e 9c 93 8b 3a 08 b6 1e 3e 4b 66 81 3e
       0.21433328 0.001064885 0.15499127 0.25273356
000370 f8 f8 49 be d3 a1 5b be d3 07 85 3d da 7c 97 3e
       -0.1972388 -0.2144845 0.06495633 0.29587442
000380 a6 c8 e5 bd 4e c7 f0 3b a3 76 36 3e 57 d1 48 be
       -0.11219911 0.0073479777 0.17818694 -0.19611107
000390 1e 81 ac 3d 68 95 c3 3d 34 20 3a 3e 02 c3 f0 3d
       0.08423065 0.09549981 0.18176347 0.11755945
0003a0 8f 92 a9 bd 60 c8 f8 3a f0 83 b8 3d 70 ad 73 be
       -0.08279907 0.0018980615 0.0900954 -0.2379663
0003b0 07 66 5a be 18 d9 b8 3c df 63 e2 3c 44 17 8f be
       -0.21327983 0.022564456 0.027635513 -0.27947438
0003c0 b1 a6 50 bd cd c6 9d 3c 3d fc 91 bb 9e a4 d4 bc
       -0.05094022 0.019259835 -0.004455118 -0.025957402
0003d0 02 0b 2f 3e 21 c4 f7 bd e7 30 9f bd 5b 78 ce 3d
       0.17094043 -0.120979555 -0.07772999 0.1008155
0003e0 d9 d7 18 3e 23 17 70 be a7 a0 f8 bc 0c 66 59 bd
       0.1492609 -0.23446326 -0.030350043 -0.053075835
0003f0 9a 31 38 3d 0d a4 bb 3d 68 e6 43 3e b7 72 21 3e
       0.04496918 0.091621496 0.19130862 0.15766416

rgcn.root f4 [32, 32]
000000 67 95 33 be 9f 36 cf bd 5f 47 45 3d 21 af 32 3b
       -0.17537461 -0.1011784 0.048163768 0.002726503
000010 14 a5 db 3e 66 c1 94 bd 05 0d 4e be e8 62 3b 3e
       0.42899382 -0.0726345 -0.20122154 0.18299448
000020 77 f5 89 3e e3 08 91 3d 29 d8 54 3e 64 f9 0c 3e
       0.26945087 0.07081773 0.20785584 0.1376701
000030 2e 80 7f 3e f0 ca 03 3b e0 33 23 3e 1e 44 4c bd
       0.2495124 0.0020109974 0.15937757 -0.04986965
000040 5c 01 77 be e5 e8 95 be f3 57 95 be d7 20 03 bc
       -0.24121612 -0.29279247 -0.29168662 -0.008003435
000050 b7 ee 66 3d 15 49 a7 be 8b 75 db 3b 58 81 af 3e
       0.05638 -0.32672945 0.006697362 0.3427837
000060 4d 18 9c bd cc 1f 44 3e 14 32 ec bd 9b 78 31 be
       -0.076218225 0.19152755 -0.11532989 -0.17331164
000070 b9 31 09 3d fd 16 90 be b1 e2 fd ba df c7 81 bd
       0.033494685 -0.2814254 -0.0019369927 -0.063369505
000080 32 f5 8a 3e 0a d7 ef bd 0a 9d 9a 3e 39 59 3e 3d
       0.27140194 -0.11710937 0.30197936 0.046471808
000090 51 eb 2b bd 5d 89 66 3d 80 fc d4 bd 01 e3 75 be
       -0.041972462 0.056283344 -0.10399723 -0.24012376
0000a0 d2 25 97 3c 06 62 eb bd 66 e4 0a be a9 28 54 3d
       0.018450651 -0.11493306 -0.1356369 0.05179659
0000b0 3b 31 9f bd 8a 11 89 be 52 85 eb 3c d6 73 70 be
       -0.07773062 -0.26771194 0.028750096 -0.23481688
0000c0 cf 20 c7 bc 08 b5 09 3e 9a 3f 5a 3c cc dc 3d 3e
       -0.024307637 0.13447964 0.013320828 0.18541259
0000d0 d9 64 cc 3d 64 a8 c7 bd d3 c4 b3 bb ec 0b 0a 3d
       0.09980173 -0.09748915 -0.0054861098 0.033702776
0000e0 97 04 66 be 2d 63 97 3e e0 0a ec bd 3b 4f 23 3e
       -0.22462688 0.29567853 -0.11525512 0.15948193
0000f0 b1 f7 0b be 92 22 05 be 61 28 83 bd e2 7e 42 bd
       -0.13668706 -0.13001469 -0.06404186 -0.047484286
000100 d4 38 8e 3c 50 0e 37 bd 0a a6 b8 bd 18 73 41 3e
       0.017361082 -0.044691384 -0.090160444 0.18891561
000110 2c 67 5a 3e 42 fa 33 be 60 20 66 be 9c 02 85 3e
       0.2132842 -0.17575935 -0.22473288 0.25978553
000120 13 76 e2 3d 55 cc ef 3d cb c0 4b be 99 3a a8 3e
       0.11057677 0.11708895 -0.19897763 0.32857206
000130 eb ea 53 bc e7 96 2c be ed fc b8 3e f0 01 50 be
       -0.012934427 -0.1685444 0.36130467 -0.20313239
000140 0b f0 2c 3e b8 88 02 3c 1c 45 49 3e 14 37 96 3e
       0.16888444 0.007967167 0.1965527 0.29338896
000150 7b dc 85 3e e6 61 6f 3d 69 50 31 be 4c fd 98 3e
       0.26144776 0.058442973 -0.1731583 0.2988075
000160 ae f7 21 3d 0f a1 5b 3e 97 12 ab be 25 da f9 3d
       0.039542846 0.21448158 -0.3341262 0.12199811
000170 3c 58 73 bc f2 c7 6d 3c fe ef c1 3e 9b e7 62 be
       -0.01485258 0.014513003 0.37878412 -0.22158663
000180 79 31 a9 bd e2 0b 93 bd f4 06 30 bd 5f ff 78 3e
       -0.08261389 -0.07180001 -0.04297538 0.24316166
000190 f2 36 0b be 76 11 28 3e 57 c9 f2 bd 5c ab 26 3e
       -0.13595179 0.16412911 -0.11854809 0.16276306
0001a0 ea e9 3f 3e c8 63 19 be cd b1 c0 bd 57 23 e9 bd
       0.18741575 -0.1497947 -0.09408913 -0.11383694
0001b0 9e 07 42 3e 4d a8 10 bd bd 42 57 3d 47 01 66 be
       0.18948218 -0.035316754 0.05255388 -0.22461425
0001c0 55 6d 77 be bb 34 e2 3c 6d 2a f5 3d b9 0e ee 3d
       -0.241628 0.027613034 0.11970983 0.11623902
0001d0 72 bb d2 3b ba 9e 9a 3b c1 22 0a bc 1f 4d 84 be
       0.0064310366 0.0047186287 -0.008431138 -0.2584009
0001e0 5f 67 37 3e 55 53 64 be 3b 89 86 3e 1f 4e 24 3e
       0.17910527 -0.22297414 0.26276574 0.16045426
0001f0 81 f2 09 be 3e 67 b9 bd 57 fd f7 3d ba 08 81 3d
       -0.13471414 -0.09052895 0.121088676 0.063004926
000200 ee 94 8d be 4b a0 5e 3e e6 45 a5 bd 22 35 2f 3e
       -0.27652687 0.21740834 -0.08069973 0.17110112
000210 85 8c 45 bd 7c 0f 3d 3d 63 7b 09 bd b0 02 f1 3d
       -0.048229713 0.046157345 -0.033564936 0.11768091
000220 92 d1 84 3d 2e c3 63 3d 33 84 25 bd 1a 30 0e 3d
       0.06485285 0.05560606 -0.040409278 0.034713842
000230 54 7b 51 be 56 27 1d be 3e d2 c0 3d 3c c7 6e be
       -0.20457202 -0.15347037 0.094151005 -0.2331819
000240 85 9f 00 be 51 76 77 bd d5 4b c3 bd 05 54 b7 3d
       -0.12560852 -0.06041557 -0.09535948 0.08951572
000250 0c 0a 73 be 14 3e 6a bd fd a7 2b be 23 cb a8 3d
       -0.23734301 -0.05718811 -0.16763301 0.0824187
000260 f2 82 94 be b9 fb 77 be 2f d8 ba 3d 1d 75 10 be
       -0.29006153 -0.24217118 0.09123265 -0.14107175
000270 01 b6 c7 3d 84 4c 88 3e 41 99 38 3e 76 d0 a1 bd
       0.09751511 0.26620877 0.18027212 -0.07901089
000280 cf 67 28 be e8 84 26 bd 6d cb 52 3e eb bc 37 bd
       -0.1644585 -0.040654093 0.20585413 -0.0448579
000290 6c 89 9c 3d cd 8e 6a bd 43 3b 62 be 07 d6 91 bd
       0.07643399 -0.05726509 -0.22092919 -0.071209006
0002a0 34 a5 92 3e fa fd 26 bb e6 ea b3 3d 8a d9 8e bd
       0.28641665 -0.0025480972 0.08785038 -0.06975086
0002b0 f3 40 a1 3e 18 66 02 be 2b ac 30 be 5b 63 b4 be
       0.31494865 -0.12734258 -0.17253177 -0.35232052
0002c0 27 cf 0e 3e a8 53 8f be 19 00 9a be 01 84 65 3b
       0.1394621 -0.27993512 -0.300782 0.0035021307
0002d0 b7 09 c6 3d 9d e9 bd bc ef 3c c0 3d 5c f6 3a 3e
       0.09669822 -0.023182685 0.09386622 0.18258041
0002e0 31 72 b1 bc 1b 0c 42 3e ca 06 2d bb e8 87 89 3c
       -0.021660896 0.1894993 -0.0026401752 0.016788438
0002f0 d6 cc 97 be 89 cf 97 3e 74 56 e2 3c 17 1b e4 3d
       -0.29648465 0.29650524 0.027629115 0.111379795
000300 e1 f5 14 bd 2c 73 5e 3d c3 a2 4b 3e 62 a0 57 3e
       -0.0363673 0.054309055 0.19886307 0.21057275
000310 1c e1 a1 3e c9 ee fe 3d 56 93 5d be 33 f2 80 bc
       0.31617057 0.124478884 -0.21638235 -0.01574049
000320 08 6f e7 bd 53 01 93 be 97 4c 1f bd 28 a0 9b 3d
       -0.113004744 -0.28711948 -0.0388914 0.07598907
000330 15 ee 97 3e 9d 7c d6 3d e5 00 b4 3d 75 b7 22 3e
       0.2967383 0.10472987 0.08789233 0.15890296
000340 c3 63 25 3e 62 2c f5 3d 15 d2 6d 3d c6 4d 86 3d
       0.16151337 0.11971356 0.058061678 0.06557803
000350 24 56 2c be c1 80 13 bd 7b ff 58 be 13 a6 15 3e
       -0.16829735 -0.03601146 -0.21191208 0.14614134
000360 7a 43 8a be 5a cd 89 bc ba 2f c0 be 62 c7 84 3e
       -0.27004606 -0.016821552 -0.37536412 0.25933367
000370 53 8c 56 bd 90 58 39 bd 18 e7 94 3e 26 c0 17 3d
       -0.052379917 -0.045250475 0.2908256 0.03704848
000380 a0 ac 06 3f 85 cf 16 3d b5 d9 d6 3e 34 db b0 3d
       0.52607155 0.036819 0.41962972 0.0863556
000390 90 84 f2 bc 9e de 87 3e cd 8b 5b 3e 88 a6 49 3d
       -0.029604226 0.2653703 0.21440049 0.049231082
0003a0 c4 fc c7 bd 20 84 b6 3d 8d 3e 96 3e 05 21 f1 3d
       -0.09765008 0.089119196 0.29344597 0.11773876
0003b0 a8 94 53 3e bd 62 b6 3e 97 79 b6 be 47 03 49 3e
       0.20662177 0.35622206 -0.3563964 0.19630156
0003c0 80 a7 97 3e 84 c8 05 3d c9 9c 5f bd 5c 3a 6c be
       0.2961998 0.03266193 -0.05459288 -0.23069137
0003d0 7d e4 79 be 32 43 b3 3e bb d8 66 bd 4b e4 3f 3e
       -0.24403568 0.35012203 -0.056359034 0.1873943
0003e0 38 00 0a be 1c 20 ac bd ae fb b2 3e 1c 13 25 3e
       -0.13476646 -0.08404562 0.3495764 0.16120571
0003f0 60 eb ea 3e 61 2c 04 be b6 bc 06 3e 12 ab 41 3d
       0.45882702 -0.12907554 0.13157925 0.047282286

rgcn.bias f4 [32]
000000 f5 54 3e 3c c2 ac 0e bd 38 6f 98 bd a0 84 fe 3c
       0.011616935 -0.034832723 -0.07443088 0.0310691
000010 58 2e a8 3c e9 f1 0e bd 3a b0 9a bb ab d2 55 bd
       0.02052991 -0.034898672 -0.004720715 -0.05220286
000020 4d 87 37 bd f7 ee b4 3c 69 28 35 bd ca 37 74 bd
       -0.044806767 0.022086604 -0.04422799 -0.059623517
000030 3e d0 bc bc fd 19 86 bc 74 16 5a bd ff 56 bf 3d
       -0.023048516 -0.016369814 -0.05324407 0.09342765
000040 0b ed c1 bc cc a6 0c be 20 71 11 3d c5 00 ce bd
       -0.023672601 -0.13735503 0.035508275 -0.100587405
000050 42 9a 21 bd 7f 79 2f bd f2 1b 00 bf 5b f1 29 bc
       -0.039453752 -0.042840477 -0.5004264 -0.010372485
000060 59 a4 be 3d 71 bc 30 bd 89 da 4d 3d 3e 29 8d bd
       0.093086906 -0.04314846 0.05025724 -0.06892632
000070 29 2f 43 bd f7 47 62 bd 2e eb 7d bd e7 60 50 3d
       -0.047652397 -0.055244412 -0.061991863 0.050873663

linear_relu_output1.0.weight f4 [32, 32]
000000 ec 6b d8 be 11 f1 2f 3a 03 12 85 be eb 49 30 3e
       -0.42269838 0.0006711642 -0.25990304 0.17215697
000010 35 84 49 3c b8 a5 97 3e 58 5e 1c 3d c2 fb 25 be
       0.012299587 0.2961862 0.03817591 -0.16209319
000020 9d f2 5c 3e 3f 44 76 be b9 2d 9f bd c3 e4 95 3e
       0.21576925 -0.24049471 -0.07772393 0.29276094
000030 31 b0 cd 3e ef 50 1f be dd f1 8e 3e 89 ab 50 3c
       0.40173486 -0.15558217 0.27918902 0.01273621
000040 7b 01 9f bd 05 c4 80 bd 48 47 1e 3e f0 6a 5c be
       -0.07763954 -0.06287388 0.15456879 -0.21525168
000050 63 f6 9a 3e ec 7f b6 3d a9 37 4b bd 46 4e 7d be
       0.30266103 0.08911118 -0.04961363 -0.2473689
000060 b1 b9 b8 be e7 91 23 be e1 af 89 bd 0d 54 9c 3e
       -0.3607917 -0.15973626 -0.06722999 0.30532876
000070 75 67 67 be 9c c5 8a 3e c4 6f cf 3e 24 58 86 3d
       -0.2259806 0.2710389 0.40514958 0.0655978
000080 05 31 ab be 87 cb 87 bc 59 04 9e be 78 25 8f b9
       -0.33435836 -0.016576542 -0.30862692 -0.00027303002
000090 19 ce c4 be 51 f3 b5 bd 46 3b 6f 3e 1f f0 7d 3e
       -0.3843849 -0.088842995 0.23362455 0.2479863
0000a0 84 64 bc be 33 cd 59 be 99 3a 42 be 4d 37 1f bd
       -0.36795437 -0.21269684 -0.18967666 -0.0388711
0000b0 ec 27 c7 3e 61 af 70 be 40 e4 60 be fa 66 21 be
       0.38897645 -0.23504402 -0.2196207 -0.15761939
0000c0 e7 eb 91 3d fa fc 92 bd 5a 1f f3 3d 15 6e a4 be
       0.07125073 -0.07177158 0.11871214 -0.32115236
0000d0 8e e3 08 be 5c 3a 84 3e 4b 3d e3 bd ac 68 45 3d
       -0.13368055 0.25825775 -0.11095675 0.048195526
0000e0 db 5f 0e 3e 09 87 eb be 23 b2 89 bd 2e 02 e4 3e
       0.13903753 -0.4600146 -0.0672343 0.44532913
0000f0 7d 01 5a be d6 2a 93 3d 78 32 18 bd 33 83 16 be
       -0.2128963 0.07185905 -0.037157506 -0.14698486
000100 0e 76 f8 bd 43 f5 92 3e 55 c0 05 3e 12 42 a5 3e
       -0.12131892 0.28702745 0.1306165 0.3227697
000110 6c ec 64 3e 5b 10 0a be d9 6e 83 3d aa aa 9d be
       0.22355813 -0.13482802 0.06417627 -0.3079427
000120 16 15 07 be 7c 4d 6a 3e 1a 59 d2 3c e3 fe 6b 3e
       -0.13191637 0.2288112 0.025677253 0.2304645
000130 15 0b d2 bd 07 ce 98 3d 33 65 0b 3e a8 68 7b 3e
       -0.1025602 0.074611716 0.13612823 0.24551642
000140 64 22 c3 be dc 87 e9 bd 91 4b bc 3e f9 12 68 3e
       -0.38112175 -0.11402866 0.36776403 0.22663487
000150 98 75 f1 bd 43 61 c0 3e bb 4d 8e 3d b8 e6 8d be
       -0.11790007 0.37574205 0.0694842 -0.27715087
000160 a3 6e 9d bd 18 6a 07 be a0 fc 83 3c 98 90 8a be
       -0.07687118 -0.13224065 0.016111672 -0.2706344
000170 5e e2 a4 be cb 12 64 be 22 06 44 3e 1b 06 4c 39
       -0.32203954 -0.22272794 0.19142964 0.0001945723
000180 43 9c 83 bc b0 7f 64 bd 18 e9 a4 bd 8d 16 d7 3e
       -0.016065722 -0.055785835 -0.080522716 0.42009392
000190 55 65 4c 3e 4c d6 b9 3d 5d c8 1b be b1 cc 40 be
       0.1996053 0.09074077 -0.15213151 -0.18828084
0001a0 04 a2 0a bd 1d a0 83 be cd 2d 12 bc 4e c8 9c 3e
       -0.033845916 -0.25708094 -0.008922053 0.3062157
0001b0 d1 ed 84 bc 5c df ae 3e f2 ce 16 3d af 90 a8 be
       -0.016226681 0.34154785 0.036818452 -0.32922885
0001c0 09 22 45 3d 12 ea cd be d0 6d 8a be a5 c6 47 be
       0.04812816 -0.40217644 -0.27036905 -0.1950937
0001d0 85 5b 7e bd 1c 1c 95 3d 7e 42 2f bd c9 a8 29 3c
       -0.062099 0.07280752 -0.04278802 0.010355183
0001e0 2e 3d 20 3e 43 85 20 3e 0c c5 b4 be a0 99 5d 3d
       0.15648338 0.15675835 -0.35306585 0.054101586
0001f0 53 86 86 bd 86 11 b7 3d 46 3b a1 bd 4d ce 14 3d
       -0.06568589 0.08938889 -0.07872634 0.036329556
000200 93 e9 34 3e ea 7b 46 3e 7b 35 d2 3e 4d 77 47 be
       0.17667226 0.19383207 0.41056427 -0.19479103
000210 49 2f 82 3e e8 c5 68 3e 68 4a 8d be 41 43 b3 bc
       0.254267 0.22731745 -0.2759583 -0.021882655
000220 72 13 b1 be 35 14 6f 3e 1c 55 18 be 25 db bb 3c
       -0.34585148 0.23347552 -0.14876217 0.022931645
000230 c9 d3 7a be 74 06 29 3e 7d 71 b9 be 74 f8 24 be
       -0.24494852 0.16506368 -0.36219397 -0.16110402
000240 7d 62 32 3c 8b c7 a7 3c ba d1 71 3d 48 98 7d be
       0.010887739 0.020480892 0.0590379 -0.24765122
000250 47 fd 09 3e f1 e6 a7 be 76 09 ef bd d7 f8 89 3e
       0.13475524 -0.32793382 -0.116717264 0.26947662
000260 74 34 16 3e 3e 73 e8 3d b2 5f 91 be 58 1a 3c 3b
       0.14668447 0.11350106 -0.28393322 0.0028702226
000270 46 b2 94 3d 23 dc 4c be 60 2d 52 3d 89 6c 0e be
       0.072605655 -0.2000585 0.051312804 -0.1390859
000280 92 83 40 be 42 5b d8 bc 05 2d d0 3a d6 92 91 3e
       -0.1880019 -0.026410703 0.0015882557 0.2843234
000290 97 21 0e be 15 05 80 bd 64 cb 90 3e 1e 73 5b be
       -0.13880001 -0.06250969 0.28280175 -0.21430632
0002a0 4e c2 64 be 14 07 9c be 3a 34 10 3d 1a 05 98 3d
       -0.22339746 -0.3047415 0.035206057 0.07422848
0002b0 92 3b a2 be 51 57 b1 be c7 50 ea 3d f6 41 24 be
       -0.31686074 -0.3463693 0.11441188 -0.16040787
0002c0 19 63 32 be 7a 62 83 be 0e 1e 45 be 43 3e 4b be
       -0.17420615 -0.2566107 -0.19249746 -0.1984797
0002d0 b4 7b 60 be 15 61 be be 6c f1 a0 3e ba b5 0d 3d
       -0.21922189 -0.37183443 0.3143419 0.034597136
0002e0 61 46 4d 3e 6e 97 7b 3e a7 14 56 3e 67 0e d1 3d
       0.20046379 0.24569485 0.20906316 0.10207825
0002f0 2f 56 39 3e eb 0e 37 3e 72 28 aa be 3a a8 89 be
       0.18099283 0.17876785 -0.33233982 -0.2688616
000300 bc 19 b7 be 87 4c 8f bd 0f cc a1 3d 66 c1 4c 3d
       -0.3576182 -0.06997018 0.07900249 0.049989127
000310 e8 7c 52 3e 14 58 b6 bb 4c 69 82 bd 5c 34 67 be
       0.2055546 -0.005564699 -0.0636774 -0.22578567
000320 86 e5 ac 3e df 04 b7 be 57 3c 60 be 50 c8 54 3e
       0.33768862 -0.35745904 -0.21898018 0.20779538
000330 7b a4 6d be d8 a4 59 be 92 5f 4a 3e 0e ca 9d 3e
       -0.23207276 -0.21254289 0.1976302 0.30818218
000340 db 31 f6 bd 89 fa c5 3e 6c f6 82 be af e6 59 3c
       -0.12021228 0.38667706 -0.2557863 0.013299628
000350 80 c7 6d be a5 42 32 3d 0b 51 b6 3d 6c 9a 82 be
       -0.23220634 0.04352059 0.089021765 -0.2550844
000360 d0 e0 a9 3e 93 97 86 be d0 18 a6 bd d9 0d ad bc
       0.3317933 -0.26287517 -0.08110201 -0.021124767
000370 8d 6b b7 bd f2 4b 9a 3d 15 9c 90 3e 42 56 87 3e
       -0.089560606 0.07534017 0.2824408 0.26432997
000380 9e 5f 6c 3e 08 b8 90 be d2 30 ba be 9b 4a 64 be
       0.2308335 -0.28265405 -0.36365372 -0.22294085
000390 58 25 9d 3e a1 cc 03 3c 4e e9 40 3c 1c 01 24 3e
       0.30692554 0.008044393 0.011774374 0.16016048
0003a0 11 d7 10 3e 38 97 20 be 84 64 c3 be b2 1e c2 3e
       0.14144541 -0.15682685 -0.38162625 0.37914044
0003b0 3d 29 90 be cd 15 8f 3e a2 fd d5 3d 95 c2 1b be
       -0.28156462 0.2794632 0.10448767 -0.15210946
0003c0 db 13 73 3e 02 45 77 3e 0d 7f f6 3d d3 70 bd 3a
       0.23738043 0.24147418 0.12035952 0.001445318
0003d0 53 a7 c3 3d 29 72 92 be 46 99 a0 3e 54 3f 7c be
       0.09553399 -0.28602722 0.31366938 -0.24633533
0003e0 50 cc 09 3e 7f a7 2a 3e 83 e4 4d be 7f b0 a4 be
       0.13456845 0.16665457 -0.20106702 -0.32165906
0003f0 46 c3 73 3e b2 e2 07 3e d9 f0 33 be b7 84 05 bd
       0.2380496 0.13270071 -0.17572345 -0.03259727

linear_relu_output1.0.bias f4 [32]
000000 9e 18 0f 3d b2 05 cd 3d 29 65 a9 3d 6c 67 fa 3d
       0.034935586 0.10010852 0.08271248 0.122267574
000010 c9 3c 6c 3c f9 59 1f be 87 db f8 bd 88 17 cb bd
       0.014418789 -0.15561666 -0.121512465 -0.099165976
000020 9d be 3e 3e ec 41 10 3a f5 57 88 3d 3e a9 6a 3d
       0.186274 0.0005502987 0.066574015 0.05729031
000030 73 2a fc 3d 2f 41 61 be 0a 81 14 3d b1 e8 54 be
       0.12312784 -0.21997522 0.036255874 -0.2079189
000040 a4 36 b5 bd e3 7b 03 bb e8 f9 a1 bd 02 30 5d bd
       -0.088483125 -0.0020062856 -0.07908994 -0.054000862
000050 65 b8 93 3d a5 34 0f 3e a1 38 7f 3e ac 49 9f bd
       0.07212905 0.13984926 0.24923946 -0.07777724
000060 a5 7c ba bd e9 39 0f bd 03 22 45 bd 52 ee 17 bd
       -0.09105805 -0.034967337 -0.04812814 -0.037092514
000070 30 4c 54 3e 50 2b e9 3d 84 fb 0c be ec 0d 83 3d
       0.20732188 0.11385214 -0.1376782 0.0639914

linear_output2.weight f4 [2, 32]
000000 4c db 73 be 4c fc c4 3e 4d 09 30 3e c9 bd b9 be
       -0.23814124 0.38473737 0.17191048 -0.36277607
000010 b1 f4 b8 be 79 53 ee bd fd 10 94 3e 17 9d a2 3e
       -0.36124185 -0.11637015 0.2891921 0.31760475
000020 38 99 e0 3e 4c 6a 5d bd af fe 62 be f6 d2 4c 3e
       0.43866897 -0.05405645 -0.22167467 0.2000235
000030 ec 00 c3 3e e0 6b a0 3e ed be 5a bc 13 f1 91 be
       0.3808664 0.31332302 -0.013351184 -0.28504238
000040 4b 68 90 bd a4 a4 a5 3e 11 87 64 3e d3 b4 7a 3e
       -0.07051142 0.32352173 0.22317149 0.24483041
000050 28 db 2e be fc e6 c4 bd a1 f5 b9 3e c7 81 cc 3e
       -0.17075789 -0.09614369 0.36320212 0.39942762
000060 b6 44 67 3e 37 1f c8 bd f5 40 81 bd 08 75 83 3e
       0.22584805 -0.09771579 -0.06311218 0.25675225
000070 4d 27 8f 3e 63 68 7b be bf 78 af bc da 35 6c bd
       0.27959672 -0.24551539 -0.02141988 -0.057668544
000080 62 39 8e 3e 52 b9 8f 3e 34 46 13 be 48 c1 cc bd
       0.27778155 0.28071076 -0.14382249 -0.09997803
000090 73 25 b4 be a2 0c 2a bd 7f 5b ea bc d0 e6 aa 3e
       -0.3518482 -0.041515954 -0.028608082 0.3337922
0000a0 ca b9 44 3e 08 cc 2b be ff b9 04 3e cd 19 a4 be
       0.19211498 -0.1677705 0.12961577 -0.32050934
0000b0 af 4a ca 3d d5 a6 b9 3e ab b4 01 be 59 c2 a0 bd
       0.09877526 0.36260095 -0.12666576 -0.07849569
0000c0 49 ab e3 3c 25 40 15 be b4 a0 c8 bd 32 97 22 be
       0.027791636 -0.1457525 -0.09796277 -0.15877989
0000d0 84 21 b2 3d 30 90 43 be b1 3f 57 bd 19 4e 3a 3e
       0.08697799 -0.19097972 -0.052550975 0.18193854
0000e0 63 9d 83 3e 8d e9 89 be 67 03 b4 be 3d a3 6f be
       0.25706014 -0.26935998 -0.35158846 -0.23402114
0000f0 1e d2 e8 3d 22 62 42 3e ad 93 b7 3d 67 c9 9f be
       0.11368202 0.18982747 0.08963714 -0.31208345

linear_output2.bias f4 [2]
000000 d4 a5 45 3b 2f 58 fd bd
       0.0030158656 -0.12370335
