Model Two/saved_models/15_BotRGCN_weight.pth (torch, 76854 bytes, 17 tensors)

linear_relu_des.0.weight f4 [8, 768]
00000000: 16cd eebc bb84 1abd 71a9 57bd a9a9 77bb
00000010: 63de b03c 11c8 af3d 8eca 3abc 628d 0ebe
00000020: 5cfa 4ebc d13f 403d adab 173d cdbd 1dbb
00000030: 5b63 e33d dc2c 34bd 2e7c 37bd 8b96 233c
00000040: 9bfe 4c3c 0359 aeba bd96 673d cc62 d33b
00000050: 5f26 873d d2d8 f8bc 5422 bfbd 54e2 5b3d
00000060: f47d 5a3c ddc1 a0bd d4d1 00bc b398 80bd
00000070: be82 abbd 4797 d53d 8215 4e3d 27d0 b53d
00000080: 95a3 39bd d752 48bb 4935 f1bd 9827 e23d
00000090: be78 bdbd 3b14 1dbe 1805 27be b4eb 2cbc
000000a0: 71f9 7d3d a9a6 153e 1b96 5dbc 4365 b4bd
000000b0: ae75 b5bd b780 02be 30dd 21bd 645c 9f3d
000000c0: 15c0 a43b 1549 9f3c c934 b8bd fb85 d6bc
000000d0: 2918 4c3d d42d c83b 4661 adbd d79e 153c
000000e0: 4f86 cf3d 9f21 163d c126 043c 2230 b83b
000000f0: 50d7 bc3b a5d1 1abe ce15 ff3d 1213 5abd
00000100: 39b5 383c a8e4 e73d 6100 01bc 7fa1 0d3d
00000110: 3015 873d 9faa f7bd 1595 4d3d edef f53d
00000120: aae9 02be a969 e23d 2a6b 00be 0632 2eb9
00000130: 5f87 d53c 5a60 843d 7125 eeba 64c2 893b
00000140: 84f4 fc3c 67fa 193e 0ae8 a5bd 2976 b9bd
00000150: df2a 4ebd 8f93 f4bd c9df 063e d855 5b3c
00000160: 6887 003e 4856 073b 413d 32bd b145 003e
00000170: 1ee4 5bbd e18d b53c e43c 10bd 4925 db3d
00000180: 3403 86bd 566d 99bd 18e5 ba3c edff 283c
00000190: a541 9c3d a37d abbd 6a4f 523d 279d 2abe
000001a0: c89d 44bd 7ac4 56bd a74f 16bd c414 d83d
000001b0: 0dae 7a3c 1119 24bd f7e9 e8bc 0d55 8d3c
000001c0: d50e 0abe 74e0 0f3e dc1d 113c a575 8ebd
000001d0: 6f36 0ebe 7f85 52bd 0f98 20be 42ee 04be
000001e0: d8a6 b8bd ea05 cabc 95b8 fdbd 96d5 003c
000001f0: 56a7 b23d 267f 7abd fe40 a53b b51c 233e
00000200: 0ba0 013e 3a32 dbbd e761 38bd 0bd3 383c
00000210: ab7f b23c 6e1b b8bd fa19 0fbe 1fd7 e23d
00000220: ef51 0ebe 63fb 20bc 77a2 7dbc 3e5c 16be
00000230: 3d8f 883c 44c1 cdbd ce60 55bd 2d63 0bbd
00000240: dc72 27be 05f9 253d 90eb a1bd 389b 253e
00000250: 1616 d33c f224 b13c f645 c0bd 96d2 a13d
00000260: 38e7 683d 4795 b5bd 682f 203c 4efb b83d
00000270: 705c 513d b5a6 8dbd a02d b03c 7a0b 8439
00000280: 97fb c8bd b727 563d 3eb4 0bbd 0fcc 983c
00000290: be24 4c3d 3b38 4d3d c0db 643c 7df5 22bd
000002a0: 4e31 76bc 2cb3 33bd 7a1b fabc c850 03bd
000002b0: 9a09 803d 85b3 20bd d218 bf3d b56b 99bd
000002c0: abb9 11bd 5949 c5bd 134b 54bc 5134 013c
000002d0: 1925 0abe 4687 c63c 5e45 da3b eaff a9bd
000002e0: 8372 dabc 8f89 47bd 54e7 8cbc f9e3 c63d
000002f0: b571 813d d568 45bc 0955 ccbc 1bd3 bbbc
00000300: 5b36 7dbc d5f5 273d 9bb3 ffbd 8986 8dbd
00000310: 0323 2dbc fe6e 9a3c 6631 debc 501c 403d
00000320: e3ee 6dbd b89c 2f3d 5deb c9bd e231 89bd
00000330: e13d f0bd 14f3 08be b91d b33b 79e4 afbd
00000340: 6e13 11be ad33 0c3d 0e79 0d3e 50fe 95bd
00000350: 14f7 d73d 7c9c 24be f919 eabd b4b1 a93d
00000360: 03f9 063e 7666 273e bd4b 743d ddae 8f3d
00000370: 9e48 efbd b09a 70bd e4d8 a73b a56b 0fbd
00000380: 6e2e eebd 6618 12bc c348 06bd 61fe b23c
00000390: 5f1e b53d 4255 ddbd 46af 36bb 28b8 53bc
000003a0: 0732 90bd 0e8c 9f3a e428 aa3b f612 023e
000003b0: 095e 97bc 2017 06be e8d3 bbbd 69f0 513b
000003c0: 17e4 8b3d 8847 5cbd aa36 1cbd 35c3 a1bd
000003d0: 4317 25bd b733 f3bd 22f0 403d e233 fcbc
000003e0: bb98 113d 62b5 ddba 253e e5bc f997 f53c
000003f0: 82ec 9fbd 645c 293d 82ac 113e 2983 a3bc
-0.029150527 -0.037724238 -0.052651826 -0.0037790334 0.021590417 0.085830815 -0.011400832 -0.13921121
-0.0126329325 0.04693586 0.037028957 -0.002406943 0.11102935 -0.043988094 -0.04479616 0.009984623
0.012511875 -0.0013301674 0.05654024 0.0064509865 0.065991156 -0.030376825 -0.093327194 0.05368264
0.013335694 -0.078494765 -0.007862527 -0.06279125 -0.083745465 0.104292445 0.05031348 0.088775925
-0.04532202 -0.0030566955 -0.117777415 0.11042708 -0.09251545 -0.15339749 -0.16310537 -0.010554243
0.062005464 0.14614357 -0.013524557 -0.08808377 -0.08860336 -0.12744413 -0.03951758 0.07781294
0.005027781 0.019444028 -0.08994443 -0.026186934 0.04982773 0.0061089788 -0.08465819 0.009132109
0.10133039 0.036653157 0.00806588 0.0056209723 0.005762972 -0.15119036 0.12455331 -0.053240843
0.011273676 0.113229096 -0.0078736255 0.034577843 0.06595838 -0.1209309 0.050191004 0.12008653
-0.12784448 0.11055309 -0.1254088 -0.00016612568 0.026065527 0.0646369 -0.0018169117 0.0042040814
0.030878313 0.15036927 -0.081008986 -0.090557404 -0.050333854 -0.11942207 0.13171305 0.013387166
0.12551653 0.0020650793 -0.043515448 0.12526585 -0.053684346 0.02216238 -0.03521432 0.10700471
-0.0654358 -0.07491557 0.022814319 0.010314924 0.07629708 -0.08373573 0.051345266 -0.16661511
-0.048002034 -0.05243347 -0.036697056 0.10550836 0.015300286 -0.040062968 -0.028431876 0.01725247
-0.1348222 0.14050466 0.008857217 -0.06956033 -0.13887952 -0.051396843 -0.15683006 -0.12981513
-0.09016198 -0.024661023 -0.12388722 0.007863423 0.08723323 -0.061156414 0.005043148 0.1592892
0.12658708 -0.10702939 -0.045015242 0.011280785 0.021789392 -0.08989607 -0.13974753 0.11076187
-0.13898443 -0.00982556 -0.015480629 -0.14683625 0.016669864 -0.10046628 -0.052094273 -0.03403013
-0.16352409 0.040520687 -0.07906258 0.16172493 0.025767367 0.021624062 -0.09388344 0.07901494
0.056861132 -0.08866363 0.0097769275 0.090323076 0.051113546 -0.069165625 0.02150613 0.00025185553
-0.09813612 0.05228397 -0.03410744 0.01865199 0.049839728 0.050102454 0.013968408 -0.039784897
-0.015026404 -0.043872043 -0.03053068 -0.03205946 0.06251831 -0.039233703 0.09330906 -0.074912466
-0.035577457 -0.096331306 -0.012957352 0.007886008 -0.13490714 0.024234425 0.0066611012 -0.08300765
-0.026665932 -0.04871517 -0.01720015 0.09711451 0.06320516 -0.01204892 -0.024942892 -0.022927811
-0.015454854 0.041005928 -0.12485429 -0.06910426 -0.0105674295 0.018851753 -0.027123164 0.046902
-0.05808915 0.042874068 -0.09859345 -0.066989675 -0.117305525 -0.13373977 0.0054661897 -0.085884996
-0.14167568 0.03422897 0.1381571 -0.07323897 0.10545173 -0.16075319 -0.11430735 0.08285847
0.13180928 0.1634768 0.059642542 0.070157744 -0.116837725 -0.05874127 0.005122291 -0.035014767
-0.116299495 -0.00891695 -0.032784235 0.021849813 0.088436835 -0.10807277 -0.0027875467 -0.012922324
-0.07040792 0.0012172477 0.005192863 0.12702546 -0.018477457 -0.13094759 -0.09171277 0.0032034165
0.06830614 -0.053779155 -0.03813807 -0.07898561 -0.040305387 -0.11875098 0.04710401 -0.030786458
0.035546046 -0.0016915018 -0.027983734 0.029979693 -0.07808782 0.041347876 0.14225963 -0.019960003

linear_relu_des.0.bias f4 [8]
00000000: 5bfa f1bd 1a09 98bd f5a9 2b3d 5c61 1c3e
00000010: 63d4 41bd 4bb2 363d 95b5 65bd a282 03bd
-0.1181533 -0.07423611 0.04191013 0.15271515 -0.04732169 0.044603627 -0.056081373 -0.032107003

linear_relu_tweet.0.weight f4 [8, 768]
00000000: 02f6 50be e83e 6fbd 64ba 543c f471 0f3e
00000010: befc bdbd a1ba dfbd 6a4a 173e 66ff 853e
00000020: 326a 1cbe 491b 153e 2e7d abbd dc1f 5d3e
00000030: 43e2 83be 206a 50be 4dd5 783c 8b7c 2a3d
00000040: 3d42 9ebe eecb d13d 8369 8ebe d77f 97bc
00000050: 6771 d53c 55de 02be 961d 0f3e 2b4b 01be
00000060: 97a4 6d3e fe3b 863e f6eb ddbd e292 48bd
00000070: 0cc9 62be b1cf eabd 1998 3e3e 979d 40be
00000080: 60d9 393d 793a 4a3d 86e6 9e3e bc05 80be
00000090: 54fe 473d b89b 07be 6aaf 813d 4c25 e53d
000000a0: 9ca6 d5bd 2a6b e8bd 3075 49bd c1d3 283d
000000b0: e68c 5a3d f5d8 083b ec5d 693e 2764 31be
000000c0: 3158 1d3d aac3 7e3d ca2d 1fbe ab0f 383e
000000d0: 4bde bc3d 618c 1cbc fa7c 3c3e 3861 0ebe
000000e0: 0896 05bd 72fa debd b58a 6a3e b0e7 3c3e
000000f0: 9f44 1abd 07b5 67bc 391d 3cbe e1ba 2d3d
00000100: b8fb c33d 38d3 013e 3192 8e3c 973c 453e
00000110: 45ec 33be 86d2 2c3e 3cd1 62be d257 7d3d
00000120: c99f 15be 8b95 db3d 1a90 903d 6e66 923d
00000130: 9915 1abe 549f 933c 96d5 023d c28b 493d
00000140: 1f51 b5bd 7444 403d c939 31bc 5ab2 d13b
00000150: 0fad ad3d a69e 4c3e 9766 77be 413e 913e
00000160: 8424 68be 7744 6a3e fd22 d03d e7fc 1dbe
00000170: 24ea 3b3d 97e3 aa3d c499 443d 1bd4 14be
00000180: 995e dabd d206 cfbc 077d 353e eca3 5ebe
00000190: a92f 3ebe b1fc 233e 3168 81bd e3a6 c0bd
000001a0: 110a 723e 0503 853c ff1b 663e 87df 243d
000001b0: fb89 583e b00e 13be 2bf3 443e 420d c53d
000001c0: 2fc9 ba3d 1685 80be aea5 d93d 497c 673d
000001d0: b095 66be 6aec 123d ada6 1a3c 1675 b43d
000001e0: 9343 07be 0458 03bd 152a a03d 0269 eb3d
000001f0: 73d9 2a3e 2ab4 553e d872 3ebe 7f06 9fbd
00000200: a47e 18be 951a dcbd 0dd2 6c3d a095 d23d
00000210: 6501 5e3e 6c61 2e3e 64bb f93c 59dc 163e
00000220: f3df 193e 7272 463e 2a85 49be f4e6 183e
00000230: 904c 9ebe 8115 073e acbb b73d b461 233e
00000240: 8586 90bc 94bd 10bd 6053 0d3e 524a 063e
00000250: 198d 773e 5284 3fbd 029d 143e bef1 7ebd
00000260: 877e 303d ced3 febd a3d4 66bb 3282 78be
00000270: 8cd7 3cbe d700 14be 8681 5c3d 67a9 603c
00000280: 7eed 1b3e ee77 01bd 5140 3abe c4cc 653e
00000290: 5b12 e3bd ef21 2d3e 360f b93d b62d 04be
000002a0: c825 ccbd cf64 493e e6ac ccbd 7225 6ebe
000002b0: b89e 8fbe 1902 8d3e e845 92be f463 093e
000002c0: 7506 e13d eaab fc3d 8b98 8abe 2c42 83bd
000002d0: 3149 2c3e 3421 5c3e 88c0 113c 1376 b73d
000002e0: 2d48 353e b3b4 233e f604 fe3d ea0e 0cbe
000002f0: 8700 efbd 9527 54bd 16a4 163e fefa 443e
00000300: acae a23e 765c d5bc 056b febc 6598 4e3d
00000310: b5b4 ebbd 67af 9e3d 991f 23be 376d f5bd
00000320: d0ca 6ebd 9dff 193d 3d2c b63e 0fcd 65bd
00000330: 7e4a 34bc ad4a 0d3e d805 9dbd fa55 073e
00000340: b2b5 52be f452 8a3d b0da a03d bd4e 923d
00000350: 68bc 37be 33ee 253c 4388 973d 561f b5bd
00000360: b7d5 afbd 760a 10bd f26e 42be 7b27 48bc
00000370: fa9a 17be 9c87 2ebd 8976 2e3d 2389 003e
00000380: 721c b0bc 2883 cd3d d131 e83d 92e7 923e
00000390: 901c 55be beec b13d 6203 293e e2ee c43d
000003a0: 2061 0bbe ca1b a13e 43ac f13d 1c89 e03d
000003b0: 4f03 9c3d 6c7f 543c 5470 533e 356c 253e
000003c0: 6ca4 c83c de87 d9bc d7c6 f2bd 858c ebbc
000003d0: 2de7 78be 5bd9 273d 3d67 403c f321 e6bc
000003e0: 831e 81bd 4bea 0dbe 63f4 a23d 40bc 28be
000003f0: c6d3 bebb cad8 aebb f81e 73be 395c 2ebd
-0.20406345 -0.0584096 0.012983892 0.14008313 -0.09276722 -0.109242685 0.1477448 0.26171416
-0.15274885 0.1456119 -0.083734855 0.21594185 -0.25758561 -0.20352983 0.015187574 0.04162268
-0.3090991 0.102439746 -0.27814874 -0.018493576 0.026055051 -0.12780125 0.1397613 -0.1262633
0.23207317 0.26217645 -0.108360216 -0.048968203 -0.22147006 -0.11465395 0.18612708 -0.18810116
0.04537332 0.04937217 0.3103525 -0.25004375 0.04882653 -0.13242996 0.06332286 0.111887544
-0.10432169 -0.11348565 -0.049184024 0.04121757 0.053357027 0.002088127 0.22789735 -0.17323361
0.038414184 0.06219832 -0.15544811 0.17974727 0.092220865 -0.009554953 0.1840705 -0.13904274
-0.032613784 -0.108876124 0.22904475 0.18447757 -0.0376631 -0.014142281 -0.18370523 0.04241455
0.09569496 0.1267823 0.017403694 0.19261394 -0.17570598 0.16877183 -0.22150129 0.06185133
-0.14611734 0.107218824 0.07058735 0.07148443 -0.15047301 0.01802031 0.031941973 0.04920555
-0.08853363 0.046940282 -0.010817 0.006399435 0.08480274 0.19982395 -0.24160229 0.28367808
-0.2267018 0.2287768 0.101629235 -0.15428506 0.04587759 0.083441906 0.047998205 -0.14534037
-0.10662574 -0.025271807 0.17723475 -0.21742219 -0.18572868 0.16014363 -0.06318701 -0.09406831
0.23636653 0.016236791 0.22471617 0.040252235 0.21146385 -0.14361072 0.19233386 0.09621669
0.09120404 -0.25101537 0.10627304 0.056515012 -0.22518039 0.035869993 0.009439153 0.08811395
-0.13209371 -0.03206636 0.078205265 0.11494638 0.16684513 0.20869508 -0.18598497 -0.07764911
-0.1489206 -0.107472576 0.057817508 0.10282445 0.2168022 0.17029351 0.030484863 0.14732493
0.15026836 0.19379595 -0.19679704 0.14931852 -0.30917788 0.13191797 0.089713424 0.1595524
-0.017642269 -0.035337046 0.13801336 0.13114288 0.24174918 -0.04675705 0.14513019 -0.062242262
0.043089416 -0.12442742 -0.0035221956 -0.24268416 -0.184416 -0.14453445 0.05383446 0.013712264
0.15227315 -0.031608514 -0.18188597 0.22441393 -0.110874854 0.16907476 0.090361044 -0.12908062
-0.09968144 0.19667362 -0.09993915 -0.23256472 -0.2805078 0.27540663 -0.2856896 0.13417035
0.1098756 0.123374775 -0.27069506 -0.06409106 0.16824795 0.21497041 0.008896001 0.08958068
0.17703314 0.159869 0.1240329 -0.13677564 -0.116700225 -0.05179556 0.14711031 0.19236371
0.3177389 -0.026045065 -0.03105689 0.050438304 -0.115090765 0.07748299 -0.15930022 -0.11983722
-0.058298886 0.037597287 0.35580626 -0.056103762 -0.011004088 0.13798018 -0.0766713 0.13216391
-0.20577124 0.06754103 0.07854211 0.071439244 -0.17942965 0.010127592 0.07399037 -0.088438675
-0.08585685 -0.035166226 -0.18987635 -0.012216444 -0.14805213 -0.042609796 0.042593513 0.12552314
-0.021497939 0.10034782 0.11337627 0.286923 -0.20811677 0.08687733 0.16505197 0.09615876
-0.13611269 0.31466514 0.118004344 0.109636515 0.076178186 0.012969833 0.20648319 0.16154559
0.024492465 -0.026554044 -0.11854332 -0.028753528 -0.24306937 0.04097877 0.011743364 -0.02809236
-0.06304648 -0.13858907 0.07956769 -0.16478062 -0.005823585 -0.005335902 -0.23742282 -0.04256842

linear_relu_tweet.0.bias f4 [8]
00000000: 059b 42bc 6432 8cbd 614d ea3c d3be 8b3e
00000010: 5c7d 37bd f644 3dbd 36e4 4c3d 1c74 0a3d
-0.01187778 -0.06845549 0.02860135 0.27294025 -0.044797286 -0.046208344 0.050022326 0.033802137

linear_relu_num_prop.0.weight f4 [8, 5]
00000000: 564e 993e a8fe 483f 4338 1d3f a3ef 65bf
00000010: e975 4e3f 5632 c13e b773 39be 4eb3 1e3f
00000020: e4b0 8dbd b255 893f 5639 f73e b9b2 2f3f
00000030: de8f 3a3f 1e9d 143f 511d 4c3f de97 d9bd
00000040: 4cf1 c7be 93b1 1f3f 72dd 043d c8a4 99bf
00000050: 48d4 7ebf b65a 51bd 48a8 af3d d382 9bbf
00000060: 0df1 423f db66 02bf a166 673f 04f5 4ebf
00000070: 263e f6bd 00a9 a8be 8a78 2fbf f46b 0e3f
00000080: 9e71 87bd 7b22 bfbe aa54 313d 47e0 1f3d
00000090: 3282 2abf 940a b4be df12 a63e 056d 7a3d
0.29942578 0.78513575 0.61413974 -0.8981878 0.80648667 0.37733716 -0.18110548 0.6199235
-0.06918505 1.0729277 0.4828593 0.68632084 0.72875774 0.5805224 0.79732233 -0.106246695
-0.39051282 0.6238033 0.03243775 -1.2003412 -0.99542665 -0.0511119 0.08577019 -1.2149299
0.76149064 -0.50938195 0.90390974 -0.80842614 -0.120235726 -0.32941437 -0.68543303 0.55633473
-0.06613468 -0.37330994 0.043293633 0.039032247 -0.6660491 -0.3516432 0.32436273 0.061139125

linear_relu_num_prop.0.bias f4 [8]
00000000: 70fb 113c 019c b03c 6329 d73d ae47 99be
00000010: 3a0b db3e 4ebe 3bbd 1867 193e 8d5d a8be
0.008910045 0.021558763 0.10505941 -0.299375 0.42782003 -0.045835786 0.14980733 -0.32883874

linear_relu_cat_prop.0.weight f4 [8, 1]
00000000: 3647 733f 33eb 01c0 03e1 04c0 a8e5 da3e
00000010: e2f1 c53f 1f3d ef3f edbb f6be 1cb9 223f
0.95030534 -2.0299804 -2.0762336 0.4275334 1.5464442 1.8690528 -0.4819025 0.63563704

linear_relu_cat_prop.0.bias f4 [8]
00000000: 0cfe 05bf 72ac 09bf 8d03 1cbf 3b28 323f
00000010: 7d19 25bf 9df0 b73e 8c58 4ebe 9662 2b3e
-0.5234077 -0.53778756 -0.6094292 0.69592637 -0.6449202 0.3592576 -0.20150965 0.16736826

linear_relu_input.0.weight f4 [32, 32]
00000000: e678 a73e 0caa c13d 0957 4a3e c7d0 27be
00000010: 0439 00bf a5ca f4be acd3 8ebc de2f 813e
00000020: 3416 8dbe 039b bfbe 3ca7 413e b888 693e
00000030: a21d eabd fec8 1a3e 3a00 27be 55d2 253d
00000040: c8be d73e dd4f 9abc 187e 9d3d ea10 2a3e
00000050: 8484 173d fd09 cdbd 3b0f 763e 81e9 61be
00000060: 1d22 603e 346d df39 6946 2bbe 1bb6 13be
00000070: 45a7 febd 60f1 d2be ffba c83d c276 a33e
00000080: 048d b63e e892 18be b008 cfbe 71fd 703e
00000090: 5b05 77be 0b0c e33e a44b 4dbe 8e83 1f3e
000000a0: 69fc c6be 47f6 7a3e 8f49 fc3e 379a 0a3d
000000b0: 51d7 043d f78b 32be 26e3 8d3e 2e1f 05bf
000000c0: 7f62 6fbe c84d 5abd 15e6 f93c 9490 c63d
000000d0: 4935 b93e 541a 83bd 603c 873e 86de 913e
000000e0: 543e 8d3c 3a90 6e3e c359 5d3e 55e5 c23d
000000f0: 3a2f 88be 5dcf 873e 033b 99be 0f5e 8e3e
00000100: 2f64 a73d d46e 0ebe f4d4 5bbe eda0 873e
00000110: b30d afbd 9bf2 b8be f600 783e 6ce0 97be
00000120: 4307 003d 40d1 ddbd 67a1 ef3e e372 b3be
00000130: fe96 a33d 1f3f ac3e 11c8 4d3e 1608 82be
00000140: c6ea 3cbe 6709 443e 4462 8bbe fc16 113e
00000150: f0c0 ed3d 1c32 f6be 52a0 93be 0276 14be
00000160: 0ecb 92be cf97 edbe 1a83 e4be 0bb5 643d
00000170: dc8f 673e 0384 2c3e 3ad0 81be 6292 85bd
00000180: 1096 91be 0044 cb3e 0c95 9a3e a72e f23e
00000190: c3d6 1c3d a2f9 40be 87b5 70be c12e 1ebe
000001a0: e890 a1be b8f6 b4bd a917 cf3e 5f36 a73e
000001b0: c214 153e e3b8 9ebe 0dad a83e 650d f2be
000001c0: a243 43be 4318 433e 88b1 7a3c 8b3b d13e
000001d0: 4519 71be ffe3 493b d41b 13bd 1a92 a8be
000001e0: 44a1 433e 8634 863e 06bf 613e 3d2b 74be
000001f0: 0584 bdbe d916 923b b648 96bd a794 333e
00000200: cfb0 813e aed3 f03e 1220 a63d 7c38 90be
00000210: cc37 8a3e 461c 253e ce93 77bd e6a3 843e
00000220: fce5 76be 6a1d b93e 5e1f 03bd 04eb 1a3c
00000230: 9398 f53e b202 d63d aa7a 7b3e 038b ec3d
00000240: 71df bfbe 6415 933e 78ce ebbe 4721 2fbe
00000250: 8ff3 cdbe ae2b 57be c927 b33e 4116 25bd
00000260: a5e7 cc3d 090e 05be 95cb f53e e089 adbe
00000270: 0a74 b13e e3fa e2be 0306 643d d83c b9be
00000280: 1d88 efbd da7c 263d 6798 01bf 93bc 813e
00000290: d66e 71bd f575 86be 262a d93e c731 923e
000002a0: 998a 623e 9d4a 42be 9658 5dbe 2303 88be
000002b0: 8aed 5b3e 6d70 9c3d 77bf 9f3d 09cf ddbe
000002c0: 0d25 17bc f7b9 df3e 9cdb efbc a9fd 043c
000002d0: 06c7 39be 7bea 8abe fd73 8e3e 5f58 b23e
000002e0: 3781 5f3e d85d 623d 874c 08be cfec 9e3e
000002f0: 9127 96ba 8f03 233e 591e 2cbd 623d 9ebe
00000300: 96fb d6bc dcc7 a03d 4d9d 31be 4b95 cbbe
00000310: 31fd 863d 8232 a73e 5902 9f3e 2db0 cebe
00000320: e120 cf3d eb19 52bd 9f60 abbe 6135 5bbe
00000330: 3154 02bd 0ecb 4fbd 4a78 3d3e 096d 7dbe
00000340: fbaa f43d dd58 5ebd c241 543e 6d8a 1d3e
00000350: eca1 8d3d c033 9dbe 422c b23e b118 bb3e
00000360: 8682 4abe b9ab d23e b43c dc3e 7e32 0db9
00000370: 4d89 ff3e 51fd 1bbe afff a5be bc61 3a3d
00000380: ff11 8f3e 17f3 de3d 2942 50bd eb2a 093e
00000390: 2e90 043e 3535 c43e 2576 2d3e f7df e3bd
000003a0: 3ed8 bcbe 1df9 d3bd 1164 093d a857 e9bd
000003b0: 04b5 25be 799e 6f3e 7f34 073f 043d 8e3e
000003c0: ac34 d2be a0a0 593d db04 4b3e 0ede ba3e
000003d0: 70a4 0ebf 6b09 2b3e 3d4d ad3e 1de5 833e
000003e0: 4b18 973e 2528 fa3d 2dcb af3e 12a5 01be
000003f0: de92 1ebe eece e83d 1cca 073c 3216 7dbe
0.32709426 0.09456262 0.19759764 -0.16388236 -0.50087 -0.47810856 -0.017434917 0.25231832
-0.27556002 -0.37422952 0.18911451 0.2280606 -0.11431433 0.15115735 -0.1630868 0.04048379
0.42137742 -0.01883691 0.07690066 0.16608015 0.03699161 -0.10011671 0.24029247 -0.22061731
0.21888013 0.00042615237 -0.16726078 -0.14424936 -0.12434248 -0.4119978 0.09801292 0.31926543
0.3565446 -0.1489979 -0.40436316 0.2353418 -0.24123137 0.44345126 -0.20048386 0.15577528
-0.3886445 0.2450801 0.4927487 0.033838477 0.032431904 -0.17436205 0.27712363 -0.520007
-0.23377417 -0.053296834 0.03050522 0.09695545 0.36173466 -0.06401506 0.2641325 0.28490084
0.017241634 0.23297206 0.21616273 0.09516398 -0.2659853 0.26525393 -0.29927835 0.27806136
0.081734054 -0.13909465 -0.21467954 0.26489964 -0.08547535 -0.36122593 0.24219117 -0.29663408
0.031256925 -0.10830927 0.46802828 -0.3504859 0.07987784 0.33641908 0.2009585 -0.25396794
-0.18448934 0.19144212 -0.27223408 0.14168924 0.116090655 -0.48085105 -0.28833252 -0.14498141
-0.28670543 -0.46404883 -0.44631273 0.05583672 0.22613472 0.16847233 -0.25354177 -0.06522061
-0.284348 0.39700317 0.3019184 0.47301218 0.03829075 -0.18845227 -0.23506747 -0.15447523
-0.31555867 -0.0883612 0.4044774 0.3265867 0.145587 -0.31000432 0.32944527 -0.47275844
-0.19068769 0.19052224 0.015301116 0.4086574 -0.23544796 0.0030806062 -0.03591521 -0.32923967
0.19104487 0.26211947 0.22045526 -0.23844619 -0.37014785 0.00445829 -0.07338087 0.17537175
0.25330207 0.470365 0.08111586 -0.28168094 0.26995695 0.16124067 -0.060443692 0.25906295
-0.2411117 0.36155254 -0.032012336 0.009455446 0.47967967 0.10449733 0.24558511 0.11549952
-0.3747516 0.28727257 -0.4605596 -0.17102538 -0.40224883 -0.21012756 0.3499129 -0.040304426
0.1000512 -0.12993635 0.48006883 -0.33894253 0.34658843 -0.44332036 0.055669796 -0.36179233
-0.116958834 0.04064641 -0.5062317 0.25339183 -0.058943592 -0.2626187 0.4241497 0.28553602
0.22123183 -0.18973775 -0.21615824 -0.26564893 0.21477333 0.07638631 0.07800191 -0.43322018
-0.009225142 0.43696567 -0.029279523 0.008117118 -0.18142328 -0.2713202 0.27822867 0.34833047
0.21826635 0.055265278 -0.13310443 0.31040046 -0.0011455884 0.15919326 -0.04202113 -0.30906206
-0.026243012 0.0785062 -0.17345162 -0.3976234 0.06591261 0.32655722 0.3105648 -0.40368786
0.10113693 -0.05129425 -0.33472154 -0.21407081 -0.031818572 -0.050730757 0.18502918 -0.24748625
0.119466744 -0.054283965 0.2072821 0.15384836 0.0691565 -0.30703545 0.3479939 0.36542276
-0.19776353 0.4114664 0.43015063 -0.00013465618 0.4990944 -0.15233351 -0.32421634 0.045503363
0.27943417 0.108862095 -0.050844345 0.13395278 0.12945625 0.38321844 0.169396 -0.11126702
-0.3688373 -0.10350249 0.033542696 -0.11393672 -0.16182333 0.23400296 0.5281448 0.27780926
-0.4105581 0.0531317 0.19826071 0.3649754 -0.5571966 0.16702811 0.3384799 0.25760737
0.29510722 0.12214688 0.34334698 -0.12660626 -0.15485713 0.11367594 0.008287933 -0.24715498

linear_relu_input.0.bias f4 [32]
00000000: fd17 01be 7613 29bd bb66 62bd c697 a03e
00000010: 697c c2bd fda6 5fbe 6b45 55bd 8149 cdbd
00000020: e2b4 2bbc cfda 2f3d ce4c e9bd 8dce b6bc
00000030: ec42 72be ddda 643d 5bf7 11be 55ed 27be
00000040: b204 65be 452e 70bd 8182 2f3d 50ed 883c
00000050: a403 4cbe ea04 493d 4b16 febd 8119 84bc
00000060: 4ee7 8a3b b062 7fbe fa00 58bc 6ac6 debd
00000070: f543 a73c ae26 af3d cc23 babd 1b69 d0bc
-0.12606807 -0.041278325 -0.055273753 0.31365794 -0.094963856 -0.21841045 -0.052068155 -0.100237854
-0.010480138 0.04293328 -0.113916025 -0.022315288 -0.23658341 0.055872787 -0.14254515 -0.16399129
-0.22365072 -0.058637876 0.042849068 0.016714722 -0.19923264 0.049076952 -0.12406596 -0.016125442
0.0042389994 -0.2493999 -0.013183827 -0.10877688 0.020418147 0.085522994 -0.09088859 -0.025440743

rgcn.weight f4 [2, 32, 32]
00000000: f9ad 2bbe 6f08 00be 113e f4bd 1371 a0be
00000010: 1e92 1c3e 2ace 3abe 93c7 263e d970 80bd
00000020: 1876 883e 8203 48bc 2e86 b93b f760 943e
00000030: a013 813d 0a90 70be 3f5c 8c3e ccae 71be
00000040: 936e 0dbd f54c 81be 992c 45bd 7456 9ebe
00000050: 7910 843e 0739 3b3c fb9c 423d f33e 483e
00000060: 7f34 c5bc 73b7 a73e 2b6b 0e3e c4fa 6f3e
00000070: 4767 cebd 84e8 81be 215a dcbc 9b2d b63d
00000080: 45dd 3bbe 1f46 043e 65f8 4e3e f6fd 483e
00000090: 52bf 5eba c4f1 843e 6073 62be 5e6d 1bbe
000000a0: 1ecd 3a3e 7da5 8bbd 022d a63e 7669 f4bd
000000b0: dd33 98be 8b77 883e 5fd6 0e3e 5a94 823e
000000c0: 6ad7 94bd e0c4 073e d604 873c 051b 0c3e
000000d0: 9a8c 25be ddac 363e f00b dfbd 9ee9 adbe
000000e0: b76f 5b3d dcea 803e de39 aabe a709 463e
000000f0: a1b4 f4ba c149 4abe 8110 4bbd ae94 933d
00000100: a071 a1be 201e 223d dddc 1e3e 845d 143e
00000110: 704a 11be 00a7 893d 5c7e 1ebe e856 473e
00000120: 7751 b6be f641 a93e 475b 723e e951 403e
00000130: 41d3 7b3d 8a79 cd3c 9b36 97bd e6b3 af3d
00000140: 030d 133d 72ca 3a3e eef0 5a3c facf eeba
00000150: d4c4 183c 477a 2f3e aaa1 fdbd 397d 693e
00000160: aeb6 bbbe 11d2 313e 164e aabe c1b9 79be
00000170: 91bd 56be 61d6 2cbb 6d80 573e 88a5 d33d
00000180: a4fb e5bd a3a0 7bbe 740c 06be bb43 1abe
00000190: 8e9b 723e 10f8 43be 949c 4a3e 9ee8 4ebc
000001a0: 11a2 2c3e fc2c 453e 67a6 d6bd e061 7abe
000001b0: 3ca0 b13d 3d56 5bbe 2626 013e 8778 b73b
000001c0: 1356 00bd 9dd8 79be 5918 96be a866 503e
000001d0: 84b5 f73b 784f 1f3d 994e 99bd c651 3d3e
000001e0: c827 3bbe ac17 ec3d 8c44 8b3c 8a7a 5dbe
000001f0: ca5f 41be 0fb1 2bbe a756 2cbe 1aed ffbd
00000200: 1222 553d 76ac 98bd a27a 7f3e d7be 3ebb
00000210: 6431 dbbd 3cd2 703d 1cf8 2f3e 94a2 1c3e
00000220: 83b7 2f3e 7b11 15be cd80 eb3d 248a 81be
00000230: 920c 8a3e 1598 34be 4028 1e3e 3106 90bd
00000240: e9b8 653e 00e5 b53e 8798 1fbe d889 6f3e
00000250: 07c4 04bd 75eb b43d ef0d 4c3e c82b 7cbc
00000260: 6450 71be f322 5a3e eb20 633d 1d41 2abe
00000270: 8b36 ffbc a75a 16be a95a 9fbe 455c 3f3e
00000280: 7a80 933e 90b3 41bc 2739 433e 2c4d 1cbe
00000290: d255 943e 1bcb a63e 988a 88bd 52d0 183e
000002a0: afa2 023d 2b94 6cbe f3c6 573e 1680 89be
000002b0: bbb4 b53e 8333 2bbe ccdc f7bc e003 48b9
000002c0: 13a7 c93e aa6d 03bd 6783 103e caf0 75be
000002d0: 6341 03be 5927 0a3e 3649 14be 2f7c 833e
000002e0: aaf1 3abe 5eb5 17be e643 06bd c0f3 15bd
000002f0: d80d 7f3e 2112 bc3e c794 edbd 5485 d9bd
00000300: e59c a2bd 7c4f 5bbe 9fdf 2f3d d3c2 703d
00000310: 350a aa3e 66ad 01be 04a4 6dbe 12e0 9abe
00000320: 4c81 913e e63c 4b3c 217e 1cbe 9979 873d
00000330: 4381 173d 503b a4be 8bfb e43d 5f6f 71be
00000340: 8b75 81be 00a6 b23d d228 97be f0f9 523d
00000350: e3fd 9a3d 273e 29be 6651 57be e87c 803d
00000360: caa4 b3be 9d86 85bd 5f55 d0bc f7cf 543e
00000370: 5312 7fbb 3c52 4bbd 5e77 4bbe 8f52 eebd
00000380: 6f9d 64be 6691 523e 072f 9e3c 32db 71be
00000390: 8c72 b63e 4225 84bc c749 a4be 5375 c33d
000003a0: 07be bb3d 0416 26be 90a2 3d3d 5338 4e3e
000003b0: 9bda 203e 525f 693e 6f78 4bbe e74e 46be
000003c0: d091 9dbe 8041 4cbd 09e1 193e ef62 b5bc
000003d0: e4ce 563e e66c 48be 1604 8cbd f3bd ac3e
000003e0: c70a 803d 9647 463e 7c05 2bbe 6100 8abe
000003f0: ba6f 543e ddaf 6ebd 05d5 8e3d 7860 6bbd
-0.16765584 -0.12503217 -0.11925901 -0.3133627 0.15290114 -0.18242708 0.16287069 -0.06271524
0.26652598 -0.012207868 0.0056617474 0.28980228 0.06302571 -0.23492447 0.27414128 -0.23601836
-0.03452928 -0.25254026 -0.048138235 -0.30925333 0.25793818 0.011427171 0.04751299 0.19555263
-0.024072884 0.32757148 0.13908069 0.23435503 -0.10078292 -0.25372708 -0.026898446 0.08895417
-0.18346126 0.12917374 0.20211942 0.19628128 -0.0008497137 0.25965703 -0.22114325 -0.15178439
0.18242308 -0.06818674 0.32456213 -0.119341776 -0.2972707 0.26653704 0.13948964 0.25503808
-0.072676495 0.13258696 0.016481798 0.13682182 -0.16166916 0.1783938 -0.10890949 -0.33967298
0.053573336 0.25179183 -0.33247274 0.1933962 -0.0018669554 -0.19754697 -0.049576286 0.07206093
-0.31532001 0.03957951 0.1551394 0.14488798 -0.14188552 0.06721306 -0.1547789 0.19466746
-0.35609028 0.33058137 0.23667632 0.18781246 0.061480764 0.025082368 -0.07383462 0.08579235
0.03590108 0.1824129 0.013363106 -0.0018219941 0.009324271 0.17136489 -0.123843506 0.22801675
-0.3666281 0.1736529 -0.332627 -0.24387266 -0.20970751 -0.0026372897 0.21045084 0.10334307
-0.11229637 -0.24572997 -0.13090688 -0.150649 0.23692152 -0.19137597 0.19786292 -0.012628702
0.16858698 0.19255441 -0.104809575 -0.24451399 0.086731404 -0.21419616 0.12612209 0.005599085
-0.031332087 -0.24399038 -0.2931545 0.2035166 0.00755948 0.038894147 -0.074856944 0.18488225
-0.18276894 0.115279526 0.01700046 -0.21628776 -0.18884197 -0.16766761 -0.1682993 -0.124963954
0.052034445 -0.07454769 0.24949124 -0.0029105449 -0.1070278 0.058794245 0.1718449 0.15296394
0.17159848 -0.1455745 0.11499176 -0.25300705 0.26962715 -0.1763614 0.15445042 -0.07032431
0.22433819 0.35526276 -0.15585528 0.23392427 -0.03241351 0.08833972 0.1992719 -0.015391298
-0.23565823 0.21302395 0.055451315 -0.16626401 -0.031153938 -0.14683019 -0.31123856 0.18687542
0.28808957 -0.011822596 0.1906477 -0.15263814 0.28971726 0.32576832 -0.0666706 0.14923218
0.03189343 -0.23103397 0.21071987 -0.26855534 0.3548945 -0.16718869 -0.030256651 -0.0001907493
0.3938528 -0.032087006 0.14112626 -0.24017635 -0.12817912 0.13491572 -0.14481053 0.25680682
-0.1825625 -0.1481528 -0.032779597 -0.03660941 0.24907625 0.3673258 -0.11600643 -0.106211334
-0.079400815 -0.2141704 0.04293787 0.05877955 0.33210912 -0.12663803 -0.23207098 -0.30249077
0.28418958 0.012404656 -0.1528249 0.0661499 0.036988508 -0.32076502 0.111807905 -0.23577641
-0.2528499 0.08723068 -0.2952333 0.05150789 0.07567956 -0.16527615 -0.21027145 0.06273824
-0.35086662 -0.06519816 -0.025431333 0.20782457 -0.0038920834 -0.04963897 -0.19869754 -0.116368406
-0.22325681 0.20563278 0.019309534 -0.23618773 0.35634267 -0.016131047 -0.32087538 0.09543862
0.09167104 -0.16219336 0.04629761 0.20138673 0.15708391 0.22790268 -0.1987016 -0.19366036
-0.3077531 -0.049867153 0.1502725 -0.022141902 0.2097736 -0.19572791 -0.06836717 0.3373867
0.062520556 0.19363245 -0.16701311 -0.26953414 0.20745745 -0.058273185 0.06974224 -0.057465047

rgcn.root f4 [32, 32]
00000000: 97e9 9c3e 2da6 803e 045d 363d 8c9a 31bd
00000010: f6da 893e 7fcd d33d 1d23 8e3e 99e8 70be
00000020: c511 9bbe 159e bdbd edc9 513e 2248 303e
00000030: 92ec 453e 0dc3 6bbe f405 c1be f375 973e
00000040: 06c7 7cbe 0428 24bd 8759 4e3e b250 3bbe
00000050: b12b 8cba 6236 a6bd f8bf 573d d59d dabd
00000060: be83 e93c c81e 363d df57 66be 553f d33d
00000070: 8ee9 1e3c a46d a23e 0bfa 5fbe 7115 2c3d
00000080: cf62 5a3d 5d7e 72be da58 14be fc83 3d3d
00000090: aedb 373e baec 28be 0370 67be 61f9 4dbc
000000a0: 8c1a 8fbe 2ecc 573e 0d1c 8ebe 0d40 153e
000000b0: 08bb 11be 9074 14be 7f44 2e3e 2ad9 9f3e
000000c0: 03a9 943e 2d79 94be 5cbe 563e 52b4 5b3e
000000d0: f726 8cbd d160 5f3e e9b2 453e 4898 98bc
000000e0: feb9 57be d575 93be d38b b1bd 31ff 473c
000000f0: a038 1fbe 401e 15be 7747 f93c f3cf 62be
00000100: d8ac 41be 1cd5 683e d704 6a3e 1aef 923e
00000110: 1043 5dbd 6378 1cbe aa7e 93be 88e0 7cbe
00000120: 635b bb3b f06b 11be 4885 73be f74e 3b3e
00000130: 73bc 56bc b240 e33d 770b c63d 9a64 c53e
00000140: 669b 2f3e db4e 4a3e 9c56 2fbe ddb0 1fbe
00000150: 3a1a 953c 3b1b 9fbe 81b5 eb3d 2fc0 0b3e
00000160: 82ff 243d 12e4 79be 44ba 4dbe 0c75 72be
00000170: 0857 f83c 2502 733d 86e7 473e 6490 3d3d
00000180: d137 7d3d 7360 11be 9e24 5cbe 704b bd3d
00000190: 779c a2bc 72b1 f4bd 450a d1bd 5061 083e
000001a0: 4a1e 84be 08f4 85bd 9755 883e 7d58 7a3e
000001b0: 8ade 1dbd 507f 11bc 4846 cabc 10cc 983e
000001c0: ff87 453e 624a 003e d498 433c 3913 253e
000001d0: 314b f13d 3305 f83d 1a5f 7fbe 0b9d 0ebe
000001e0: 8d69 83be 5a82 74be e38b 73be fdf1 acbe
000001f0: 54cb 283e 899e 78bd 5a73 0f3e 7b69 1fbd
00000200: ad8e 98bd 993f 74bd bb14 87be ea9b 7dbe
00000210: 9888 e0bc 14b4 5e3e 6ce6 ef3d 6da0 44be
00000220: 86f7 58be ad62 adbc dc5a 89be 418d 97bd
00000230: 698f 743e 0f0a 81be feb3 51be 4e4b 8fbd
00000240: 7391 66bc 17a8 b03e d162 003d 0b91 893d
00000250: 5ef6 533e ee72 253e 6857 d83d 7bf3 033e
00000260: 0b5a 76bd 92da 063b 5a4e ed3d f174 e73c
00000270: 03b2 59be 2055 1e3d 4209 65be 1012 c83d
00000280: 24e9 a63e 67c2 31be aba5 323e b2c5 9b3e
00000290: 8e81 ccbd d641 3bbe a349 14be 8ade 83be
000002a0: 3b89 06be c10a 573e e528 b0be 1894 1a3e
000002b0: 0da7 1cbe 6e93 123d 7da1 cfbd b53d 8b3e
000002c0: 8874 a5bd 1811 d03b 33a4 763e cee2 31bd
000002d0: 3895 873e 0066 8cbe 945a b23d fb08 45be
000002e0: 8b56 a2be f26c bf3d 8b1f 843e b893 9bbd
000002f0: 2d6b 403d 8e08 5a3e f660 2abe 6d82 db3d
00000300: f63c 4e3e d761 50be a673 ee3d c9f5 93be
00000310: 5e8a cc3d 543d 183e 9c23 ad3d 2f4b 5cbe
00000320: dbf3 423e 4bd0 593e 4293 2d3e a2ca babb
00000330: 58a3 28bd 525b 57be c47b 14be ed55 33bd
00000340: dadd 693e d3ff 0dbe 2883 793d 0eb3 fa3d
00000350: 7257 44be 572c abbe 4734 9cbe b957 053e
00000360: 127d fabb 0b69 583e 1221 bb3c 13af 6e3d
00000370: 9f5e 083d 3560 933d 5d5a a63e fd80 aa3e
00000380: 2de4 7c3a 6bee 3bbe 688f 68bd 0e8c 69be
00000390: 4faf 20be 79dc 78bd c337 74bd 8454 80be
000003a0: c327 41be 65e8 2b3e f0bf 95bd e3d2 25be
000003b0: d5c1 7cbd 4c63 2b3e c681 33bd 6ae6 cf3e
000003c0: 71e3 a1be 9905 0fbe 020f ab3d 7a8b 933d
000003d0: 2fea f9bc 2284 8ebe cafc 7c3e 0158 543e
000003e0: b555 263e cbcd 073e c01c 15bc 017f 3ebe
000003f0: 4248 0b3e f276 213e 6c5d dfbc 7cf1 8c3d
0.30646965 0.25126782 0.0445223 -0.043360278 0.26924866 0.1034193 0.27761164 -0.23526229
-0.30286995 -0.092586674 0.20487185 0.17215016 0.19328526 -0.23023625 -0.37699854 0.29582176
-0.24685296 -0.040077224 0.2015134 -0.18292502 -0.0010694173 -0.081158414 0.05267331 -0.10674635
0.028505202 0.04446295 -0.22494458 0.10314814 0.009699238 0.31724274 -0.21872728 0.042012636
0.053316887 -0.23681016 -0.14487019 0.04626845 0.17954895 -0.16496554 -0.22601323 -0.012571664
-0.2794994 0.21073982 -0.27755776 0.14575215 -0.14231503 -0.1449759 0.17018317 0.3122037
0.29035196 -0.289987 0.20971054 0.21455505 -0.068433695 0.21814276 0.1930653 -0.0186273
-0.21067044 -0.28800836 -0.086692475 0.0122068385 -0.15548944 -0.1456232 0.030429585 -0.22149639
-0.18913591 0.22737545 0.22853409 0.28698045 -0.054019034 -0.15280299 -0.28807575 -0.24695027
0.0057176813 -0.14201331 -0.23781312 0.18291841 -0.013106453 0.11096324 0.096701555 0.38553315
0.17149124 0.19756643 -0.17122883 -0.15594812 0.018200982 -0.31075463 0.115092285 0.13647531
0.040282734 -0.24403408 -0.20090586 -0.23677462 0.030314937 0.059328217 0.19521913 0.04628028
0.06182081 -0.14196949 -0.21498343 0.09242904 -0.019849999 -0.119479075 -0.10207037 0.13318372
-0.2580436 -0.06540686 0.266278 0.24447818 -0.038542308 -0.008880451 -0.024691716 0.29843187
0.1929016 0.12528375 0.0119382925 0.16120614 0.1178192 0.12110367 -0.24938622 -0.13927095
-0.25666466 -0.2387785 -0.23783831 -0.33778372 0.16483814 -0.060698066 0.14008847 -0.038918953
-0.07449088 -0.059630964 -0.26383004 -0.24766508 -0.027408883 0.21748382 0.11713871 -0.19201823
-0.21188173 -0.021165216 -0.26827133 -0.07399989 0.23882832 -0.25202987 -0.20478818 -0.06996785
-0.014072764 0.34503242 0.03134424 0.06717118 0.2069945 0.16157123 0.105635464 0.12885849
-0.060144465 0.0020577055 0.1158721 0.028254004 -0.21259312 0.0386554 -0.22366813 0.0976907
0.32599747 -0.17359315 0.1744601 0.30424267 -0.09985648 -0.18286833 -0.14481215 -0.2575572
-0.13138287 0.21000196 -0.344062 0.15095556 -0.152981 0.03578513 -0.10138223 0.27195516
-0.08078867 0.006349694 0.24086075 -0.04342919 0.26481032 -0.2742157 0.08708683 -0.19241707
-0.31706652 0.093469515 0.25805315 -0.075965345 0.04697721 0.21292326 -0.1663855 0.10718236
0.20140442 -0.20349823 0.11643152 -0.28898457 0.09987329 0.14867145 0.084540576 -0.21513055
0.19038336 0.21270864 0.16950706 -0.0057004252 -0.0411714 -0.2103093 -0.14500338 -0.043783117
0.22838536 -0.1386712 0.060916096 0.12241183 -0.19173983 -0.33432266 -0.30508634 0.13021745
-0.007644304 0.2113382 0.022842918 0.058272433 0.033293363 0.071960844 0.32490817 0.33301535
0.0009647038 -0.18352668 -0.056777388 -0.22807333 -0.15691875 -0.060757134 -0.05962349 -0.2506448
-0.18862824 0.1678787 -0.07312 -0.16193728 -0.06170829 0.16737098 -0.043824933 0.4060548
-0.31618837 -0.13966979 0.08352472 0.072043374 -0.030507175 -0.27835184 0.24705806 0.20736696
0.16243632 0.13262098 -0.009101093 -0.18603136 0.13601783 0.1576803 -0.027266227 0.06881997

rgcn.bias f4 [32]
00000000: af57 d3bd b383 7dbc 9a57 bbbd af57 d03d
00000010: eba5 aabd 218a e8bd 73c5 5ebc bc46 123d
00000020: 9563 303d 92bf 123d 3819 68bd 8448 99bd
00000030: d370 cbbd e7e0 9f3d 3796 c63d 9e88 abbc
00000040: ec1d 69bc a723 3abd 7f1d 7f3d 079a af3c
00000050: f0c8 a1bd 50c7 e13d 3093 063c 6ed4 b8bc
00000060: 4db0 c5bd bc5a 09be 0120 8cbd 81b3 92bd
00000070: 41fc 4e3d ed6e d9bd 8ca9 c33d 6ff9 06bd
-0.10319459 -0.015473294 -0.09147568 0.10172974 -0.083324276 -0.11354471 -0.01359688 0.03571199
0.04306372 0.035827227 -0.056664675 -0.074845344 -0.09933629 0.078065686 0.0969662 -0.020939168
-0.014228325 -0.045444157 0.06228399 0.02143575 -0.07899654 0.11024344 0.008213803 -0.022562232
-0.09652767 -0.13413519 -0.06842042 -0.07163144 0.050533537 -0.106168605 0.09553823 -0.032952722

linear_relu_output1.0.weight f4 [32, 32]
00000000: 26b3 bd3d 6ade 2c3c 9a9d 993e 37be ad3e
00000010: 3dfa 383e 5e98 0ebd aa10 4ebe b525 91be
00000020: 66aa e43d 8a1d d03e daed 64be ae2c 843e
00000030: 246c 993a ef73 a03e 517a 9e3b ba52 993e
00000040: 5bfd cfbe 9f9d 99be 595a 39bd 1853 293e
00000050: 5620 a93e b001 6b3d 3711 efbe f366 b0be
00000060: 3fb3 aabc 5e46 3bbe 35cf e7bd 6a8c 82bc
00000070: 1c32 163d 090f 473e a54f bbbe 69d8 65be
00000080: b344 ef3d b1e2 dd3c 48db bc3e a2a6 b53e
00000090: 2017 623e e42a 49be b9a7 cabd a59b 483e
000000a0: 70e7 fcbc a7ee 10bd b02f bcbe 757c 563e
000000b0: 6fca a23e 8bd3 603e fd67 77be 4a48 19bd
000000c0: 4efe 0cbc 3a9a e9be 05e2 a73e 9f08 883d
000000d0: b28e 75bd f63d 8d3e 04c8 69be ec15 1bbe
000000e0: beb6 8a3e cfee c33d 36aa 8cbe a15d 9bbe
000000f0: e265 edbd 7d72 62be 77ae 603e 1d4a 4e3e
00000100: 0ad1 a73e 7c3a 55bd 6338 da3e 7634 95be
00000110: eaaf 373e 0304 2e3e 5810 3fbe ed7f 02bd
00000120: 5874 f1be 0786 64be b0ce 4c3d fa39 783e
00000130: 4cc0 06bd 1815 81be ad21 27be e577 b3be
00000140: cc8a c23e 321d db3d 1072 c7be 88db d53c
00000150: 1982 acbe 18cb 1a3e 6000 50be 9ae3 3bbd
00000160: 6c25 7ebd cd33 0abe fad5 52be cf83 f63d
00000170: edd0 a43d 5b4f f0bd a65f 94bd 3049 383e
00000180: 9b5c d83e d349 403e 4817 99bc 38e9 873d
00000190: 96a0 553e c16e c8be c9f2 283e f82a b7bd
000001a0: bc2c 8cbe bb78 693e 4659 2c3e 0f8f 8fbe
000001b0: 6ddf 853e a27c 5c3e 3baa 65be dd32 9a3d
000001c0: d585 063e 6554 173e 5ee8 b4be 6a06 713e
000001d0: 7eab b8be 1e41 c0bd 5a26 193e 0a8e df3c
000001e0: bd0e 25be d4b0 a9bb 17c7 8e3d d9ba b03e
000001f0: 5234 e83e 6c18 a63d 8af8 933e 4701 c53e
00000200: bfc1 9cbe e3b9 b43e a091 7fbe dcfb d8bd
00000210: 5961 a23e a6f4 acbe ae9a 8b3e e392 e33e
00000220: e076 403d 77be 9f3d f69a b03d 9f60 993e
00000230: 954a 9b3e e255 9d3e 234c 66be dc3f 0bbf
00000240: 17ed b9be 5b8a febd b964 b13e 0ca7 c8bc
00000250: 1e80 7cbd 2406 a13e 2aec 38be 75bf ba3e
00000260: e849 88be 364a a13e 98c9 0abd a488 823e
00000270: 8998 a13e a59e 42bd b8d8 bcbe d7ba f8bd
00000280: 2a40 a93e d62d efbd f803 92be 48c0 1bbe
00000290: 5b59 c03e 1828 aebe 8fd3 673e a85c 803c
000002a0: 3b05 05be dc62 d43e 60d1 8ebd 39b9 78be
000002b0: db6d f03d 7325 d5be ae65 b93e 53c0 7f3e
000002c0: 1d46 a7be eef9 763d bac9 80bd 1544 023e
000002d0: 5402 c73d d196 afbe 1161 97be 296b 863e
000002e0: 3111 723a a978 65be 66ab 00be 9be0 a5be
000002f0: 50c4 83be dbdf e3bd a129 d2be 58f4 acbd
00000300: f69c f2be 332b b33d 7aa9 aabe 563d 923e
00000310: 6941 02bd bdb0 c73c 4826 443e 1f2a a2be
00000320: fd36 9dbe 839b dcbe a1a5 c13e 4604 053e
00000330: 9987 803e f7a7 80be e142 fc3d 475b 813e
00000340: 97e6 a0be c53c 763d d180 013d 6211 aebe
00000350: 7cdb 3f3e f046 40bc ea6d 713d 0ba1 c83e
00000360: e28c 043e 18d7 c63d 5a19 d13e 8283 583d
00000370: 89fd 863e ea1b 3ebe 61f7 ce3e 0a09 173d
00000380: 7335 df3e 84d5 c1bc 1ba3 433e f43b 9a3e
00000390: c47c 193e f970 c13d 8f93 2a3e 72fd 843e
000003a0: c4ac 20be f870 82be e853 033e 7385 eb3e
000003b0: 9524 edbc b02a e0bd 396a a5bd 5aa1 f23e
000003c0: c2c4 0b3d 3e7e b2bd 9c41 973d ea09 cdbe
000003d0: 794d b43e fd87 3f3e f4f2 e33d fcb8 f23c
000003e0: 1bae 563e 92d7 9fbe 0795 c3bd 3904 72bc
000003f0: 2d84 0a3e 469d db3e abaf 89be 2830 553e
0.092626855 0.0105510745 0.30003053 0.33934185 0.18064208 -0.034813277 -0.20123544 -0.2834908
0.111653134 0.40647537 -0.22356358 0.25815338 0.0011705202 0.3133845 0.0048363586 0.29945928
-0.40622982 -0.30003068 -0.045252178 0.16535604 0.33032483 0.057374656 -0.4669282 -0.34453544
-0.020837424 -0.18288562 -0.113188185 -0.015936095 0.03666888 0.19439329 -0.365842 -0.22445835
0.11683025 0.027085634 0.36886048 0.35478693 0.22079134 -0.19645268 -0.09895272 0.19590624
-0.030872077 -0.035383847 -0.36755133 0.20945914 0.3179507 0.21955697 -0.24160762 -0.037422456
-0.008605553 -0.45625478 0.32789627 0.06642269 -0.059950538 0.27586335 -0.22830206 -0.15145081
0.27092546 0.095670335 -0.2747361 -0.3034487 -0.11591698 -0.22113986 0.21941553 0.2014546
0.32776672 -0.05205773 0.42621145 -0.29141587 0.179382 0.16993718 -0.18658578 -0.03186028
-0.47159076 -0.22316752 0.0500018 0.24240866 -0.032898232 -0.25211406 -0.1632144 -0.3505241
0.3799652 0.10698928 -0.3895421 0.026105657 -0.33693007 0.15116537 -0.20312643 -0.045871355
-0.062047407 -0.13496323 -0.20589438 0.12036859 0.08047662 -0.11733886 -0.07244806 0.17996669
0.42258152 0.18778162 -0.01868786 0.0663628 0.2086204 -0.39147 0.16498865 -0.089437425
-0.2737788 0.22799961 0.1683093 -0.28038833 0.26147023 0.21531919 -0.22428219 0.07529233
0.1313699 0.14778288 -0.35333532 0.23537603 -0.36068338 -0.0938742 0.14956036 0.02728941
-0.16118903 -0.0051785503 0.06971567 0.34517553 0.45352417 0.08110127 0.28900558 0.38477537
-0.30616567 0.3529807 -0.24957895 -0.10594913 0.31714895 -0.33780402 0.2726645 0.44448003
0.046988368 0.078 0.086233065 0.2995653 0.3033034 0.30729586 -0.22489981 -0.54394317
-0.36313698 -0.12428733 0.34647158 -0.024493717 -0.06164562 0.31449997 -0.1805884 0.36474195
-0.26618886 0.3150193 -0.03388366 0.25494874 0.31561688 -0.047514576 -0.36884093 -0.12145012
0.33056766 -0.116786644 -0.28518653 -0.15210068 0.37568173 -0.34014964 0.22639297 0.015669182
-0.12990277 0.41481674 -0.06973529 -0.24289407 0.11739703 -0.41630134 0.36210388 0.2497571
-0.3267068 0.060296945 -0.06288476 0.12721284 0.09717241 -0.3429475 -0.29566243 0.26253632
0.0009234129 -0.2240931 -0.12565383 -0.32397923 -0.25735712 -0.111266814 -0.41047385 -0.08445042
-0.47385377 0.08748474 -0.33332425 0.2856242 -0.03180066 0.024376268 0.19155228 -0.3167276
-0.30706015 -0.43087396 0.37821677 0.12989911 0.25103453 -0.25128147 0.12317444 0.25264952
-0.31425926 0.060116548 0.03161699 -0.33997637 0.1873607 -0.011735663 0.058942713 0.39185366
0.12944368 0.097089946 0.40839654 0.05285979 0.26365307 -0.18565336 0.4042311 0.036873855
0.43595466 -0.023661382 0.19105189 0.30123866 0.14989 0.09445376 0.16657852 0.25974613
-0.15690905 -0.25476813 0.12824976 0.4600025 -0.028948108 -0.10945642 -0.08076901 0.47388726
0.03412319 -0.08715485 0.07385561 -0.40046626 0.35215357 0.18704219 0.11130324 0.029629223
0.20964853 -0.31219155 -0.09549909 -0.014771515 0.13526984 0.42893428 -0.26891837 0.20819151

linear_relu_output1.0.bias f4 [32]
00000000: 3fe2 ee3c 30a8 66bd cdde 313d b3e8 1cbe
00000010: a7a9 b9bd f8e4 e6bd 09c3 abbc 6319 05bc
00000020: 5707 aa3d 1a40 57bd cf44 42be c80b 94bd
00000030: 88d7 ed3d 7a98 07be ea09 4e3e 39ea 9a3c
00000040: 7985 cb3d 92c5 653a 7889 bbbd 02b1 e8bd
00000050: 02a6 c63d 53d2 83be fd60 99bc f4ab f63c
00000060: 62a4 c8bd b7ba 85be 082f c0bd 0e5a 84bd
00000070: 4bee 2ebe b15c dcbd 8888 bd37 27b6 27be
0.029160617 -0.05631274 0.04342537 -0.15323143 -0.09065562 -0.11274141 -0.020967023 -0.008123728
0.08302181 -0.052551366 -0.18971561 -0.072288096 0.11613375 -0.13241759 0.2012097 0.018910514
0.09937567 0.0008765097 -0.091570795 -0.113618866 0.09699632 -0.25746402 -0.018723005 0.03011129
-0.097969785 -0.26119015 -0.093839705 -0.06462489 -0.17083089 -0.10759867 2.2594133e-05 -0.1637808

linear_output2.weight f4 [2, 32]
00000000: 657f 073e 82ba 6c3e 3689 22be ecf9 a13d
00000010: 75b7 9abe 4b25 023e 2832 ca3d 9109 4f3e
00000020: d1d5 4c3d 7745 8c3e b6bb 143e d80b a13e
00000030: 8909 933e b030 763e b2b5 93be f8b7 8f3e
00000040: e73c 3abe e2b4 90bd 1179 183e b7d9 43be
00000050: aa3f be3e 9944 1ebe e310 37bd 4f31 363e
00000060: f483 a23d 561a fcbd 2165 a4be ff1f de3e
00000070: 0122 83be 3bcf a83e c21e 48be 78c0 2e3e
00000080: f967 963e 7cef 2b3e d454 d0be dac9 9bbd
00000090: 216d e03d 8d6e a0bd 4da3 5a3e 6040 cabe
000000a0: 475b 133e fa0f 0b3d b89c 53bd ee32 18be
000000b0: d6b1 c43e 6d74 913c 34c7 ba3e cdc7 eb3d
000000c0: 70e2 733e 7e44 083d e8fe 81bd 1435 dcbe
000000d0: c956 fc3d 82a2 8fbe d90b a43e 1e9a ab3e
000000e0: d8b4 1abe 4708 0cbe 5d13 413d e767 a63e
000000f0: 53a6 a3bd 5aec b63e ae84 7abe d4db 9fbe
0.13232191 0.23118022 -0.15872654 0.07908997 -0.30218092 0.12709539 0.09872848 0.20218493
0.0500086 0.27396747 0.14524731 0.3145435 0.28718212 0.2404201 -0.2884956 0.28070045
-0.18187295 -0.07065751 0.14889933 -0.1912602 0.37157947 -0.15455855 -0.04469384 0.17792247
0.07935324 -0.12309711 -0.32108405 0.43383786 -0.2561188 0.32970604 -0.19542983 0.17065609
0.293762 0.16790575 -0.4068972 -0.076068595 0.10958315 -0.07833586 0.21351357 -0.3950224
0.14390288 0.033950783 -0.05166313 -0.14863178 0.38416928 0.017755711 0.36480105 0.11512718
0.23816848 0.033268444 -0.06347448 -0.43009245 0.123212405 -0.2805367 0.3204029 0.3351602
-0.15108049 -0.13675033 0.047137607 0.32501146 -0.07990708 0.35727197 -0.24464676 -0.31222403

linear_output2.bias f4 [2]
00000000: 32b8 8cbd cc27 2d3e
-0.0687107 0.16909713
