Model Two/saved_models/22botrgcn_trained_model.pt (torch, 77257 bytes, 17 tensors)

linear_relu_des.0.weight f4 [8, 768]
0.027596641 -0.061538164 -0.25037724 0.19657005 0.1135586 0.32004884 0.101977065 0.35178232
-0.35015678 0.053623896 -0.055849936 -0.046353694 -0.12519379 0.062224727 -0.26474798 -0.27526903
-0.12346995 0.12472652 -0.09846975 0.26805916 0.10587537 0.15438402 0.5594571 -0.2412248
0.084819645 -0.09333571 -0.016375178 0.110981725 0.09037365 -0.57599646 -0.20838426 0.21857688
-0.15171438 0.162535 -0.1533114 -0.022581413 -0.081142455 -0.07779686 0.09487011 0.38267362
0.05710729 -0.16827998 0.17342772 -0.42870897 -0.07903405 0.060372997 -0.25320503 0.121455766
-0.019547379 0.04965938 0.07750438 -0.15277949 -0.11639226 -0.14331228 0.020858077 0.28329763
-0.24304652 -0.12984486 0.03241613 -0.34891185 -0.09727899 0.109154634 0.059018753 -0.041547835
-0.11943509 0.046700586 0.22812423 0.2760898 0.18036139 0.026788898 0.012965122 0.2394605
0.10366044 0.016230607 -0.17531213 -0.20865051 0.12938206 -0.0060253 0.028059438 0.070837826
0.115117915 0.08678128 -0.05812641 -0.1402352 0.085204974 0.17666627 -0.15477997 -0.05410907
0.19158792 -0.20077035 0.10497256 -0.093726054 -0.10032529 -0.049415994 0.100979604 -0.25655794
0.15371041 -0.048351076 0.07366268 0.0654881 0.09085825 -0.24968082 -0.03702627 -0.11125808
0.39099172 -0.10477477 -0.055164568 0.013823536 -0.063630514 -0.10830404 0.14612083 0.34778553
0.065174975 -0.17106637 0.19445015 0.049475543 0.13825397 -0.15209182 -0.15867884 0.14918177
0.08348189 -0.0351561 0.24855249 -0.0607317 -0.04058334 -0.12205638 0.11167511 -0.031564843
-0.34439093 -0.12905613 -0.16372943 -0.03918679 -0.18596134 -0.09954402 0.3027698 0.15666404
0.059375826 -0.073342465 -0.22830531 0.0020722721 0.12441567 0.03512766 -0.04712517 -0.35665977
-0.2693618 -0.13663115 0.0639989 -0.009404391 0.050869692 0.15625294 -0.078812495 -0.0325611
-0.1392886 0.48935473 -0.006653139 -0.13094689 0.15968989 -0.02347358 -0.16905107 0.10479376
0.071851306 -0.4776913 -0.23989421 0.024691785 0.0054759616 -0.0053770607 0.34847105 -0.007795627
-0.018164523 0.011066468 -0.2876684 -0.13320746 0.020868078 -0.14737764 0.0011742077 -0.28194624
-0.65370876 -0.10610967 0.33440328 0.11127817 0.15139678 -0.33195338 0.57184714 -0.39499438
0.2020573 0.12301844 -0.022723328 -0.12961799 0.008795949 0.06552814 -0.22255443 0.28091976
-0.2486408 -0.11681978 0.10041381 -0.12998271 -0.27002767 -0.1287557 -0.033675373 -0.12777175
-0.20140304 0.0830503 0.20918529 0.2146286 0.15308504 0.20562035 0.11524334 0.16811663
-0.30880988 0.41024408 0.16759965 -0.017901082 0.19039544 -0.023374705 0.01627381 0.21671155
0.17852034 -0.039244547 -0.027820973 -0.013205179 -0.0047599897 0.43564892 0.111825146 -0.17088003
-0.16610755 -0.35663876 0.07751039 -0.31934097 0.019311134 0.092938185 -0.05178613 -0.20540512
0.22739886 -0.030697938 -0.08333883 -0.017962787 0.00899017 -0.06892354 0.10435837 0.020135332
0.06787326 0.020328049 -0.09025621 0.026121479 0.23096606 0.17327131 -0.24125113 0.0379802
-0.015440986 -0.15162371 -0.21078007 -0.25004032 -0.18334055 -0.16230331 -0.33550826 0.11912295
00000000: 5a12 e23c 710f 7cbd 7231 80be a949 493e
00000010: 6991 e83d 71dd a33e 5ad9 d03d d01c b43e
00000020: c047 b3be bba4 5b3d e7c2 64bd 5fdd 3dbd
00000030: cd32 00be 5bdf 7e3d 0c8d 87be 10f0 8cbe
00000040: d0dd fcbd 9e70 ff3d 82aa c9bd 0d3f 893e
00000050: 30d5 d83d d816 1e3e 9538 0f3f a203 77be
00000060: ecb5 ad3d cb26 bfbd 3d25 86bc 634a e33d
00000070: d215 b93d 8174 13bf af62 55be 9ed2 5f3e
00000080: 045b 1bbe 936f 263e aafd 1cbe a8fc b8bc
00000090: 042e a6bd f653 9fbd 434b c23d cced c33e
000000a0: 55e9 693d 9651 2cbe 0997 313e be7f dbbe
000000b0: 9bdc a1bd ad49 773d 17a4 81be cdbd f83d
000000c0: d321 a0bc a267 4b3d 9eba 9e3d 3a72 1cbe
000000d0: 115f eebd 74c0 12be 8fde aa3c 630c 913e
000000e0: 30e1 78be 0df6 04be c7c6 043d 93a4 b2be
000000f0: 353a c7bd 778c df3d a6bd 713d 102e 2abd
00000100: 629a f4bd 1d49 3f3d 6699 693e a45b 8d3e
00000110: a8b0 383e 6474 db3c aa6b 543c 2235 753e
00000120: ed4b d43d 0df6 843c 0685 33be 7ba8 55be
00000130: bb7c 043e e16f c5bb e8dc e53c 6c13 913d
00000140: f1c2 eb3d 62ba b13d f515 6ebd d199 0fbe
00000150: f27f ae3d 01e8 343e a47e 1ebe 79a1 5dbd
00000160: a02f 443e be96 4dbe dbfb d63d 72f3 bfbd
00000170: 5877 cdbd 6d68 4abd 65ce ce3d 905b 83be
00000180: 4366 1d3e c70b 46bd 76dc 963d a01e 863d
00000190: e413 ba3d 54ac 7fbe dca8 17bd 47db e3bd
000001a0: 1130 c83e 2894 d6bd 3ef4 61bd 1d7c 623c
000001b0: b750 82bd 82ce ddbd b3a0 153e f210 b23e
000001c0: 757a 853d 062c 2fbe f11d 473e dea6 4a3d
000001d0: 7392 0d3e f5bd 1bbe b57c 22be 1bc3 183e
000001e0: 8ef8 aa3d d8ff 0fbd 8b84 7e3e cec1 78bd
000001f0: b73a 26bd b2f8 f9bd ecb5 e43d 234a 01bd
00000200: 0254 b0be 4a27 04be b0a8 27be 5482 20bd
00000210: a66c 3ebe bcdd cbbd a504 9b3e 8a6c 203e
00000220: 1134 733d 9334 96bd dec8 69be f5ce 073b
00000230: a5cd fe3d 05e2 0f3d 5206 41bd 1c9c b6be
00000240: cae9 89be 09e9 0bbe db11 833d e014 1abc
00000250: bd5c 503d c500 203e 7268 a1bd ca5e 05bd
00000260: aca1 0ebe b48c fa3e 9302 dabb f116 06be
00000270: bf85 233e aa4b c0bc b91b 2dbe 1c9e d63d
00000280: c726 933d f493 f4be d4a6 75be 6d46 ca3c
00000290: b26f b33b 0e32 b0bb cc6a b23e 7672 ffbb
000002a0: c4cd 94bc 2250 353c 4649 93be 8967 08be
000002b0: 88f3 aa3c 2aea 16be dfe7 993a 425b 90be
000002c0: 7559 27bf 0750 d9bd e836 ab3e cfe5 e33d
000002d0: c207 1b3e cbf5 a9be 9364 123f b43c cabe
000002e0: 1ce8 4e3e 18f1 fb3d 4626 babc 94ba 04be
000002f0: e21c 103c 9e33 863d 4fe5 63be b7d4 8f3e
00000300: b29b 7ebe 353f efbd c1a5 cd3d 301a 05be
00000310: 1141 8abe 89d8 03be 30ef 09bd 99d6 02be
00000320: 993c 4ebe 4716 aa3d ab34 563e 9ac7 5b3e
00000330: 53c2 1c3e 248e 523e b304 ec3d c426 2c3e
00000340: 541c 9ebe 830b d23e 3e9f 2b3e 4aa5 92bc
00000350: 06f7 423e 4f7c bfbc a750 853c a2e9 5d3e
00000360: 09ce 363e e4be 20bd cfe8 e3bc 895a 58bc
00000370: b0f9 9bbb 600d df3e 9504 e53d 2dfb 2ebe
00000380: 1918 2abe 5b99 b6be c4bd 9e3d a980 a3be
00000390: 6232 9e3c 6056 be3d b11d 54bd b855 52be
000003a0: 3fdb 683e 3e7a fbbc 8cad aabd b226 93bc
000003b0: 824b 133c c927 8dbd d7b9 d53d daf2 a43c
000003c0: 2301 8b3d 0287 a63c 3fd8 b8bd b6fc d53c
000003d0: 5e82 6c3e 096e 313e 890a 77be 2091 1b3d
000003e0: 30fc 7cbc 3f43 1bbe bbd6 57be 4905 80be
000003f0: a0bd 3bbe d732 26be bdc7 abbe bcf6 f33d

linear_relu_des.0.bias f4 [8]
0.01325891 -0.03235754 -0.07045636 -0.032354362 0.0056360266 -0.12726341 0.025821766 0.031110238
00000000: e63b 593c 5789 04bd 6d4b 90bd 0286 04bd
00000010: 6bae b83b 5751 02be 2b88 d33c e6da fe3c

linear_relu_tweet.0.weight f4 [8, 768]
0.076578595 -0.12172443 -0.028021256 0.017160725 -0.009925917 0.06655142 0.015978863 -0.011469303
-0.025446637 0.03365871 0.015382817 -0.050088882 -0.114169806 0.0132002765 -0.12736814 0.094123095
-0.08359772 -0.120808706 -0.03446094 -0.072580785 0.018883847 -0.026583962 -0.11816094 -0.10070891
-0.029696455 0.014387851 0.041645996 -0.09426351 -0.061521564 -0.08461309 0.0689061 -0.02724977
-0.019873563 0.030122163 0.18487959 0.06795053 -0.07670872 -0.12654167 0.022879003 -0.058131207
-0.0626948 0.12816758 -0.056914877 -0.050970998 0.00761896 -0.14601038 -0.0772244 0.0023628636
-0.111704916 0.12251829 -0.041586403 0.0022366755 -0.020517416 0.015609555 0.081800275 -0.0047224727
-0.011972219 -0.07638999 0.00028020353 -0.122402444 -0.06056944 -0.04181996 0.03135069 -0.114502184
-0.010729416 0.07759903 0.070742965 -0.04445483 -0.022827802 -0.094509155 -0.13747534 0.0888431
-0.047320742 0.09542939 -0.10250922 -0.08505416 -0.049526103 0.11247316 0.021158615 -0.008694512
-0.05736556 0.043890007 -0.017164622 -0.09538887 -0.028897278 0.10311489 0.00065982743 -0.003659965
0.033443466 -0.0726231 -0.13341866 -0.111332215 -0.043362584 -0.041575227 -0.020723896 -0.11273076
0.083812356 -0.041029293 0.051353402 -0.023188513 -0.012295617 0.051581167 -0.025647119 -0.108212344
0.09331382 -0.057113517 -0.009451958 -0.015492933 0.047132608 -0.035697617 -0.023025682 0.05448158
0.0045347805 0.006996553 0.11822741 0.018922813 -0.03980482 -0.06912965 -0.1333301 -0.01770189
-0.03121461 -0.0984854 -0.11622843 0.10487401 0.0006326496 -0.0020976826 -0.03531107 -0.054259673
0.13086174 0.03203252 0.06990822 0.024058005 -0.033899877 -0.027821029 -0.008634808 -0.042518858
-0.027487407 -0.13810076 -0.006961138 0.028588967 -0.117943704 -0.08958146 -0.093370564 -0.0033049039
-0.09440428 -0.08886007 0.07153109 0.100264914 0.11234915 -0.07684688 -0.059735157 0.09896706
0.10273748 -0.14338729 0.036866095 -0.19362701 -0.08316872 -0.013340692 0.032121856 -0.07616089
0.0066382797 -0.04934114 -0.039174568 0.11118321 -0.083165295 -0.10247986 -0.1834861 -0.10977025
-0.18975419 -0.0031814734 0.07057184 -0.1211065 -0.20766577 0.019840702 0.03279784 0.022984913
0.02621911 0.013305053 -0.095522076 0.1238069 0.1054436 0.0013493854 -0.0060793357 -0.0019283738
-0.07258198 -0.011818664 -0.12391782 0.010668074 -0.058427352 -0.045412716 -0.116989546 -0.021522889
0.0025756217 0.013471393 -0.064903304 0.021965781 0.11238213 0.09976003 -0.016744252 -0.028722748
-0.027302755 -0.022459839 0.0065200375 0.045547247 -0.14456475 -0.12836109 -0.073293 -0.09991626
0.09692724 -0.1593837 0.05468761 -0.0989419 -0.07254251 -0.01548848 -0.020075386 -0.010915229
0.100998685 0.08938572 -0.07086164 0.06835028 -0.086388074 -0.029281469 0.07773366 0.117605835
-0.013750417 -0.009337588 -0.10418479 0.050009545 -0.07480757 -0.039906997 0.012149781 0.06257869
-0.035172645 0.01597763 -0.047625527 -0.07442929 -0.018286033 -0.069038995 -0.086590864 0.023176951
0.101427995 0.012919097 0.010592424 -0.09599934 -0.19657852 -0.05348003 -0.040427227 -0.03847041
-0.1150812 -0.113608256 -0.06795446 0.20394573 -0.10462902 0.015912445 0.064473264 -0.016670652
00000000: 3dd5 9c3d a84a f9bd d58c e5bc a694 8c3c
00000010: 50a0 22bc 1c4c 883d 1be6 823c bee9 3bbc
00000020: 7775 d0bc b7dd 093d 3608 7c3c 002a 4dbd
00000030: dcd1 e9bd f945 583c cb6c 02be 9cc3 c03d
00000040: 4835 abbd 8e6a f7bd ea26 0dbd 3ca5 94bd
00000050: 4cb2 9a3c 9cc6 d9bc 5dfe f1bd 7940 cebd
00000060: fb45 f3bc 05bb 6b3c fe94 2a3d 3a0d c1bd
00000070: 09fe 7bbd a149 adbd a41e 8d3d e93a dfbc
00000080: e2cd a2bc c1c2 f63c 1351 3d3e a629 8b3d
00000090: 7619 9dbd 2494 01be bf6c bb3c fd1a 6ebd
000000a0: 2266 80bd 5d3e 033e 931f 69bd f7c6 50bd
000000b0: 78a8 f93b bf83 15be d427 9ebd 46da 1a3b
000000c0: 8cc5 e4bd dfea fa3d 8156 2abd 3095 123b
000000d0: 2414 a8bc 38bf 7f3c e786 a73d f9be 9abb
000000e0: 2027 44bc 5b72 9cbd 48e8 9239 22ae fabd
000000f0: a917 78bd 684b 2bbd 9569 003d 1f80 eabd
00000100: 6fca 2fbc 3eec 9e3d b0e1 903d 4516 36bd
00000110: 5f01 bbbc 048e c1bd 56c6 0cbe 5ff3 b53d
00000120: 65d3 41bd 7c70 c33d 5bf0 d1bd e030 aebd
00000130: e2db 4abd 5458 e63d d554 ad3c 6d73 0ebc
00000140: 26f8 6abd 02c6 333d d29c 8cbc 3d5b c3bd
00000150: fcb9 ecbc e62d d33d 45f8 2c3a 06dc 6fbb
00000160: 04fc 083d 6bbb 94bd e79e 08be 2502 e4bd
00000170: f79c 31bd c94a 2abd 29c5 a9bc 62df e6bd
00000180: d0a5 ab3d 550e 28bd f257 523d d6f5 bdbc
00000190: 8e73 49bc c646 533d e819 d2bc 6f9e ddbd
000001a0: 511b bf3d ddef 69bd 63dc 1abc 12d6 7dbc
000001b0: 1f0e 413d aa37 12bd 5ba0 bcbc 1428 5f3d
000001c0: 7f98 943b 5743 e53b 3621 f23d 0404 9b3c
000001d0: 610a 23bd d993 8dbd b087 08be 8e03 91bc
000001e0: c8b5 ffbc b7b2 c9bd 2c09 eebd 2fc8 d63d
000001f0: 65d8 253a 4679 09bb 57a2 10bd 643f 5ebd
00000200: 9f00 063e 8834 033d 0a2c 8f3d 4b15 c53c
00000210: 99da 0abd ede8 e3bc 0279 0dbc 4128 2ebd
00000220: 452d e1bc 496a 0dbe 421a e4bb 6933 ea3c
00000230: 788c f1bd 7c76 b7bd 1139 bfbd 1697 58bb
00000240: 0857 c1bd 45fc b5bd e47e 923d b157 cd3d
00000250: 5017 e63d e661 9dbd daac 74bd 3eaf ca3d
00000260: 0768 d23d 1ed4 12be e700 173d 2946 46be
00000270: 5d54 aabd eb92 5abc 3592 033d 3efa 9bbd
00000280: ed85 d93b ef19 4abd 8375 20bd 06b4 e33d
00000290: 9152 aabd f6e0 d1bd c8e3 3bbe 3acf e0bd
000002a0: ec4e 42be 4480 50bb f887 903d af06 f8bd
000002b0: 56a6 54be f888 a23c 0757 063d db4a bc3c
000002c0: 75c9 d63c 70fd 593c 14a1 c3bd 798e fd3d
000002d0: d0f2 d73d dcdd b03a 2a35 c7bb 7dc1 fcba
000002e0: dca5 94bd 12a3 41bc a0c8 fdbd 25c9 2e3c
000002f0: 8551 6fbd af02 3abd 3798 efbd c550 b0bc
00000300: c3cb 283b 1eb7 5c3c 06ec 84bd 95f1 b33c
00000310: 9a28 e63d fd4e cc3d 3e2b 89bc f84b ebbc
00000320: 07aa dfbc b2fd b7bc 0aa6 d53b c08f 3a3d
00000330: c808 14be 1771 03be a41a 96bd e5a0 ccbd
00000340: ca81 c63d 7b35 23be 1e00 603d 0da2 cabd
00000350: 2b91 94bd 65c3 7dbc 2375 a4bc cad5 32bc
00000360: 66d8 ce3d dc0f b73d e81f 91bd 3bfb 8b3d
00000370: 3bec b0bd b1df efbc d332 9f3d 54db f03d
00000380: 6e49 61bc affc 18bc d65e d5bd cfd6 4c3d
00000390: b634 99bd 8575 23bd e00f 473c 4229 803d
000003a0: 3111 10bd 85e3 823c fc12 43bd 626e 98bd
000003b0: 97cc 95bc 5164 8dbd 8d56 b1bd 97dd bd3c
000003c0: 7bb9 cf3d 9faa 533c d98b 2d3c 4d9b c4bd
000003d0: e14b 49be e00d 5bbd 0597 25bd 2693 1dbd
000003e0: b1af ebbd 72ab e8bd b52b 8bbd 26d7 503e
000003f0: bd47 d6bd d15a 823c 8f0a 843d e490 88bc

linear_relu_tweet.0.bias f4 [8]
-0.06865537 -0.07372588 -0.060488626 0.0023112663 -0.027353082 -0.08850582 -0.12061721 -0.0032731656
00000000: 309b 8cbd 98fd 96bd ecc2 77bd 9d78 173b
00000010: 9213 e0bc 8a42 b5bd 2806 f7bd 9b82 56bb

linear_relu_num_prop.0.weight f4 [8, 5]
0.10504179 -0.13375703 -0.011684905 -0.20150541 1.0112306 -0.13778168 -0.0099520525 -0.1251942
-0.2505211 0.82782817 -0.38771486 -0.12060114 -0.11181181 -1.480117 0.06363264 -0.26316234
0.13825282 -0.041588515 -0.0061333417 0.84262985 -0.33271807 -0.63943744 -0.13203008 0.37338382
-0.7462523 0.058582213 0.5905228 0.25647765 -0.3266641 -0.8522412 -0.6603811 0.15788607
-0.36807707 -1.2950377 -0.5946031 0.056266874 -0.7122568 -0.398435 0.028205186 0.24848516
00000000: 2620 d73d 9af7 08be 0b72 3fbc 6f57 4ebe
00000010: 0170 813f a416 0dbe ef0d 23bc e932 00be
00000020: 4d44 80be 8cec 533f 9082 c6be bbfd f6bd
00000030: 97fd e4bd 7974 bdbf d451 823d 37bd 86be
00000040: 2692 0d3e b858 2abd 33fa c8bb 97b6 573f
00000050: 065a aabe 2cb2 23bf e532 07be 2a2c bf3e
00000060: 640a 3fbf e7f3 6f3d 812c 173f 0a51 833e
00000070: 8440 a7be 7b2c 5abf bc0e 29bf e3ac 213e
00000080: 9974 bcbe ccc3 a5bf e937 18bf 1878 663d
00000090: 7656 36bf acff cbbe 900e e73c e572 7e3e

linear_relu_num_prop.0.bias f4 [8]
0.14403856 0.18310992 0.22469239 0.23286968 -0.4105014 -0.05071157 -0.13997011 -0.0732468
00000000: d87e 133e 2b81 3b3e c315 663e 6475 6e3e
00000010: 3d2d d2be efb6 4fbd 5354 0fbe 6b02 96bd

linear_relu_cat_prop.0.weight f4 [8, 3]
0.4595279 -0.84820336 0.40636337 0.73869854 -0.8134344 -0.6286549 0.44223127 0.9704109
0.34425318 0.5009696 -1.2156956 -0.8006636 0.6215673 -0.9145163 0.45258856 0.6125554
0.6053842 0.79912734 -0.04446551 0.67401993 -0.9179114 -0.098276466 0.08267258 -0.117046125
00000000: 3e47 eb3e db23 59bf dc0e d03e 591b 3d3f
00000010: 3d3d 50bf 87ef 20bf 236c e23e d96c 783f
00000020: f441 b03e 8b3f 003f ea9b 9bbf 4af8 4cbf
00000030: 091f 1f3f be1d 6abf b0b9 e73e 6ed0 1c3f
00000040: 75fa 1a3f 9c93 4c3f 7721 36bd 928c 2c3f
00000050: 3efc 6abf 2c45 c9bd 3e50 a93d e1b5 efbd

linear_relu_cat_prop.0.bias f4 [8]
0.33905512 0.29262757 -0.3219463 0.20840159 -0.0001210923 -0.3017196 -0.09312401 -0.5186055
00000000: a298 ad3e 48d3 953e 25d6 a4be 3a67 553e
00000010: eff2 fdb8 fe7a 9abe cdb7 bebd 54c3 04bf

linear_relu_input.0.weight f4 [32, 32]
0.35627633 0.01420887 0.23452127 -0.28295654 -0.1322648 -0.35095105 0.2242898 0.4239615
0.006830762 -0.09954124 -0.33254248 -0.25809819 0.08053115 0.045905195 -0.22834486 0.08342651
-0.2957583 0.13732412 -0.2463374 0.15738913 -0.2324122 -0.17553662 0.20160575 0.20047078
-0.25584373 0.28254497 0.41469097 0.012737593 -0.17691264 -0.0069556516 0.32373175 0.15715823
-0.5450074 -0.50715053 -0.15809108 0.15509053 -0.08674041 0.14348757 0.14673011 0.12555058
-0.14054817 0.37517852 0.29420537 -0.16998042 -0.2926825 0.33597985 0.32674608 0.046706084
0.20811513 0.08086137 -0.2707101 -0.10134817 -0.15875529 -0.40538728 -0.23443107 -0.13558337
-0.19813913 0.18096149 -0.29484904 -0.26516053 -0.28076017 -0.19186942 0.25854957 0.074437544
0.096662246 0.057826962 0.4137271 0.1449403 -0.18410529 0.15339084 -0.10926791 -0.192556
0.23487003 -0.1589824 0.1451265 0.28550526 -0.30818626 0.014750923 0.107010804 0.026579095
-0.01571651 -0.09589461 0.011897626 0.20831509 0.09574778 0.1418762 -0.22688536 -0.3397627
-0.14302784 -0.032275733 0.11871127 -1.0041915 -0.6103224 0.2687544 0.5627369 -0.050083503
0.36869064 0.13525969 0.22538893 -0.40457478 0.21525477 -0.28448343 0.016451288 0.42070702
0.27520278 0.32101297 -0.22201464 0.25482205 0.16203196 -0.13012809 0.18153085 -0.060562104
0.04304125 0.17718813 -0.089964695 -0.196619 0.16179793 0.22927147 0.13674864 0.079096615
-0.19705106 -0.24147199 0.29872298 0.33659208 -0.19277617 0.28045312 0.34201413 0.14452367
-0.34747645 -0.10329115 0.29341304 -0.24498829 0.27718395 -0.069585286 -0.20326284 0.16484411
-0.22179823 0.31192306 0.14454257 -0.11084075 -0.26309097 -0.18213502 0.2595866 0.16572857
-0.21807157 0.08198993 -0.33207798 0.12196609 -0.44881964 0.3008874 -0.2878993 -0.19706452
-0.23062997 -0.069745384 0.29940185 -0.20158951 -0.025691466 -0.076533794 -0.24504101 -0.028714031
-0.11181617 -0.017107332 -0.21515253 0.13711566 -0.4265351 0.27778995 0.24280128 0.15266624
0.2522061 -0.34519872 -0.34267727 -0.46785775 -0.39059487 0.26273996 0.36746985 -0.226885
-0.34758344 -0.123552755 -0.3252697 -0.38027614 -0.3928356 -0.045008805 -0.28424296 -0.039416276
0.14516339 0.31506756 0.17904337 -0.15277167 -0.123965204 -0.4711394 -0.2948061 0.14891388
0.3670132 -0.2819265 0.30166543 0.17834646 0.030470716 -0.33357036 0.07790093 0.22855715
0.4228411 -0.15330951 0.052356187 -0.31380585 -0.30162162 -0.23621207 0.07732219 0.026694993
-0.024345363 0.07824298 -0.09991873 0.2423324 0.045287427 0.093931645 -0.2933228 -0.364543
-0.004543438 -0.22784427 0.53966975 -0.19168805 0.20252725 -0.17471522 0.57506543 -0.10877776
-0.1979932 -0.15687959 0.36653903 -0.13505368 0.19584775 0.21300893 -0.30626822 -0.058461625
-0.2239199 -0.6873644 -0.2724778 0.43772236 -0.36781508 0.081245884 -0.5484062 0.096918315
-0.55002314 -0.37689662 0.3575372 0.010213341 0.28604573 0.0862484 0.2851751 -0.1871743
0.24031876 -0.17119914 -0.0966376 -0.0549579 -0.40834466 0.08001237 -0.212472 -0.36602417
00000000: da69 b63e 52cc 683c 5826 703e aedf 90be
00000010: 6c70 07be dbaf b3be 3aac 653e 7b11 d93e
00000020: 96d4 df3b 47dc cbbd 0243 aabe 7225 84be
00000030: 84ed a43d 1607 3c3d 3cd3 69be 85db aa3d
00000040: a26d 97be b29e 0c3e df3f 7cbe 9e2a 213e
00000050: 77fd 6dbe dfbf 33be bd71 4e3e 3648 4d3e
00000060: f3fd 82be bca9 903e 6052 d43e 56b1 503c
00000070: 9628 35be 3cec e3bb 2bc0 a53e 16ee 203e
00000080: 9b85 0bbf 9ed4 01bf a1e2 21be 0dd0 1e3e
00000090: f5a4 b1bd 68ee 123e 6b40 163e 5590 003e
000000a0: dceb 0fbe 6617 c03e 16a2 963e 590f 2ebe
000000b0: 7bda 95be 8d05 ac3e 434b a73e e14e 3f3d
000000c0: 221c 553e a59a a53d 849a 8abe a18f cfbd
000000d0: bf90 22be ec8e cfbe b30e 70be 5ed6 0abe
000000e0: fce4 4abe f84d 393e 74f6 96be 1fc3 87be
000000f0: ccbf 8fbe 6b79 44be 9c60 843e b672 983d
00000100: dbf6 c53d f7db 6c3d 0ad4 d33e 3b6b 143e
00000110: 1986 3cbe 7d12 1d3e dbc7 dfbd 662d 45be
00000120: c581 703e 48cc 22be 0b9c 143e bf2d 923e
00000130: 97ca 9dbe dbad 713c 7b28 db3d 67bc d93c
00000140: e9bf 80bc 6564 c4bd 43ee 423c 8d50 553e
00000150: 6917 c43d ff47 113e a354 68be 60f5 adbe
00000160: e475 12be 8f33 04bd e51e f33d 5989 80bf
00000170: 173e 1cbf 2d9a 893e 870f 103f 5c24 4dbd
00000180: 05c5 bc3e 8481 0a3e 5bcc 663e 6d24 cfbe
00000190: bf6b 5c3e d0a7 91be dac4 863c e966 d73e
000001a0: 61e7 8c3e d05b a43e ce57 63be 0978 823e
000001b0: b5eb 253e 4c40 05be 39e3 393e f80f 78bd
000001c0: 064c 303d ce70 353e 693f b8bd 7e56 49be
000001d0: 5bae 253e 24c6 6a3e d607 0c3e 68fd a13d
000001e0: c1c7 49be 6f44 77be 38f2 983e cc55 ac3e
000001f0: 1e67 45be 8d97 8f3e 7a1c af3e 03fe 133e
00000200: 6fe8 b1be 4f8a d3bd 3c3a 963e 36de 7abe
00000210: 0eeb 8d3e bb82 8ebd 2224 50be e5cc 283e
00000220: 131f 63be 61b4 9f3e f802 143e 7a00 e3bd
00000230: dcb3 86be 9a81 3abe 89e8 843e c0b4 293e
00000240: 274e 5fbe 56ea a73d 2006 aabe 5bc9 f93d
00000250: b0cb e5be ea0d 9a3e 8967 93be 48cb 49be
00000260: 432a 6cbe abd6 8ebd 334b 993e 7b6d 4ebe
00000270: e976 d2bc c0bd 9cbd 08ec 7abe b039 ebbc
00000280: e0ff e4bd ad24 8cbc f250 5cbe 0c68 0c3e
00000290: cf62 dabe 7c3a 8e3e e6a0 783e 8a54 1c3e
000002a0: 2821 813e e3bd b0be 6573 afbe 0d8b efbe
000002b0: 0dfc c7be da85 863e 0225 bc3e 8b54 68be
000002c0: 75f6 b1be 3a09 fdbd c089 a6be 8eb3 c2be
000002d0: bf21 c9be 275b 38bd 4b88 91be f672 21bd
000002e0: b6a5 143e 8950 a13e 2557 373e 2d70 1cbe
000002f0: 78e1 fdbd 2f39 f1be d3f0 96be e17c 183e
00000300: 27e9 bb3e ac58 90be e473 9a3e 74a0 363e
00000310: b99d f93c bcc9 aabe 868a 9f3d e30a 6a3e
00000320: a17e d83e 2bfd 1cbe 7173 563d 29ab a0be
00000330: 266e 9abe 94e1 71be 195b 9e3d 75af da3c
00000340: ed6f c7bc db3d a03d 31a2 ccbd fc25 783e
00000350: 4f7f 393d 3c5f c03d 682e 96be 61a5 babe
00000360: 1fe1 94bb 0250 69be cc27 0a3f df49 44be
00000370: 4e63 4f3e 8ce8 32be 7d37 133f e0c6 debd
00000380: bbbe 4abe 0ba5 20be 01ab bb3e 834b 0abe
00000390: 508c 483e 031f 5a3e 30cf 9cbe 7575 6fbd
000003a0: 424b 65be 1df7 2fbf 3682 8bbe 251d e03e
000003b0: 4252 bcbe 3e64 a63d 5964 0cbf 1c7d c63d
000003c0: 51ce 0cbf 98f8 c0be 1e0f b73e db55 273c
000003d0: 9674 923e 00a3 b03d 7902 923e 9faa 3fbe
000003e0: 1f16 763e d44e 2fbe efe9 c5bd 891b 61bd
000003f0: 8d12 d1be 87dd a33d 4392 59be 8567 bbbe

linear_relu_input.0.bias f4 [32]
-0.10555468 -0.15502624 0.106014326 -0.058654696 -0.1392209 -0.107251905 0.07211802 0.25865498
0.09736725 -0.12138973 -0.07827215 -0.14638917 0.108678065 0.007534726 0.11832189 -0.013210358
0.15406863 0.30181777 -0.1553217 -0.05852614 0.06582167 0.11745616 0.039110176 -0.1088031
0.03679644 -0.109011546 -0.20771894 0.057824727 -0.29669547 0.11078199 -0.070181504 -0.055984914
00000000: 0d2d d8bd 33bf 1ebe 0a1e d93d e83f 70bd
00000010: ec8f 0ebe e3a6 dbbd 9db2 933d 6d6e 843e
00000020: 7b68 c73d 2e9b f8bd 264d a0bd 0be7 15be
00000030: 9b92 de3d dde5 f63b bf52 f23d 4270 58bc
00000040: 2bc4 1d3e dc87 9a3e a70c 1fbe 1bb9 6fbd
00000050: 83cd 863d db8c f03d fe31 203d 29d4 debd
00000060: ddb7 163d 7241 dfbd 46b4 54be 9fd9 6c3d
00000070: 78e8 97be abe1 e23d 52bb 8fbd 7050 65bd

rgcn.weight f4 [2, 32, 32]
0.1662829 0.0480536 -0.09837476 0.08963831 -0.20669335 -0.05139073 0.00015331879 0.08479537
-0.09937825 -0.20861953 -0.1282562 0.076432124 0.27992353 0.1377311 -0.19275668 0.14374132
-0.19406614 -0.06542242 -0.07057622 0.052543107 0.1661685 0.21114826 0.04342158 -0.22930996
-0.12762687 0.25616896 -0.2949319 -0.008180528 -0.26552603 -0.19724032 -0.08615034 0.18428208
0.18968473 0.09910909 0.005357382 -0.041089047 0.16551739 0.08637361 0.21846358 -0.34417978
-0.08813808 -0.22683547 -0.3536872 -0.17500591 -0.055725835 -0.061750073 0.22200464 0.015197162
0.21139953 -0.31161076 0.15903655 -0.29446286 0.0052091163 0.050106075 -0.1119795 -0.05279754
-0.2421221 0.26287308 -0.14296828 0.106926546 0.1770466 -0.044843435 0.18097137 -0.0031312064
0.07825063 0.13781899 -0.063502006 0.26383576 0.13329582 0.0800944 0.09664907 0.31739756
0.0098666875 -0.0070057716 0.14262499 0.043490652 0.009204502 -0.17670359 -0.015626585 0.1855668
-0.19041708 -0.020480106 -0.13808899 -0.068557985 -0.17613102 -0.25359142 -0.1794368 0.048440628
-0.12925602 -0.19066042 -0.06698433 0.026341453 -0.050301977 0.060984008 -0.13342921 -0.10476331
-0.16619518 0.100577235 0.13196884 -0.0580436 -0.06764388 -0.0782059 0.09907581 0.12847239
0.0074663823 0.095235005 0.13486335 -0.08461271 -0.032112185 -0.10769411 -0.14608623 -0.22411306
-0.27046305 -0.093182854 -0.2622822 0.026255207 0.2022512 0.053488962 0.14834203 -0.011097978
0.02466131 -0.0145790195 0.038233284 -0.3558917 0.18457238 0.09905863 -0.033939518 0.035297576
0.20677891 0.16872442 -0.1198023 -0.011091193 -0.22842242 0.051479667 -0.10457486 0.19887967
-0.07499853 -0.23987861 0.09792284 0.12945983 -0.077136464 -0.24935362 -0.22460213 -0.07425345
-0.017528242 -0.06575694 -0.1442925 0.09514244 -0.1363461 -0.05882674 0.0025253843 0.17758097
0.04393862 0.11259803 -0.10482576 0.25429404 0.19777286 0.051419247 0.13713899 0.21329881
0.14162616 -0.45130235 -0.18443097 0.23279233 -0.09781934 0.15060998 -0.037028406 -0.049181025
0.23687609 -0.10314796 0.01589432 0.12413751 0.14194979 0.22215182 -0.012201039 0.24019597
0.20244451 0.1731381 0.29646668 -0.15798213 0.14800575 -0.09837173 0.10527096 -0.19041984
0.12425626 0.21387057 -0.06540415 0.2640358 -0.08168865 0.28212333 -0.076676 0.17406982
-0.07303053 0.019002354 0.070888534 -0.022612622 0.072072044 -0.29962057 -0.19701746 -0.10994815
0.041723523 0.11679484 -0.09047771 0.012097514 0.07255992 0.10640456 -0.05853237 -0.1623153
0.07211778 0.08110271 0.19770348 -0.13433404 -0.15714747 0.09396525 -7.053919e-05 -0.04039553
0.19739541 -0.20775212 0.055811483 0.13408723 -0.11149529 -0.23118511 -0.114203624 0.050703146
-0.09195633 -0.14667484 0.00037202248 -0.166558 -0.0026490581 -0.15678489 0.16575179 -0.23581727
0.20648754 -0.11889772 -0.060524616 -0.23033577 -0.2485307 -0.18247631 -0.1318237 -0.057817906
0.11986329 0.17051423 0.009105837 0.06603891 -0.014517484 0.27007142 0.2364586 -0.13478787
0.17763221 -0.14488955 -0.051471896 -0.15672147 0.05553755 -0.16209514 0.19698152 0.16188796
00000000: 1146 2a3e dad3 443d b578 c9bd 4a94 b73d
00000010: 6ca7 53be 167f 52bd 33c4 2039 32a9 ad3d
00000020: d386 cbbd 5ca0 55be 9855 03be 7288 9c3d
00000030: 2352 8f3e 6209 0d3e 0262 45be ed30 133e
00000040: 46b9 46be 31fc 85bd 448a 90bd 7137 573d
00000050: 1328 2a3e 4037 583e d4da 313d 3bd0 6abe
00000060: 9eb0 02be 9428 833e 5001 97be 9f07 06bc
00000070: 07f3 87be 5ef9 49be 976f b0bd 71b4 3c3e
00000080: b73c 423e b5f9 ca3d fa8c af3b fd4c 28bd
00000090: 647d 293e a6e4 b03d ebb4 5f3e 5538 b0be
000000a0: bd81 b4bd 8f47 68be 7d16 b5be c034 33be
000000b0: c640 64bd a5ed 7cbd 2f55 633e 84fd 783c
000000c0: 1e79 583e 728b 9fbe 7ada 223e d6c3 96be
000000d0: 3cb1 aa3b 073c 4d3d 8255 e5bd 3c42 58bd
000000e0: dbee 77be 4d97 863e 4766 12be 4efc da3d
000000f0: b44b 353e c0ad 37bd 8f50 393e ed34 4dbb
00000100: de41 a03d 6c20 0d3e 570d 82bd 7b15 873e
00000110: b37e 083e 8808 a43d f3ef c53d ef81 a23e
00000120: e3a7 213c ac90 e5bb 490c 123e 4123 323d
00000130: 7bce 163c c9f1 34be 5303 80bc 3905 3e3e
00000140: b2fc 42be e5c5 a7bc 3367 0dbe 2168 8cbd
00000150: b15b 34be bcd6 81be 48be 37be ae69 463d
00000160: b15b 04be 7c3c 43be 152f 89bd 08ca d73c
00000170: 7209 4ebd 5eca 793d aba1 08be 258e d6bd
00000180: 122f 2abe 70fb cd3d d722 073e 20bf 6dbd
00000190: e088 8abd 6a2a a0bd 42e8 ca3d 448e 033e
000001a0: 8ea8 f43b 920a c33d 9e19 0a3e 6e49 adbd
000001b0: 1188 03bd bb8e dcbd a197 15be e57d 65be
000001c0: 227a 8abe a7d6 bebd da49 86be 2915 d73c
000001d0: f01a 4f3e 3e17 5b3d f9e6 173e 4bd4 35bc
000001e0: 8406 ca3c d7dc 6ebc 819a 1c3d 7037 b6be
000001f0: 8b00 3d3e 40df ca3d 2a04 0bbd 3194 103d
00000200: dabd 533e 18c6 2c3e e95a f5bd d6b7 35bc
00000210: 91e7 69be 58dc 523d 582b d6bd 1da7 4b3e
00000220: d498 99bd bda2 75be c58b c83d 1e91 043e
00000230: b9f9 9dbd 8e56 7fbe 1afe 65be 3112 98bd
00000240: 6397 8fbc 93ab 86bd 6ac1 13be 0ada c23d
00000250: 509e 0bbe 4ff4 70bd eb80 253b c9d7 353e
00000260: fbf8 333d cc99 e63d e3ae d6bd d432 823e
00000270: f884 4a3e fd9c 523d 2a6e 0c3e 016b 5a3e
00000280: 7306 113e 1a11 e7be 79db 3cbe 1d61 6e3e
00000290: 8255 c8bd 8139 1a3e 19ab 17bd 0b72 49bd
000002a0: a58f 723e 3d3f d3bd ce34 823c cf3b fe3d
000002b0: 495b 113e c47b 633e dee6 47bc eff5 753e
000002c0: 9d4d 4f3e 1d4b 313e 7bca 973e 11c6 21be
000002d0: d28e 173e 1e77 c9bd 4d98 d73d 6bfd 42be
000002e0: 117a fe3d e300 5b3e 9cf2 85bd b32f 873e
000002f0: 614c a7bd 7872 903e 4f08 9dbd 5c3f 323e
00000300: 0891 95bd d3aa 9b3c 022e 913d 1b3e b9bc
00000310: 829a 933d de67 99be f2be 49be 7f2c e1bd
00000320: 49e6 2a3d 2232 ef3d 614c b9bd a734 463c
00000330: 4c9a 943d a2ea d93d a3bf 6fbd fb35 26be
00000340: 7db2 933d 2d19 a63d c872 4a3e dd8e 09be
00000350: 44eb 20be da70 c03d 70ee 93b8 c975 25bd
00000360: 0622 4a3e f9bc 54be 959a 643d 2a4e 093e
00000370: a557 e4bd cabb 6cbe 97e3 e9bd 1aae 4f3d
00000380: 9a53 bcbd ee31 16be 030c c339 2e8e 2abe
00000390: d29b 2dbb 388c 20be d6ba 293e 157a 71be
000003a0: 7871 533e a680 f3bd a9e8 77bd 24dd 6bbe
000003b0: d57e 7ebe 12db 3abe cbfc 06be 78d2 6cbd
000003c0: e27a f53d 489b 2e3e a630 153c 683f 873d
000003d0: beda 6dbc cd46 8a3e 3422 723e d505 0abe
000003e0: 38e5 353e ed5d 14be 32d4 52bd 987b 20be
000003f0: 587b 633d 45fc 25be 86b5 493e f5c5 253e

rgcn.root f4 [32, 32]
-0.17403388 0.17265847 0.012417155 0.0036592246 -0.098595366 0.14351903 -0.028377581 -0.17580502
0.26385924 0.17066094 0.022065828 -0.042347 -0.33507454 -0.16611165 0.20955959 0.22226484
0.17208727 0.10000413 -0.31512457 -0.05399559 -0.077885315 -0.13420695 0.093885995 0.20794208
-0.36044496 0.3209841 -0.12813179 0.22087187 -0.2505408 -0.14596984 0.28304794 0.039401498
0.2823773 -0.07185524 -0.22455114 0.072854765 -0.21555263 0.07942603 0.35369137 0.041945674
-0.11773338 0.19545856 -0.23288204 -0.34100294 0.13090931 0.20992805 -0.2784044 0.26661423
-0.09129754 -0.044337977 -0.21688713 -0.029641949 -0.32230365 0.3434688 -0.1791701 -0.02887815
-0.16643555 0.11019158 -0.07209623 -0.19902979 0.005803699 -0.124953985 0.06270204 0.05750019
0.049184944 0.07131845 0.28955802 0.108838014 0.26206264 -0.23007856 0.20354591 -0.04373293
0.17187698 0.24578166 0.0017900794 -0.15025581 -0.16304481 -0.007503426 0.10234905 0.16451608
-0.11969086 0.13545208 0.056145847 0.16955905 -0.20570421 -0.21225241 -0.040255632 -0.10432236
0.07481397 -0.24730696 -0.008094307 -0.12265257 -0.26436114 0.19629417 -0.1708451 -0.3211594
-0.27281374 0.26997674 0.16590795 0.23097943 -0.08039555 0.19655 0.26825157 -0.12647112
0.057445314 0.042184107 0.31664404 0.04515655 -0.08492014 0.035024673 -0.13141625 0.1392696
-0.1365628 0.13852808 -0.0937762 0.32319295 0.15282215 0.050090183 0.026059147 0.06381558
-0.17751276 0.103381105 -0.01238451 0.0075167096 -0.1697798 0.103187285 0.03853681 -0.007928394
0.08416019 0.102834955 0.06747799 -0.06504718 0.12940788 0.11682071 0.1487614 -0.043765903
-0.2112105 0.3169556 -0.02561903 -0.17920437 -0.08159843 -0.15103076 0.1538667 -0.13784294
-0.01784613 0.004792088 0.2825002 0.07612791 -0.13210538 0.21838571 -0.11336603 -0.035180736
0.12953326 -0.034111038 0.16055813 0.18736827 0.2818467 -0.012343205 -0.1988323 0.004477669
0.23912865 0.18296711 0.23855908 0.088800795 0.14335242 0.22495584 0.0652055 0.022575824
0.1310776 -0.07867791 -0.29060876 0.021206597 0.098130934 -0.22518668 -0.21240298 0.1758088
-0.07837809 0.17791349 -0.03710394 0.1948155 0.20061754 0.046003044 0.21013378 0.104037195
-0.18890344 0.12608582 0.14352302 -0.06718327 -0.11703026 0.22271273 -0.21574566 0.17548029
0.12522303 -0.08081927 -0.06658708 0.08370023 0.13176078 -0.0981555 0.2306094 0.14989069
0.24324676 -0.039586853 0.2574219 -0.08204091 -0.035060734 0.0953814 -0.12261677 0.30732358
0.12635009 -0.26365775 -0.10835388 -0.113023005 -0.014236805 0.29997948 0.091494195 0.049138132
-0.27941555 0.16649224 -0.2801942 -0.009753666 0.18063414 0.16868861 0.021630267 -0.4373225
-0.056847893 -0.4452819 -0.09980652 0.019017339 -0.020660043 0.15830788 -0.3164468 0.32468504
-0.19301334 0.044664677 -0.08791576 0.058524933 0.19933508 0.16055326 0.085154824 -0.2664603
0.2460425 0.119594 0.28430903 -0.30572453 -0.107397005 -0.02823944 0.22752878 -0.048403203
0.005698574 0.318023 -0.043854363 -0.1681623 0.03319944 0.14640532 0.1834275 -0.05906198
00000000: f035 32be 62cd 303e 5371 4b3c 9acf 6f3b
00000010: 5eec c9bd a7f6 123e 1a78 e8bc 3b06 34be
00000020: 8f18 873e bec1 2e3e 65c3 b43c 0c74 2dbd
00000030: e48e abbe 2c19 2abe ca96 563e 6599 633e
00000040: a537 303e f7ce cc3d 0258 a1be 7b2a 5dbd
00000050: 5682 9fbd 8c6d 09be 4d47 c03d c5ee 543e
00000060: 3e8c b8be 0758 a43e fb34 03be 3c2c 623e
00000070: e246 80be 1e79 15be a9eb 903e 7763 213d
00000080: c293 903e d728 93bd bcf0 65be e134 953d
00000090: d4b9 5cbe 1daa a23d 0917 b53e 3acf 2b3d
000000a0: 331e f1bd 4a26 483e a178 6ebe f097 aebe
000000b0: 170d 063e 61f7 563e 068b 8ebe a981 883e
000000c0: 34fa babd bd9b 35bd a917 5ebe acd3 f2bc
000000d0: fc04 a5be 24db af3e 5e78 37be df91 ecbc
000000e0: 156e 2abe 20ac e13d 30a7 93bd 77ce 4bbe
000000f0: f52c be3b e0e7 ffbd ed69 803d 5285 6b3d
00000100: 2776 493d 680f 923d f340 943e 77e6 de3d
00000110: 132d 863e b799 6bbe 576e 503e 4d21 33bd
00000120: 8500 303e 30ae 7b3e 19a1 ea3a a9dc 19be
00000130: 38f5 26be 4ddf f5bb 619c d13d e776 283e
00000140: 7b20 f5bd f3b3 0a3e 30f9 653d e3a0 2d3e
00000150: 20a4 52be b258 59be 17e3 24bd f6a6 d5bd
00000160: 1138 993d 093e 7dbe fc9d 04bc 4531 fbbd
00000170: 585a 87be 5701 493e 05f2 2ebe 016f a4be
00000180: 3eae 8bbe 643a 8a3e c6e3 293e df85 6c3e
00000190: 6ca6 a4bd 6744 493e 4558 893e a581 01be
000001a0: c74b 6b3d 3ec9 2c3d 2b1f a23e 13f6 383d
000001b0: 9cea adbd 0876 0f3d fb91 06be b19c 0e3e
000001c0: 1ed7 0bbe 4eda 0d3e bd0d c0bd 8c79 a53e
000001d0: 697d 1c3e 5d2b 4d3d fe79 d53c beb1 823d
000001e0: e8c5 35be 79b9 d33d 66e8 4abc bb4e f63b
000001f0: c2da 2dbe db53 d33d c6d8 1d3d 18e6 01bc
00000200: 2d5c ac3d 229b d23d e731 8a3d 7537 85bd
00000210: 8083 043e b23f ef3d e954 183e e043 33bd
00000220: 9147 58be 0148 a23e 00df d1bc 5a81 37be
00000230: 141d a7bd cfa7 1abe 3b8f 1d3e b326 0dbe
00000240: 0c32 92bc f306 9d3b dea3 903e f3e8 9b3d
00000250: a246 07be 81a0 5f3e 732c e8bd ad19 10bd
00000260: 5ea4 043e 04b8 0bbd 5a69 243e 78dd 3f3e
00000270: 364e 903e 273b 4abc b29a 4bbe 69b9 923b
00000280: 24de 743e bb5b 3b3e d548 743e 31dd b53d
00000290: faca 123e d35a 663e 768a 853d eff0 b83c
000002a0: 3539 063e e221 a1bd acca 94be 75b9 ad3c
000002b0: dff8 c83d 5697 66be 2b80 59be 3907 343e
000002c0: b184 a0bd f42e 363e 4dfa 17bd b77d 473e
000002d0: af6e 4d3e b06d 3c3d 4f2d 573e 7411 d53d
000002e0: e76f 41be a41c 013e b3f7 123e 6297 89bd
000002f0: 90ad efbd ce0e 643e 6eec 5cbe 1bb1 333e
00000300: 773a 003e 9384 a5bd cf5e 88bd 076b ab3d
00000310: 4cec 063e c005 c9bd df24 6c3e f27c 193e
00000320: ae15 793e d325 22bd cecc 833e 1105 a8bd
00000330: d89b 0fbd 5357 c33d 801e fbbd 8459 9d3e
00000340: eb61 013e 26fe 86be a4e8 ddbd 9b78 e7bd
00000350: 7d41 69bc e996 993e 4f61 bb3d 1145 493d
00000360: 8e0f 8fbe f17c 2a3e 9d75 8fbe d7cd 1fbc
00000370: 28f8 383e b5bc 2c3e f531 b13c bce8 dfbe
00000380: 56d9 68bd fdfb e3be 5c67 ccbd 40ca 9b3c
00000390: 403f a9bc 761b 223e 5105 a2be 1e3d a63e
000003a0: 4aa5 45be 4ff2 363d 2e0d b4bd d7b7 6f3d
000003b0: 7f1e 4c3e 1368 243e a765 ae3d 7c6d 88be
000003c0: 91f2 7b3e b3ed f43d f490 913e ed87 9cbe
000003d0: f6f2 dbbd 6656 e7bc 4efd 683e 7042 46bd
000003e0: 1abb ba3b e9d3 a23e a2a0 33bd bd32 2cbe
000003f0: 23fc 073d 47eb 153e 6bd4 3b3e faea 71bd

rgcn.bias f4 [32]
0.10760204 -0.060812514 0.022480663 0.05897611 0.04064267 -0.08825954 0.012143191 -0.00015607824
-0.18811513 0.015453983 -0.08821914 0.020274177 -0.0074657225 0.022134565 0.07532411 -0.010043693
-0.0018330315 0.008543391 0.08316589 -0.13130374 -0.036775928 -0.038179964 0.14993402 -0.014390894
0.05480479 -0.045961987 -0.121733755 0.05871949 0.033245932 0.013742842 -0.08172454 -0.07582732
00000000: 755e dc3d 8b16 79bd 5e29 b83c ef90 713d
00000010: ee78 263d 6bc1 b4bd 3cf4 463c efa8 23b9
00000020: 41a1 40be b432 7d3c 3dac b4bd 0816 a63c
00000030: 05a3 f4bb 8c53 b53c 8743 9a3d 4d8e 24bc
00000040: 5542 f0ba 94f9 0b3c e152 aa3d 7d74 06be
00000050: 5ba2 16bd 9862 1cbd 4e88 193e c9c7 6bbc
00000060: fd7a 603d a342 3cbd 8c4f f9bd d983 703d
00000070: e32c 083d a829 613c 325f a7bd 5b4b 9bbd

linear_relu_output1.0.weight f4 [32, 32]
-0.35949576 -0.37058777 -0.099369414 -0.18501966 0.18206444 -0.40764302 0.28076774 0.0603586
0.14346185 -0.19262165 0.09512464 0.14324772 -0.18789718 -0.120422974 0.15727037 -0.13864891
-0.14978842 0.41144964 0.035732277 -0.25224528 -0.25741732 0.14339897 -0.018603755 -0.13818872
0.13772947 -0.20432594 0.024178337 0.056453355 -0.11271987 -0.05765052 0.17094146 0.07846217
-0.34270987 0.34440324 0.22725849 0.31027764 0.17049554 0.07360796 0.008079992 0.044412777
0.12582998 -0.3890343 -0.21380584 0.457844 0.21363483 -0.1992264 0.08876497 -0.02758652
0.045547977 -0.06350815 -0.32430077 0.029836573 0.12386611 0.052944556 0.20044549 0.3247004
-0.043453034 -0.31741357 -0.00904194 0.036924377 -0.3086573 -0.21733662 -0.26577085 0.130391
0.11027514 0.2935146 0.15694699 0.17044413 -0.046206415 0.2120027 0.09516484 0.275636
0.36010808 0.027630515 0.028780561 -0.007948164 -0.40406734 0.18885791 -0.25190127 -0.056766275
-0.30142066 -0.036874767 -0.20441782 0.14753218 0.028520193 0.06758653 0.03405027 0.0269182
0.06928196 -0.2189356 -0.23735566 -0.25579223 -0.10873413 -0.33161 -0.19011891 -0.3081456
-0.23920424 0.0057979818 -0.16508318 0.21046168 -0.17702025 0.34022477 0.23449643 -0.25331712
0.12886208 0.20182192 0.15259145 0.2379887 0.3469397 -0.1996251 -0.31730443 0.07466565
0.39287078 0.40320134 -0.32686105 -0.18813506 -0.060147364 0.1547847 -0.16880094 -0.3233229
-0.35126168 0.3634765 -0.13472529 0.13027544 -0.28860736 0.07169222 -0.27279878 0.1353875
-0.5666579 -0.36519787 0.41723895 0.047231697 0.21858007 -0.2873928 -0.29634616 -2.3101436e-05
0.3533952 -0.3792493 -0.32556507 0.46784973 -0.06003866 -0.25242543 0.50884753 -0.14082038
0.029188992 0.15282418 0.019015167 -0.1068736 -0.27894497 -0.24248634 0.26808038 0.36463073
-0.30292222 0.37320757 -0.000901828 -0.10871107 -0.048023675 -0.18005621 0.3470699 0.37803146
0.05390157 -0.3126142 -0.25597733 0.08253728 0.44997865 0.082464635 -0.14645132 -0.22240317
0.3118177 -0.012621651 -0.07096071 -0.2654955 0.33432734 0.3220498 -0.12857433 -0.25459373
0.3530391 -0.08448472 0.017481558 0.44596753 0.14818285 0.37621257 0.16796425 0.018966021
0.20261075 -0.20755479 0.1965528 -0.10187029 -0.42955935 -0.11233451 -0.2611118 -0.38382465
-0.43653995 -0.09547645 -0.05120229 -0.08095383 0.18913727 0.04029548 -0.38440457 0.1935751
0.24475044 -0.43849856 -0.093087636 -0.2837698 -0.19141619 0.27339715 0.17086418 0.026232453
0.17015608 0.2726786 -0.21764493 -0.09108711 -0.20397386 -0.011081557 0.13279428 0.31135732
0.14103316 -0.018290993 -0.20179065 0.10483735 -0.011443502 0.33640367 -0.061745305 -0.29424143
0.19126593 -0.35756934 0.00194233 0.14870407 0.29057536 0.18474524 -0.052739065 -0.36249387
0.011268462 0.23782448 -0.21283354 -0.21085122 -0.29910168 -0.23143016 -0.04312603 0.21121058
0.01110195 -0.15703969 -0.18103784 0.08697332 0.0015539996 0.09709734 0.14929987 -0.074255645
-0.11804437 -0.08645242 0.36313233 0.10959909 -0.32108 0.25462043 -0.018658694 0.29072925
00000000: d40f b8be aebd bdbe 3182 cbbd cb75 3dbe
00000010: 1a6f 3a3e 96b6 d0be cac0 8f3e 943a 773d
00000020: aae7 123e 9c3e 45be b5d0 c23d 88af 123e
00000030: 1e68 40be 52a0 f6bd 7c0b 213e fbf9 0dbe
00000040: 2362 19be 87a9 d23e 025c 123d 4b26 81be
00000050: 34cc 83be 2ed7 123e e766 98bc 5881 0dbe
00000060: f408 0d3e d23a 51be a611 c63c a23b 673d
00000070: add9 e6bd f422 6cbd 470b 2f3e c6b0 a03d
00000080: ab77 afbe 9f55 b03e 73b6 683e b6dc 9e3e
00000090: 6296 2e3e c5bf 963d f161 043c 2cea 353d
000000a0: 93d9 003e 812f c7be ebef 5abe 876a ea3e
000000b0: 17c3 5a3e 0102 4cbe 69ca b53d 20fd e1bc
000000c0: 8490 3a3d 9010 82bd c00a a6be d46b f43c
000000d0: 84ad fd3d 64dc 583d 9541 4d3e 213f a63e
000000e0: cffb 31bd 0884 a2be a524 14bc 043e 173d
000000f0: 5408 9ebe 7e8d 5ebe 1e13 88be 3885 053e
00000100: efd7 e13d 8c47 963e b6b6 203e e888 2e3e
00000110: f042 3dbd 3c17 593e c9e5 c23d 2920 8d3e
00000120: 1660 b83e 6459 e23c 36c5 eb3c 0439 02bc
00000130: eae1 cebe f863 413e 34f9 80be c183 68bd
00000140: cf53 9abe ff09 17bd e852 51be ad12 173e
00000150: 2ea3 e93c cf6a 8a3d 4c78 0b3d 8f83 dc3c
00000160: b3e3 8d3d a730 60be 5d0d 73be 33f7 82be
00000170: 00b0 debd c9c8 a9be 88ae 42be 43c5 9dbe
00000180: f5f1 74be fffc bd3b 910b 29be 4483 573e
00000190: cc44 35be f131 ae3e d51f 703e c8b2 81be
000001a0: 6cf4 033e 68aa 4e3e ef40 1c3e 4fb3 733e
000001b0: 15a2 b13e 866a 4cbe ba75 a2be 4eea 983d
000001c0: 5c26 c93e 6870 ce3e 555a a7be 7aa6 40be
000001d0: 155d 76bd e17f 1e3e 27da 2cbe 948a a5be
000001e0: 92d8 b3be 9819 ba3e 6df5 09be ed66 053e
000001f0: 58c4 93be 5fd3 923d 48ac 8bbe 05a3 0a3e
00000200: 7e10 11bf 37fb babe 58a0 d53e 0676 413d
00000210: 74d3 5f3e 2625 93be afba 97be f5c9 c1b7
00000220: 37f0 b43e f72c c2be 77b0 a6be 008a ef3e
00000230: 19eb 75bd e83d 81be d543 023f 3833 10be
00000240: c11d ef3c f17d 1c3e b2c5 9b3c 8ce0 dabd
00000250: e0d1 8ebe 574e 78be d541 893e e1b0 ba3e
00000260: 9f18 9bbe 1015 bf3e a768 6cba e9a3 debd
00000270: 79b4 44bd a860 38be 25b3 b13e 578d c13e
00000280: e5c7 5c3d f80e a0be 760f 83be 4e09 a93d
00000290: 9a63 e63e 38e3 a83d 56f7 15be a8bd 63be
000002a0: 92a6 9f3e 0bcb 4ebc d953 91bd 07ef 87be
000002b0: f42c ab3e b6e3 a43e fda8 03be 1c5a 82be
000002c0: 8ac1 b43e 5306 adbd 7c35 8f3c db55 e43e
000002d0: 3fbd 173e ef9e c03e d2fe 2b3e a15e 9b3c
000002e0: 3179 4f3e 3e89 54be 2345 493e 5fa1 d0bd
000002f0: 34ef dbbe a30f e6bd 72b0 85be aa84 c4be
00000300: 2a82 dfbe 2889 c3bd 7eb9 51bd 1fcb a5bd
00000310: 33ad 413e e00c 253d add0 c4be 8d38 463e
00000320: dc9f 7a3e e282 e0be bba4 bebd 464a 91be
00000330: 9b02 44be b6fa 8b3e 05f7 2e3e 71e5 d63c
00000340: 653d 2e3e 889c 8b3e 50de 5ebe e18b babd
00000350: 86de 50be 6b8f 35bc 39fb 073e 3a6a 9f3e
00000360: ff6a 103e fed6 95bc 35a2 4ebe f7b4 d63d
00000370: 877d 3bbc 1a3d ac3e a5e8 7cbd d0a6 96be
00000380: 37db 433e 5413 b7be c895 fe3a e145 183e
00000390: 4bc6 943e db2d 3d3e eb04 58bd cc98 b9be
000003a0: 5b9f 383c 4388 733e 09f1 59be 62e9 57be
000003b0: db23 99be 07fc 6cbe eca4 30bd 9647 583e
000003c0: f4e4 353c 03cf 20be fc61 39be 111f b23d
000003d0: 93af cb3a f8da c63d 11e2 183e 5813 98bd
000003e0: 3fc1 f1bd f70d b1bd 7bec b93e 7d75 e03d
000003f0: 9964 a4be 9c5d 823e 1eda 98bc 77da 943e

linear_relu_output1.0.bias f4 [32]
0.087231 0.058419082 -0.05387345 0.11795654 0.08349307 0.17805964 0.02238296 -0.044973865
0.069852084 0.17566432 -0.050495934 -0.1092042 -0.19500738 -0.0813157 -0.007853404 0.07773323
0.06931458 0.03031387 0.020128556 0.015348001 -0.057514798 -0.12339182 0.03559371 0.209015
-0.029464118 0.054835275 0.04140459 0.11744675 0.11525476 -0.10054294 0.04719084 -0.0003323937
00000000: 2ba6 b23d d948 6f3d 68aa 5cbd 3393 f13d
00000010: 6afe aa3d 4455 363e 785c b73c 8436 38bd
00000020: 9c0e 8f3d 59e1 333e d3d4 4ebd 74a6 dfbd
00000030: 04b0 47be d988 a6bd 90ab 00bc 9a32 9f3d
00000040: cdf4 8d3d cb54 f83c a4e4 a43c 2f76 7b3c
00000050: a394 6bbd dab4 fcbd b6ca 113d 0708 563e
00000060: bc5e f1bc f49a 603d dc97 293d ec87 f03d
00000070: b00a ec3d 75e9 cdbd 2f4b 413d 2145 aeb9

linear_output2.weight f4 [2, 32]
0.10474258 -0.20125984 -0.12791423 0.29953974 -0.23743683 0.28753814 0.050747603 0.2329254
0.3339027 -0.28764012 0.23016942 -0.34353524 -0.3298501 0.24323513 -0.031233802 -0.317384
-0.29583985 0.26882684 0.08697771 0.17626804 -0.009846843 0.17441799 -0.1998809 0.22006303
-0.09226412 -0.2268161 -0.04468245 -0.30274287 -0.37029254 -0.12907586 0.07843304 -0.22389452
0.14334103 0.21937652 -0.14277913 -0.23171271 0.5087397 -0.24998899 0.09209727 0.044669107
-0.36143294 0.23880674 -0.33644554 -0.213392 -0.021176593 0.06578104 0.02115333 0.11788802
-0.253957 -0.3283454 -0.0031301372 -0.025653804 -0.0053969226 0.26646274 0.37811548 -0.32099894
0.22894804 -0.07116966 -0.25438762 -0.44948184 0.12566029 -0.13222313 -0.23245732 -0.18401447
00000000: 4783 d63d 0f17 4ebe f3fb 02be 465d 993e
00000010: a422 73be 3338 933e b8dc 4f3d ff83 6e3e
00000020: 4bf5 aa3e 9145 93be 88b1 6b3e dae3 afbe
00000030: 1de2 a8be a112 793e 08de ffbc 2880 a2be
00000040: 5278 97be aca3 893e 5f21 b23d 9c7f 343e
00000050: a754 21bc a19a 323e 94ad 4cbe 3458 613e
00000060: f9f4 bcbd 7b42 68be f204 37bd 1d01 9bbe
00000070: fc96 bdbe 762c 04be 80a1 a03d 9b44 65be
00000080: fec7 123e 3da4 603e b134 12be 1946 6dbe
00000090: c43c 023f 1dfd 7fbe 7e9d bc3d f4f6 363d
000000a0: bd0d b9be c189 743e 9742 acbe 6f83 5abe
000000b0: 897a adbc 36b8 863d c049 ad3c 466f f13d
000000c0: a706 82be e31c a8be fd22 4dbb ed27 d2bc
000000d0: abd8 b0bb ce6d 883e 5a98 c13e f959 a4be
000000e0: 5b71 6a3e 66c1 91bd 183f 82be 7c22 e6be
000000f0: 17ad 003e 8065 07be 4b09 6ebe 4a6e 3cbe

linear_output2.bias f4 [2]
0.17929223 -0.15529719
00000000: 6298 373e 3a06 1fbe
